app/src/main/assets/all_model.tflite (tflite, 660280 bytes, 8 tensors)

sequential/dense/BiasAdd/ReadVariableOp f4 [100]
00000000: 3fe4 e9bd 677c 3e3e 8b5c 66bb 53a0 63bd
00000010: 7ec0 07be bc03 0a3d 9e02 dbbc bb2e 53bb
00000020: 2a31 4d3e 826e e7bd d212 afbd e021 a5bd
00000030: f843 0dbe b0f3 1d3c 33a5 eb3d 329c 34be
00000040: 1322 cfbd b1d2 55bd 4911 89bd 6b49 04bd
00000050: a0f7 07be 59fe 6e3e 1cd0 29be 3f1e e43d
00000060: d4b1 1b3e 1332 693d 161c 0ebe b4ed 023e
00000070: 15a4 0cbe ab06 48bd 30d4 313e beff afbe
00000080: bf09 c1bd d39d ef3d c0c4 7bbd dad6 e2bc
00000090: d778 3bbd d5b5 143e 018c 3fbd 6abe de3b
000000a0: 5149 a7bd 8a81 58bd 0b53 dcbd 082c 8ebd
000000b0: b51b 553e 4840 9fbd 243c 913c a5bb 8cbd
000000c0: fbef 8bbd cb16 ef3d d280 d4bd 46c5 9dbd
000000d0: 1010 2bbf 921b 4fbe 52de ebbd 74c4 7f3c
000000e0: 0483 903e d7d6 af3d 1085 8cbb f544 36be
000000f0: e438 4fbc 054b 44be 4e31 59bd 41ea 5f3d
00000100: cfb7 663d 596a c6bd 396f 783d aa14 0cbe
00000110: 1355 d03c b4be d7bc 9ae2 adbc cf22 f53e
00000120: d364 8ebd c948 06be e5b5 203d 64c3 eabd
00000130: 049a d03d d66c 3dba d20d 683e 919c 33be
00000140: e6a1 2abe 1718 f6bd 1fd3 e0bd 9156 a93c
00000150: 197a 92bd 8846 b3bc 1d60 54bc 6b00 363e
00000160: c41f 6f3e 20d5 ae3d 16a1 96bb 83a8 7fbd
00000170: 4529 b9bd 8211 b7bd 5809 4dbe b260 1b3d
00000180: 9284 c9bc a123 863e 3e49 a23e 18c7 03be
-0.114204876 0.18602143 -0.0035150375 -0.05557282 -0.13257024 0.033694968 -0.026734646 -0.0032223898
0.20038286 -0.113003746 -0.085485116 -0.08063102 -0.1379546 0.009640619 0.115061186 -0.17637709
-0.10113921 -0.052202884 -0.0669275 -0.03229658 -0.13278055 0.23339213 -0.16583294 0.111385815
0.15204555 0.05693252 -0.13877901 0.12785989 -0.13734467 -0.048834484 0.173661 -0.34374803
-0.09425687 0.117000245 -0.061466932 -0.02769034 -0.04576954 0.14522488 -0.046764378 0.0067976015
-0.08168281 -0.052857913 -0.10758027 -0.06941992 0.2081135 -0.077759326 0.017728873 -0.06871728
-0.06832882 0.11674269 -0.10376133 -0.077036425 -0.66821384 -0.20225361 -0.115170136 0.015610803
0.28224957 0.08585899 -0.004288323 -0.17799743 -0.012647841 -0.19169243 -0.053025536 0.05466676
0.056327637 -0.09688253 0.060652945 -0.13679758 0.025431192 -0.026336052 -0.021226216 0.4787812
-0.069528244 -0.13113703 0.03923597 -0.11463049 0.10185626 -0.00072259957 0.22661522 -0.17540194
-0.16663322 -0.120163135 -0.10977768 0.02067116 -0.071521945 -0.021884218 -0.012962368 0.17773597
0.23351961 0.08536744 -0.0045968397 -0.062416565 -0.09041075 -0.08938886 -0.20023096 0.037934013
-0.024599347 0.26199058 0.31696504 -0.12868917

sequential/dense_1/BiasAdd/ReadVariableOp f4 [13]
00000000: 2299 003e 55ce 3c3e f8cf f53b b40b d73a
00000010: d072 1dbe c607 1dbd 0a4d 833d 4207 63bd
00000020: eaaa bebf 1da0 88be 03cf 923f 31ea 5f3e
00000030: a01a 7c3c
0.12558416 0.18438084 0.0075015984 0.0016406686 -0.15375829 -0.03833749 0.064111784 -0.055426843
-1.4895909 -0.26684657 1.1469425 0.2186668 0.015387207

sequential/conv1d/BiasAdd/ReadVariableOp f4 [64]
00000000: 2867 6abe 31c9 5abe 7c60 c93d e861 e63d
00000010: 2813 f1bd 96e1 c33d b7d1 13bd de55 093e
00000020: 9018 41be 49c6 ed3d 8463 c6bc 593e 90be
00000030: 4e27 463e 7353 81bd dbed 853e cb0d 143e
00000040: ddc5 7abd 24f7 7dbe 6bc5 a73e f13f a83d
00000050: 7867 23be 199f 323e 8f96 5abe 7037 53be
00000060: 0732 0cbe 5e84 6c3d 3fb0 a4bd d18b c3bd
00000070: ef28 19be 18a8 74bb 514b 2d3d f500 fcbd
00000080: 4666 fd3c f495 98bd f902 61be 5904 443d
00000090: 6901 87be 4864 6b3d 2cdf 4f3e bb60 ddbd
000000a0: b433 31be 4df8 fa3c a877 1d3d cddb abbc
000000b0: a983 47be 2e22 18bc 4d2a 30bd 58b6 e63d
000000c0: 3d68 3d3d 03cf a9bc 4f6b 98be ac44 07bd
000000d0: 1034 a13c 2342 6c3e 844c 8bbd 04e1 353e
000000e0: ddfc 313c 5605 abbe cbbf 9d3d ffb4 c73d
000000f0: a505 fe3d 6f57 5fbc 1bbd 3dbe 0b3e 433d
-0.22890913 -0.21365811 0.09832856 0.11249143 -0.11771232 0.095645115 -0.03608867 0.13411662
-0.18857026 0.116100855 -0.024217375 -0.28172567 0.19350931 -0.06314745 0.26158032 0.14458387
-0.061223853 -0.24801308 0.32767805 0.08215321 -0.15957439 0.17443503 -0.21346496 -0.20626616
-0.13690959 0.057743423 -0.08041429 -0.09548152 -0.14957021 -0.0037331637 0.042308155 -0.1230487
0.030932557 -0.07450476 -0.2197379 0.04785571 -0.26368263 0.057468683 0.20299977 -0.108094655
-0.1730488 0.030635977 0.03844419 -0.020978833 -0.19483818 -0.009285493 -0.04300909 0.11265248
0.046241987 -0.020728594 -0.2976937 -0.033024475 0.019678146 0.23072104 -0.068017036 0.17761618
0.01086351 -0.33402508 0.07702597 0.09751319 0.1240342 -0.013631686 -0.1852917 0.04766659

sequential/conv1d_1/BiasAdd/ReadVariableOp f4 [64]
00000000: 7a05 1a3e 16c9 2c3d 880b 4ebe 7229 813e
00000010: 2c17 bc3d b811 42be 8887 213e ba5f f33c
00000020: 74ae b03e 1020 bfbd 1b06 85bd d875 f43c
00000030: 528c dcbd 3123 40bf f88c 163e 9d52 aabd
00000040: 16ec 8cbe cc9f ffbb b073 8d3e 201d 293c
00000050: 03a8 b93d a508 8ebe 3571 f03c d329 113d
00000060: 57bc 9b3e 1e4e 75be 0f63 c2be 5b8a dbbe
00000070: 5ec1 733e 8c3e 063e 28e9 5cbe 889d 253e
00000080: 3ff3 7a3e 23d9 703d a186 67be bd83 03bd
00000090: c726 c5bd 0725 933d 2ba6 6a3e 539a a2bd
000000a0: fd59 9e3e 8926 1a3d f011 913c ece1 93be
000000b0: 6b02 4c3d 401a e7bd e5c9 31be e04f fc3d
000000c0: 8ee9 713d a8f0 813e c64d bcbe c2b3 49bf
000000d0: 50f1 c23d a72a cbbd a25e 853e 4f0a babd
000000e0: d2bc da3d ba95 a2be d978 4dbc 966f 483e
000000f0: 8e23 6e3e 00be a8be 8102 8cbe b8b3 413e
0.15041152 0.042183958 -0.20121586 0.25226933 0.09184107 -0.18952072 0.15774357 0.029708732
0.34508097 -0.09332287 -0.06495305 0.029841349 -0.107689515 -0.750537 0.14702213 -0.083165385
-0.2752387 -0.0078010317 0.27627325 0.010321885 0.09065249 -0.2774097 0.029350856 0.035440277
0.3041713 -0.2395558 -0.379662 -0.42878994 0.23804232 0.13109797 -0.21573317 0.16173375
0.24506854 0.058800828 -0.2260995 -0.032108057 -0.09626537 0.07184797 0.2291495 -0.07939591
0.3092803 0.037634406 0.017708749 -0.28883302 0.049806993 -0.11284304 -0.17362173 0.123199224
0.059060626 0.2537892 -0.36778086 -0.78789914 0.09518683 -0.09920245 0.26048762 -0.090839975
0.10680546 -0.31754857 -0.012541019 0.19573817 0.2325575 -0.32957458 -0.2734566 0.18916214

sequential/dense/MatMul f4 [100, 1472]
00000000: b8de 213d 6564 62bc 009d efbb ce3c afbd
00000010: e1d9 8dbd ab85 4f3d 2655 25be f5de 1ebd
00000020: aaf5 323d 166a 7bbd 4bff 853d 1ada d8bc
00000030: 4ef2 133d 3a5c 25bd 58f8 aabd 62af e7b8
00000040: 8af1 0eb9 a332 ae3d f99a 8abe a907 adbd
00000050: f89f 883d db97 443d 8dd0 b03c c76c edbd
00000060: 2faf cbbd 9b1b 783d 4d36 1e3b 0fba 8b3d
00000070: 4600 5d3c 2907 493e 9115 8fbd 27ed ddbd
00000080: 28ce f9bd 8065 883a 3832 35bd e237 09bd
00000090: a18f 2f3e 965c 8abd abfe 973b bffa efbd
000000a0: 68e9 8cbd 2cec acbc 1273 56bd e40b 673c
000000b0: 8ef2 28be 033a 213d 8fbb f2bd da82 fabd
000000c0: 67af 283e e2a1 3bbe c32f e83d e4aa 2ebd
000000d0: 08ff 0a3d e967 58bd 3ba9 8bbd 942b acbb
000000e0: 4631 b1bc 363a 5dbc b050 c43c cc7d 483b
000000f0: 3888 02be 9589 abbd 5e2b 45bd 1e01 87bd
00000100: 68a6 c53d 096b 95bd 0411 bd3d 77a2 d8bc
00000110: 3e6b 40bd 0a27 813c 8158 97bd efbd 233d
00000120: 12d9 573d 597a 8bbc ef52 f43c 76d6 d8bc
00000130: 754d 463d 8ce9 803d 8e42 6e3c 80af 8e3d
00000140: 2576 6a3d dad5 c1bc 87ed 91be 7b95 293c
00000150: 2173 913c 2f62 d4bc 6581 c2bc 86bb 9ebd
00000160: c32f 303c 1695 1d3c 22f8 9b3d a222 813e
00000170: 3b1d 963d b2f8 b63d e1a0 13bd 571b 69bc
00000180: d6fd 003d 41c6 773c 1e27 1ebd 4521 5fbd
00000190: bc6f 7d3d 4ec8 da3b 6549 d1bd 696f e03b
000001a0: 9eb8 97bd 1d94 8ebd f398 74ba 1a50 de3d
000001b0: a4e8 55bd 2992 08be cb9c a4bd 15a0 dabb
000001c0: ecb8 9f3d 9b84 09be 1692 e0bd 3fae 0fbd
000001d0: 9676 e83d e1f2 0cbd b3a1 0cbd 68d5 b53c
000001e0: 599e 0d3d e576 83bc 1c35 26be 5b4a 4b3d
000001f0: b30f fabd 06a0 00bc fa71 44bd c298 5dbe
00000200: 9e13 443e e6ac 1abd 0e9b 93bd c075 9abd
00000210: 37f6 02be 72d6 0dbc 9304 06be d9eb ef3b
00000220: 49bc 8d3d 7ddc 263d 1613 80bd 39d9 8f3b
00000230: 28f6 3dbd bb02 623d ac30 e0bd fc65 bc3d
00000240: 8392 f83d b071 a5bd c545 1abe 6edf 1a3c
00000250: ce50 8d3d 7ee8 88bd 6873 19bc eb8b 13be
00000260: acb0 07be eb12 103d e9b3 e73d 4768 6ebc
00000270: 3d43 14bd c3ff de3b 61a6 8a3d 4616 d03d
00000280: a212 1d3d 7058 a93d 9b05 3fbd b440 303c
00000290: 9e91 843d c6cc 44bd a4bf 89bd 3450 cdba
000002a0: 669e 0b3d 620f 293d cae9 b33d 1bbe 5fbd
000002b0: 5fb7 95bd b07d 9dbc e6be 14be 3602 72bd
000002c0: 7fbb 193e 5f14 8cbe 5228 40bc 9b45 3bbe
000002d0: 0f09 ca3d ee79 2fbd 9919 1cbd f596 7f3c
000002e0: 0b17 99bd 2982 99ba 4d5a 92bd 8785 f73c
000002f0: d6d5 4bbe e251 06be bd0f 453b ece1 ffbd
00000300: 1967 67bb a8fc 55bd 328a 9abc 37a2 08bd
00000310: e821 57bd 6ec6 1ebc a009 2bbe 539d a5bc
00000320: 8a20 ed3c 4309 83bd ab45 033d 1721 7fbd
00000330: cff3 3f3c fc25 2c3d 6a18 b9bc ad9d 98bd
00000340: b78f 83bd 0bde 193d 3cd4 42be 28af dabc
00000350: bdf3 483d ce4c 303d aae9 4fbd 6876 d4bd
00000360: 451d 26be 844f 523d 1ce8 e2bc fc21 b63d
00000370: bba9 b6b9 a844 283d 00c2 99bd c721 0cbc
00000380: 8834 993d f0e5 82bb 763b 533d 5b04 b13c
00000390: 7f93 04bd 8620 e3bd 15ee f33d ff59 71bd
000003a0: d9ee 0fbe 4718 e53c dcbc d4bd 148b bdbd
000003b0: 534d b6bd 676e 903d 62f5 36be 5f36 d2bc
000003c0: cbf2 b2bc 2cc7 90be 0e32 1d38 9d2e 0f3c
000003d0: e06e c63d 0a3c b2bc d23e 1ebe 92e2 843d
000003e0: 7c85 183e ba80 bebd bee0 32bd 43ac 2abd
000003f0: 05f1 dbbd eca0 e13b 2e80 253d 2f0e 03be
0.03951904 -0.013817881 -0.007312417 -0.085565194 -0.06926323 0.050664585 -0.16145763 -0.038786847
0.043691315 -0.06138047 0.06542834 -0.026471186 0.03611975 -0.040371157 -0.08348149 -0.00011047606
-0.00013632156 0.08505752 -0.2707136 -0.08448727 0.066711366 0.047996383 0.02158382 -0.11593013
-0.09945523 0.0605732 0.0024141253 0.06822597 0.013488835 0.19631638 -0.06986535 -0.10836249
-0.12197524 0.0010406226 -0.044237345 -0.03350056 0.17144634 -0.067559406 0.004638513 -0.11717748
-0.06880456 -0.02110871 -0.052355833 0.014101956 -0.16498777 0.039361965 -0.1185218 -0.12231989
0.1647316 -0.18323472 0.11337235 -0.042643443 0.033934623 -0.05283347 -0.068193875 -0.0052542184
-0.02162994 -0.013502648 0.023964256 0.003059256 -0.12747276 -0.08375851 -0.04813706 -0.0659201
0.0965088 -0.07295806 0.09231761 -0.026444657 -0.046977274 0.015765686 -0.07389928 0.039976057
0.05269725 -0.017026113 0.029824702 -0.02646945 0.048413713 0.062945455 0.014542235 0.06967068
0.057241578 -0.023661543 -0.2850153 0.01035058 0.017755093 -0.025925724 -0.02374334 -0.07750611
0.010753575 0.009618064 0.07615687 0.25221735 0.07329794 0.089341536 -0.036042098 -0.01422771
0.031492077 0.015122951 -0.038611524 -0.054475088 0.061874136 0.00667671 -0.10219077 0.0068492186
-0.0740826 -0.06961844 -0.00093306525 0.10855122 -0.052223817 -0.13337006 -0.080377184 -0.0066719153
0.07798943 -0.13429491 -0.10965364 -0.035078283 0.113507435 -0.034411315 -0.034333896 0.022196487
0.03457484 -0.016047904 -0.16231197 0.049631458 -0.12210026 -0.007850653 -0.04796026 -0.21640304
0.19148108 -0.037762545 -0.07207309 -0.0754199 -0.12789236 -0.008657085 -0.13087682 0.0073218164
0.06920678 0.040737618 -0.0625364 0.0043899086 -0.04637733 0.055178385 -0.109467834 0.091991395
0.1213732 -0.08078325 -0.15065677 0.009452684 0.06900178 -0.06684969 -0.009365894 -0.14408843
-0.13250989 0.03517429 0.11313612 -0.014551229 -0.036196936 0.0068053915 0.067700155 0.10160498
0.038347848 0.08268821 -0.046636205 0.010757614 0.06473087 -0.04804685 -0.06726006 -0.0015664161
0.034086607 0.041274436 0.08784826 -0.054624658 -0.07310366 -0.019224972 -0.14525947 -0.05908414
0.1501293 -0.27359292 -0.011728363 -0.18288271 0.09865009 -0.04284089 -0.03811035 0.015599956
-0.07475098 -0.0011711764 -0.0714613 0.030215038 -0.1990579 -0.13117173 0.0030069195 -0.12494263
-0.0035309254 -0.052242905 -0.018864725 -0.033357825 -0.05252257 -0.009690864 -0.1670289 -0.02021662
0.02894618 -0.06398251 0.032048862 -0.062287416 0.011715843 0.042028412 -0.02259465 -0.07451949
-0.06423896 0.037565272 -0.19026273 -0.02669485 0.049060572 0.043041997 -0.05075995 -0.10374147
-0.16222103 0.051345363 -0.027698569 0.08893201 -0.00034840204 0.0410811 -0.07507706 -0.008552975
0.07480723 -0.003994696 0.05157038 0.021608522 -0.032367226 -0.11090188 0.11910645 -0.058923718
-0.14055957 0.027965678 -0.103875846 -0.09255043 -0.08901467 0.070523076 -0.17867044 -0.025660692
-0.021844288 -0.28276956 3.7478334e-05 0.008739141 0.096891165 -0.021757144 -0.15453652 0.06488527
0.1489467 -0.093018964 -0.043671362 -0.041668188 -0.1073933 0.0068856385 0.040405445 -0.1279838

sequential/dense_1/MatMul f4 [13, 100]
00000000: 84e8 b6be 0e9d d5bc a3b9 d23d 3f1c 323e
00000010: a426 4bbe c452 143e 42f2 85bd 6be4 b73c
00000020: 44b3 f8bc 0f74 cf3b 85a9 1f3d fec2 c7bd
00000030: 7937 813d 3ec9 80be 9a90 1bbe 9633 e23d
00000040: 6d27 89be 534e 8e3d 34f5 383e f0b3 d7bb
00000050: 4380 45be a8e2 e93d 18c9 be3d 8cd9 e1bd
00000060: aae6 ae3d 82de 02bf d75c 33bd c84a 97bd
00000070: b4e5 26be 93ab e3bd f394 4e3d 7ab0 5bbd
00000080: 3d92 f5bd da6e f63d e8a3 2abe 973f 233e
00000090: df32 c03d 4f85 153e b533 833d b593 14be
000000a0: 3475 cebd ac50 c13d 3ad0 2dbe 500c 3b3d
000000b0: 3bd3 ec3d 5396 73be 7a99 cabd 56a3 d93d
000000c0: 29da e33d eb28 5cbe a923 8bbe 577c 1abe
000000d0: d74f d4be cfeb 1fbe 5e5c 27bd 55c3 053e
000000e0: 88bb 493e b6f5 753d 79af f8bd 4dd1 a83d
000000f0: c676 293e 7f13 a2bc 2930 fb3c 7d17 de3d
00000100: 88d6 bdbd c6b9 ccbd 9a2e a23e e347 4f3e
00000110: dea4 57be f691 043e cc91 073e 0479 113e
00000120: 206e fbbd 802b 88be a996 583e a32d 18be
00000130: eeee 0dbe cd4b d2be c8a3 983e 53f5 993e
00000140: a9b1 8abe ab1e 61bd b286 2b3c 4657 153e
00000150: 9c8c ef3a 6449 163e a602 a53c a52a 5abe
00000160: 23eb 5b3e 1039 e33d d5b8 a83d 4056 883d
00000170: 6c44 e9bd 12a9 76bd 7c14 543e c16c ecbd
00000180: 46a8 ffbd 3e09 323e b3a5 763d 71c7 b1bb
00000190: cbc2 993d ab34 cb3d 3393 f13d 749d 9dbc
000001a0: d716 03be 6408 adbd f3ce 113e 4c4d 253e
000001b0: 24a5 9ebd 027d 4a3e cc7a d43d f87f bfbd
000001c0: c90d 383c 97ee 3abe b367 113d 8b9f c33d
000001d0: 6807 cabd 1f83 693d e759 ddbb 3f42 e73d
000001e0: f18c 0cbe 573c c43c 0263 df3d ff45 4abd
000001f0: 0567 32bd fb68 06be 88a3 83bc b237 8abe
00000200: 1aa0 5e3e 4769 9abd 5cde d83c 3b05 7a3d
00000210: 0a8a 143d 02d8 1c3e 2b27 963d 6073 ae3d
00000220: d736 723e 3ba7 3d3e 066a d63d 988e 033e
00000230: e54d b83d 6ef4 0dbe 56af 02bb de41 183e
00000240: 4f2b 1ebe 996e 67be aa8d 4bbb 22bf 173e
00000250: f462 97bd f8e1 053e a7f9 2d3d 17b7 613c
00000260: faa3 fc3d 72cd b7bd ba3d 453d 3ce9 3e3d
00000270: 142b 11be 1844 873d 6368 113e ca83 2d3e
00000280: aeff 4d3d f565 443e d7c9 56bd 2805 33bd
00000290: e154 41be 8f0b 0dbe 139c bb3d 939f b5bc
000002a0: 7de7 283e 0b49 373e 0323 7ebc d6d9 d93d
000002b0: 0097 2e3d 30ef a63d 67ce 24be 5433 82bd
000002c0: 192f 8ebd 53b9 18be 7085 fc3c e9fd bd3d
000002d0: c849 0c3e 6675 fbbd c938 103d 9e41 983d
000002e0: a21b 17be 4ddf db3d 7af7 56bd 5786 29bc
000002f0: 208c ea3d c280 a53d 8e6c 5e3d 01ec f83d
00000300: cc80 ca3d 3e6f 273b 5939 d43c e7e1 843d
00000310: 574e 553a 5a75 2fbe 72d4 073e 0f09 293e
00000320: 815f 283e 1e74 28be d856 873d e3c2 2bbe
00000330: 7993 14be a085 dcbd 5e6f b13c 0602 383c
00000340: d8f3 98bd 5551 55bd 646a 083e e999 f53d
00000350: e4e7 a1bd 6c22 313e efdd c0bc beff 1bbe
00000360: 0b03 203e 635b 95bd 37ea 45be b928 79be
00000370: 0033 663e 6563 90bd aaeb 64bd 5754 6a3e
00000380: 096f dc3c 9b88 0ebd 754b 14be f81c 6f3d
00000390: 615f e23d bff3 7a3e c5e9 ddbd 17c8 02be
000003a0: ecb4 433e f899 d83d e67c 383e 8203 4d3d
000003b0: 5945 e9bd 9493 3fbe f364 ddbd 1a29 b0ba
000003c0: 061f 2d3d 6727 f7bc 767e 053d b513 1b3e
000003d0: 6aea 203e 40fe d4bb 777e 813e ebf3 43be
000003e0: a1ac 17bd 862e 17be 079e 16be c623 ccbb
000003f0: bf24 cd3d d329 26be 467f 0abd 360d 593e
-0.3572427 -0.026075866 0.10289314 0.17393588 -0.19838959 0.14484698 -0.06540348 0.022447785
-0.030358918 0.006330974 0.038980026 -0.09753989 0.06309409 -0.25153536 -0.1519188 0.110449955
-0.26787892 0.06948533 0.18062288 -0.0065827295 -0.19287209 0.114201844 0.09315699 -0.11027822
0.085400894 -0.5112077 -0.04378971 -0.0738731 -0.16298562 -0.111167096 0.050435018 -0.053635098
-0.11990783 0.12032862 -0.16664088 0.15942226 0.09384703 0.14601634 0.06406347 -0.14509471
-0.100809485 0.09439215 -0.16973963 0.04566604 0.115637265 -0.23787813 -0.098925546 0.10626857
0.11125595 -0.21499984 -0.27175644 -0.15086494 -0.41467163 -0.15617298 -0.040859573 0.13062795
0.19700444 0.06004878 -0.12142844 0.08243046 0.16549215 -0.019784687 0.030662613 0.10844324
-0.09269434 -0.09996371 0.3167618 0.20242266 -0.21058986 0.12946305 0.13239211 0.1420632
-0.12276864 -0.26595688 0.21151222 -0.14861159 -0.13860676 -0.41073456 0.29812455 0.3006998
-0.2708867 -0.054960888 0.010469126 0.14584073 0.0018276158 0.14676434 0.020142864 -0.2130533
0.21476416 0.11094868 0.08238379 0.06657076 -0.113900036 -0.06021983 0.20710939 -0.11544181
-0.124832675 0.17386338 0.060216617 -0.0054253866 0.07507857 0.09922155 0.11795654 -0.019240119
-0.12801681 -0.08448866 0.14239101 0.16142768 -0.07746342 0.19774249 0.10374984 -0.0935058
0.011233755 -0.18255077 0.035499286 0.09551915 -0.09864694 0.057009812 -0.006755102 0.11291932
-0.1372564 0.023954554 0.10907556 -0.04938316 -0.04355528 -0.13125984 -0.016069189 -0.26995617
0.21740761 -0.07539611 0.026473217 0.061040144 0.036264457 0.15316775 0.073316894 0.085181
0.23653732 0.18520825 0.10469441 0.12847364 0.08999232 -0.13862774 -0.0019940934 0.14868876
-0.15446208 -0.22600783 -0.003105978 0.14819005 -0.07391921 0.13074481 0.042474415 0.013776562
0.123359635 -0.089747325 0.04815457 0.04660915 -0.14176589 0.06604785 0.14199977 0.16944805
0.050292663 0.19179519 -0.052438583 -0.04370609 -0.18880035 -0.1377394 0.09160628 -0.022170817
0.16494556 0.17898957 -0.015511277 0.10637252 0.042624474 0.0815109 -0.16094361 -0.06357446
-0.06942577 -0.14914446 0.030825347 0.09276945 0.1370002 -0.12278251 0.035210405 0.074343905
-0.14756635 0.107359506 -0.052482106 -0.0103469705 0.11452508 0.08081199 0.054302745 0.12154389
0.09887847 0.0025548483 0.025906252 0.064884 0.0008136979 -0.1713461 0.13264635 0.16507362
0.16442682 -0.16450545 0.06608361 -0.16773562 -0.14509381 -0.107676744 0.02165955 0.011230951
-0.074683845 -0.052079517 0.13321835 0.11992247 -0.07905558 0.17298287 -0.023543326 -0.15234277
0.15626161 -0.07292821 -0.19327627 -0.2433194 0.22480392 -0.07050208 -0.05588881 0.22883736
0.026908414 -0.034798246 -0.1448191 0.058377236 0.11053348 0.24507044 -0.108356036 -0.1277164
0.19111985 0.10576242 0.18016395 0.050052173 -0.1139018 -0.1870864 -0.1081027 -0.0013439984
0.042265914 -0.030170156 0.032591306 0.15144236 0.15714422 -0.0065000355 0.25291798 -0.19136016
-0.037029866 -0.14763841 -0.1470872 -0.0062298505 0.100167744 -0.16226892 -0.033812784 0.21196446

sequential/conv1d/Conv1D f4 [64, 1, 3, 15]
00000000: 3929 973e 5c50 23bd ffaa a0bd f1ec b03d
00000010: f34b b53c 033b 363e 7ef6 1cbe c70c e9bd
00000020: 4243 143d 249e 443e 3e91 0fbe 7b2c b1bd
00000030: 7446 ca3c 2ec5 b4bd 2e47 43be 9194 2d3e
00000040: ff96 febd 7ec8 c2bc 06bd 91bd 708a a53d
00000050: d9eb f43c 18f5 19bc 7531 84bd c0f6 09bd
00000060: cdce 6c3e f7b5 c9bd 8011 e43d ae28 233e
00000070: 5c72 8bbc ab0c 80be bfa3 e23d 5495 2b3d
00000080: 4a06 80bd 3fd5 2f3d e2ed f2bd a619 fabd
00000090: 7d48 afbd 41ac b3be 8fdd c9bc d097 803e
000000a0: 0c86 fc3c 3d6b c03d 241b 083e 18fb 363d
000000b0: c119 183f 36b6 723f aa9e 883e 990b 613e
000000c0: 2fe9 e6bd 2017 a9bd 72ca d4bd 14f6 edbc
000000d0: b7d7 063e d0cf 7e3c 6629 c1bd f5bc 563f
000000e0: 8926 543e 2594 e5bd 3f16 8f3d ce77 3a3e
000000f0: dab2 453f 3b6f 8e3e 4c93 cd3e 6b81 95bd
00000100: a8b4 0abe e897 5cbd 5b3c 21bd 07b7 e73d
00000110: df4a 363d 0097 bcbd 639f 4a3f 6367 e23d
00000120: a728 883a 5ee8 073c 51f3 993d 6ef5 4a3f
00000130: 6ede ae3e 4295 7c3e b46b d9bc 51f8 d63d
00000140: 13b9 84bc 5a5c 733e 7457 febd f089 3abd
00000150: 4648 7e3d 915b 573f 0816 9f3d 82ca 82bd
00000160: b3c5 993c dcc6 9d3d 0861 653e 6089 62be
00000170: ecbb 54be 8f92 08be 3cce 613e 1705 393e
00000180: 33b7 0bbd 8645 a8bd fd46 c63d e3cb 18be
00000190: 1134 a0be 5764 82be 84a2 59be 107b 923d
000001a0: 9d95 72bd 0aa7 923e abb7 12bd add4 29be
000001b0: 0e7e 913d 70f2 debd d726 d8bd 4000 d63b
000001c0: 47e3 24be 926b 2d3d 7c97 37bc ae0a 64be
000001d0: 5478 7abe 061c 85be 61de d3bc bc45 d4bd
000001e0: 2148 aa3e 9e65 77be fcfc 9abe 8475 a93d
000001f0: 09ff d2bd 5b5c bebd 85a8 8b3b 83cc 803d
00000200: bb8c 963d 8817 b53b aca4 6fbe 492f c6bd
00000210: 4b6d 4abe 9aa2 f7bc 42aa 0e3d cf92 493e
00000220: 8244 a93e a1e0 103e e809 b3bc d772 c33d
00000230: f4e7 3f3d 82d9 fe3d 1d1c b6bd c9d7 2b3e
00000240: 11cb 983d 971b 2cbe 3e04 dd3d 0add 59bd
00000250: 60d7 32b9 bfca 52be 6e47 923e 4be4 b43e
00000260: f0ac d33d 4929 1f3d f23d 63bd 2e62 b2bd
00000270: 60eb 993a 2668 f6bd b39a 163e dad7 363d
00000280: 6548 0fbc 1ada c83e bdee cfbd afef 0dbd
00000290: 7f33 d33c 6540 af3e 8f83 793e 4a9c 0b3e
000002a0: 3f37 563d 0803 9a3d 91e5 f1bc 0563 263d
000002b0: a74e 243d 815e 0dbd 904d 27bd 70f4 89be
000002c0: a318 363e b44c e2bd 94ad 3c3c 78e2 1abe
000002d0: 28f5 cdbd 4135 d43d d8fe f0bd d177 20bd
000002e0: 8822 583e bfa9 793d de45 fc3b 8fb5 593c
000002f0: 0589 133d b6ac a0bc 745c 6b3d 9146 08bd
00000300: 9183 db3d 9b9a 4a3d d7ab 013f bb58 3bbe
00000310: cd36 033e 8230 6abd 61c1 003e 17ff c6bd
00000320: 72ef 90bd 91d7 c13c 2a95 1f3c a877 4b3d
00000330: 682b b63d 182c a2bc a4c0 cd3c e929 0a3c
00000340: ab72 783d 4198 ce3e a28d 39bd 45f0 b7bc
00000350: 23a6 df3d 3a79 2abe 3978 17be c32d ba3c
00000360: 3066 1d3e 0a2e 2e3e f4cb 093e d1cb 983c
00000370: e3c4 17be 9126 8cbd 61e7 1ebe d230 0ebe
00000380: a10b 673e 3f3a 8cbe d252 a8be 875e 89be
00000390: 94e4 473e 545b 5fbc 97d6 513d 4a50 3a3e
000003a0: a50d d4bd 497e 8cbd 5825 10bd 29af 56bd
000003b0: 9859 bdbe 75a8 8cbd e500 d2bc 5742 973d
000003c0: 6052 54be 9e81 acbe 00fe dcbd ca65 683b
000003d0: e809 a03d 5027 473e edea 1b3e 6521 083e
000003e0: d4d9 7e3e 57ff b93d 5c96 9cbd a112 e8be
000003f0: 1f10 9abc 23e8 f2bd 20bc f13c 36e3 94bd
0.29523638 -0.03987156 -0.07845115 0.08638943 0.022130942 0.17795949 -0.15328404 -0.1137939
0.036196955 0.19200951 -0.14020249 -0.08651062 0.024691798 -0.088266715 -0.19070122 0.16951205
-0.12431144 -0.023777243 -0.071161315 0.080830455 0.029897617 -0.009396814 -0.06454746 -0.033682585
0.23125763 -0.0984916 0.1113615 0.15933487 -0.017022304 -0.25009665 0.11066388 0.041890457
-0.062511995 0.042927977 -0.11861779 -0.12211923 -0.08558748 -0.35092357 -0.02464178 0.25115824
0.030825637 0.09395454 0.13291603 0.044673055 0.594143 0.9480928 0.2668355 0.2197708
-0.11274945 -0.08256364 -0.10390176 -0.029048003 0.13168226 0.015552476 -0.09431724 0.83882076
0.20717825 -0.11209897 0.06986665 0.18209764 0.7722603 0.27819237 0.4015144 -0.07300075
-0.13545477 -0.053855807 -0.0393642 0.113142066 0.044504996 -0.092084885 0.79149455 0.11054876
0.0010388092 0.008295147 0.07517112 0.79280746 0.34154075 0.24666312 -0.026540615 0.10496581
-0.016201532 0.23765698 -0.12419024 -0.045541704 0.062080644 0.84124094 0.07767874 -0.063862815
0.018771028 0.07703945 0.22400296 -0.22122717 -0.20774812 -0.13337158 0.22051328 0.18068348
-0.03411026 -0.082163855 0.09681509 -0.14921527 -0.31289724 -0.25467178 -0.21253401 0.071523786
-0.059224714 0.28643066 -0.03581969 -0.16585036 0.07104121 -0.10886085 -0.10554283 0.0065307915
-0.16102324 0.042338915 -0.01120555 -0.22269699 -0.24459964 -0.25997943 -0.025862874 -0.10364863
0.33258155 -0.24159858 -0.30271137 0.082743675 -0.1030255 -0.09294959 0.0042620325 0.062890075
0.07351061 0.005526487 -0.23402661 -0.09676988 -0.19768254 -0.030228902 0.03483034 0.1968491
0.3306008 0.14148189 -0.02185531 0.09543388 0.046852067 0.1244383 -0.08892081 0.16781534
0.07460607 -0.168074 0.10791825 -0.053189315 -0.00017055636 -0.20585154 0.28570122 0.35330424
0.103357196 0.038857732 -0.055478998 -0.087101325 0.0011743121 -0.120315835 0.1470745 0.044639446
-0.008745288 0.39228898 -0.101529576 -0.03465241 0.025781391 0.34228817 0.24366592 0.13633838
0.05229878 0.075201094 -0.029528411 0.040621776 0.04011407 -0.034513954 -0.040845454 -0.26944304
0.17782836 -0.11049786 0.011515994 -0.15125453 -0.100565255 0.1036172 -0.117673576 -0.039176766
0.21106923 0.060952898 0.0076987585 0.013287916 0.036019344 -0.019613605 0.057461217 -0.033270422
0.10718454 0.04946385 0.5065283 -0.18295567 0.12813874 -0.057175167 0.12573768 -0.09716623
-0.070769206 0.02366236 0.009740153 0.04967466 0.08894998 -0.019796416 0.025116272 0.008432844
0.06065623 0.40350536 -0.045301087 -0.022453437 0.1092036 -0.16647807 -0.14791955 0.022726899
0.15371013 0.1700975 0.13456708 0.018651875 -0.148212 -0.068432935 -0.15517952 -0.13885811
0.2256303 -0.27388188 -0.32875687 -0.2682993 0.1952079 -0.013632614 0.05123004 0.1819469
-0.10354165 -0.068600245 -0.035191864 -0.05241314 -0.36982417 -0.06868068 -0.025635192 0.073857
-0.20734549 -0.3369264 -0.10790634 0.0035461062 0.078143895 0.1944859 0.15226336 0.13293989
0.24887782 0.09081905 -0.07645866 -0.45326713 -0.018806515 -0.11860683 0.02950865 -0.072698995

sequential/conv1d_1/Conv1D f4 [64, 1, 3, 64]
00000000: da94 7fbd 508b 763c 8ac5 a9bd 40a8 083e
00000010: 9ad5 c0be 461c 23be 2655 08be a322 d8bd
00000020: 1e51 17bd d8cf 20bd a028 f7bc 15d9 e03d
00000030: 1e47 80bd ee4e f2bd 16e2 633d 5f6d 303d
00000040: eb70 96be f699 ec3d 9c83 ecbd 062a 3bbd
00000050: 9e86 ffbc d985 2b3e 3309 cabd be68 98be
00000060: 832f d6bd 36ab ddbd 70eb 36bd 7506 04be
00000070: cbd9 a03d 7ca2 163c 3a58 a7be 0156 1f3e
00000080: e898 df3e 0899 a5bc 5ddc cebe 85f2 d53d
00000090: e3fa fabd 4603 9ebd 51dd a0be 1048 25be
000000a0: a22d 8b3d ab60 69bd 41e2 80bc c72e 163c
000000b0: 01e1 283e 0309 6b3d c227 a5bd 90da 8b3e
000000c0: f7b6 483e f7d9 cb3d 8ee6 d1bd b9e2 503e
000000d0: eccd b73c 1ba3 41be 8cfa 9ebd bee3 2bbe
000000e0: e01f 89bd a9c5 5abe 7ec4 8d3e 5906 2d3e
000000f0: 2c22 d73d 6d50 1fbe d9fd 48be 10ec 83be
00000100: aa2f b9be f5bc 073e 2f99 4bbe 445c b03d
00000110: 2290 a4be 6903 70bd 2d89 033e 70e4 6cbe
00000120: 449d 16be d435 f1bd 2057 7abd 9ca0 543d
00000130: 3799 f43d 2589 a33d 208d f83b c3a7 b1bc
00000140: 7390 81bc b5c6 1ebd 3ac6 ae3c 4bba db3c
00000150: f236 76bd ba21 053e 94d8 ad3c 68a7 92bd
00000160: 63b2 4abd 207d 5f3d bdb0 dd3d 8b77 b2be
00000170: f588 0f3e 60be 3e3d 478b 89be 42f2 053e
00000180: 88ac 8b3e 243e 033e 6019 c5be 4e9e 223e
00000190: 1f5b c63c 522e e0bd 7df1 afbd 72bf 43be
000001a0: 2e14 71bd 60a3 513d 5002 1a3e 8f87 92bd
000001b0: 93d1 c13d 1aac 88bc 5cff 633d 9b3e 5a3e
000001c0: 01b0 043e 85fa 28be 4db9 f33b 20ea 283d
000001d0: 7928 ae3d 65a1 80be 7763 d4bb 0dcf 04be
000001e0: 616a 38be 62f9 173d 7419 373e 64f3 663d
000001f0: ab61 e2bd ce82 a2bd 6536 e4bd c4c9 88bd
00000200: 33c1 2abe c374 1a3e 6b46 4fbe 2b76 023e
00000210: 015d f5be f637 4cbe 2ad0 67bc 1c5e 96bd
00000220: 3b82 29be d219 133d 762e 95be 614f db3b
00000230: 4953 0a3e f740 863d a79c 22bd ae48 d83d
00000240: ac57 60bd fa58 c4bd 389b b63d 0dc7 943c
00000250: e256 02be 34c9 2d3e ec70 d4bc b86d 8cbe
00000260: c330 66bd bc10 0dbd bcee 2a3d 73fc 5dbe
00000270: cc3b 6c3e d956 42bc 62bf 97be b639 7b3c
00000280: 1b42 643e ad4d 213e 11e4 f5be eacb 663d
00000290: 3376 f1bc 4d9d 01be 1a01 51be 09cc 93be
000002a0: 9135 cf3d 6d3b 5abd a0f8 1f3e 61fe 9c3d
000002b0: 71d7 b43d feb5 54bd 942e f3bd 40f9 913e
000002c0: d513 6e3d eab1 013d 86ab d43d d0c6 803d
000002d0: f30b 603d d599 ecbd 9e20 a9bd 2c31 06be
000002e0: e17f e7bd 03bb 63be bee8 123e 6dc4 f93d
000002f0: 66a6 ccbd ec42 e23d d6c7 9fbe f308 f5bb
00000300: 0f75 1dbd 7c63 3a3e 9246 153d ff12 c53d
00000310: 732e d7bc 2640 f7bd f26b 85be 6c8a 4b3d
00000320: 7a49 9bbe 19ec 083d 1019 053e 269e fcbd
00000330: 9a0f 083e 73b5 123d 0f1e 003d 6deb e4bd
00000340: a1ec 823e cff9 33be 9886 b3bd fe4d c73c
00000350: 5ca1 b5bd 8880 bbbd d516 08be 6129 063e
00000360: c94d 15bd 1f67 e23c 4832 ccbc f523 ac3d
00000370: d9f9 2e3c 6a97 db3d b16b 133e 5165 bc3c
00000380: 486f 1abe 31cb bfbd 1399 073e 467e bcbd
00000390: e010 3ebd fea0 b63d c9d2 bdbd 7839 c13d
000003a0: 4a3f 3fbe cf64 fcbd 5a9e 2a3e aa56 473a
000003b0: 5c57 123d 47de 0f3e 3656 273d b876 fabd
000003c0: 27dc 33bd f14c 93bb 886f 553c f30b e63d
000003d0: ec60 28be 891e ceba 19b1 943d 2781 c5bd
000003e0: 1a92 51bd 4a2e 42be 3ee4 333e be6e 393d
000003f0: 1964 3b3e 5707 1ebd a507 ba3d 93ee a53c
-0.062397815 0.015047863 -0.08289631 0.13345432 -0.37662965 -0.15928754 -0.13313732 -0.105534814
-0.036942594 -0.039260715 -0.030170739 0.10978905 -0.062635645 -0.11831461 0.055635534 0.043073054
-0.29383025 0.11552803 -0.1154854 -0.045694374 -0.03119212 0.16750278 -0.09865036 -0.29767412
-0.10458281 -0.108236715 -0.044658124 -0.12893088 0.07854041 0.009194013 -0.326845 0.15560152
0.43671346 -0.020214573 -0.404025 0.104466476 -0.12254884 -0.07715468 -0.3141885 -0.16140771
0.06795813 -0.056976955 -0.015732886 0.009166426 0.16492082 0.05738164 -0.08064224 0.27315187
0.19601046 0.09953683 -0.10249053 0.20398988 0.022437058 -0.18909876 -0.07762632 -0.16786095
-0.06695533 -0.21364464 0.27688974 0.16896953 0.10504565 -0.15558024 -0.19628085 -0.2576604
-0.36169177 0.13255675 -0.19882654 0.08611348 -0.32141215 -0.058597002 0.12845297 -0.23134017
-0.1470843 -0.11777845 -0.061118245 0.05191098 0.11943286 0.079851426 0.007585183 -0.02168644
-0.015815949 -0.03876372 0.021334756 0.02682223 -0.060110994 0.13001147 0.021221437 -0.071608365
-0.04948653 0.054562688 0.10824726 -0.3485683 0.14017089 0.046568274 -0.26864073 0.13080695
0.27280068 0.12816674 -0.38495922 0.15880701 0.024213372 -0.10946335 -0.08590982 -0.19116
-0.058857135 0.051181197 0.15039945 -0.07154762 0.09463801 -0.016683627 0.05566345 0.21312945
0.12957765 -0.16501816 0.007437861 0.041238904 0.08503813 -0.25123134 -0.0064815837 -0.12969609
-0.1800933 0.037103064 0.17880803 0.05638446 -0.11053785 -0.07935105 -0.111431874 -0.06679109
-0.16675262 0.15083604 -0.20241706 0.1274039 -0.4792252 -0.19943222 -0.014148751 -0.07342169
-0.16553585 0.035913296 -0.2913701 0.0066928123 0.13508333 0.0655536 -0.039700177 0.105607376
-0.05477111 -0.095872834 0.089163244 0.018161321 -0.12728456 0.16971284 -0.025932752 -0.2742746
-0.056198847 -0.034439787 0.04173158 -0.21678333 0.23069686 -0.011861526 -0.296382 0.015333584
0.22290842 0.15752287 -0.48025563 0.05634681 -0.029475307 -0.12657662 -0.20410576 -0.28866604
0.10117639 -0.05327933 0.15622187 0.076657064 0.08830155 -0.051931374 -0.118741184 0.28510475
0.058124382 0.031663813 0.10384278 0.062879205 0.054698896 -0.11552779 -0.08258174 -0.13104695
-0.11303688 -0.22239308 0.14346597 0.12195668 -0.099926755 0.110479206 -0.3120715 -0.0074778735
-0.038441714 0.18202013 0.036444254 0.09622764 -0.026267266 -0.12072782 -0.26058918 0.049692556
-0.30329496 0.033428285 0.12997842 -0.12334852 0.13287202 0.035817575 0.031278666 -0.111777164
0.2557116 -0.17575763 -0.08765906 0.024329182 -0.088686675 -0.09155375 -0.1328996 0.13101722
-0.036451135 0.027637063 -0.02492632 0.08405296 0.0106796855 0.10722239 0.1439655 0.02299753
-0.15081513 -0.093649276 0.13241987 -0.09203772 -0.046402812 0.089174256 -0.0926872 0.094347894
-0.18676487 -0.12323915 0.16661969 0.00076041615 0.035727844 0.14049636 0.0408537 -0.12229675
-0.043911126 -0.004495256 0.013027079 0.11232748 -0.16443223 -0.0015725653 0.07260341 -0.096437745
-0.051164724 -0.1896297 0.17567536 0.045271628 0.18299903 -0.03858122 0.09083489 0.020255363
