app/src/main/assets/model.tflite (tflite, 3140 bytes, 5 tensors)

sequential/dense/BiasAdd/ReadVariableOp f4 [10]
1.1081555 1.1744648 1.1944785 1.217017 0.42849702 1.0688831 1.1032856 1.1302059
1.1669799 1.0781652
00000000: 0ad8 8d3f dd54 963f ace4 983f 37c7 9b3f
00000010: f663 db3e 29d1 883f 7638 8d3f 96aa 903f
00000020: 995f 953f 5101 8a3f

sequential/dense_1/BiasAdd/ReadVariableOp f4 [10]
-0.1273604 0.8956932 -0.10071795 0.82071346 -0.11530929 0.91127795 0.98877764 -0.062658586
-0.15674049 -0.15768021
00000000: c46a 02be 264c 653f 3645 cebd 471a 523f
00000010: 4727 ecbd 8349 693f 8820 7d3f 2553 80bd
00000020: 9480 20be ec76 21be

sequential/dense/MatMul f4 [10, 6]
0.30489954 -0.93840885 1.5071334 -1.3947705 1.0500536 0.19108096 0.8003224 -0.95558643
0.728882 0.31279147 -0.8282319 1.1469886 -0.5132979 -1.3456217 1.5803708 0.7518514
-1.3248994 1.2571949 -1.3977435 -1.5478903 0.607625 -0.4701746 0.3101261 -1.2054019
-0.69423616 -0.019656843 0.08347935 0.8301687 0.67329854 0.6228138 0.035397343 -1.323223
1.5350392 -0.7402641 1.1118147 -1.0669063 -0.5693349 -0.8238784 1.1243047 -1.1826658
1.3144643 0.5765784 -0.6779645 -0.97296923 0.76440567 -0.8742532 1.1697559 0.949313
-0.9142005 -1.0098445 0.6451317 0.99667495 -1.3221084 -0.5875226 0.81670755 -1.0472593
0.83601147 -1.1302449 -0.903611 -0.19562836
00000000: cb1b 9c3e 903b 70bf bfe9 c03f d787 b2bf
00000010: 2868 863f baaa 433e eee1 4c3f 50a1 74bf
00000020: 0398 3a3f 3426 a03e 0107 54bf 86d0 923f
00000030: 7e67 03bf 553d acbf 9749 ca3f 5579 403f
00000040: 4e96 a9bf c3eb a03f 42e9 b2bf 4521 c6bf
00000050: 508d 1b3f baba f0be d9c8 9e3e 9c4a 9abf
00000060: 76b9 31bf 6307 a1bc 39f7 aa3d f085 543f
00000070: 4b5d 2c3f ba70 1f3f cefc 103d 5f5f a9bf
00000080: 2a7c c43f f381 3dbf f24f 8e3f 6390 88bf
00000090: efbf 11bf b2e9 52bf 37e9 8f3f 9861 97bf
000000a0: 5e40 a83f a49a 133f 158f 2dbf 8314 79bf
000000b0: 17b0 433f 0fcf 5fbf 90ba 953f 2d06 733f
000000c0: 0b09 6abf 9642 81bf 5a27 253f 1726 7f3f
000000d0: d93a a9bf e267 16bf bf13 513f 980c 86bf
000000e0: d904 563f ddab 90bf 0d53 67bf cd52 48be

sequential/dense_1/MatMul f4 [10, 10]
0.23162694 -0.44848615 0.08764974 -0.5390041 -0.18014091 -0.118679255 0.2385979 -0.6980708
0.011897504 0.08541177 1.0223529 0.7754267 0.5859191 0.72175384 0.6089471 1.316268
0.7050477 1.2509891 1.1094978 0.72635186 -0.15039314 -0.09211566 0.078945294 -0.054878242
-0.07827279 0.28569892 -0.26899204 -0.489736 -0.04629851 -0.18459426 0.94193137 1.3246651
0.979471 0.94365364 0.35885736 1.4182212 1.0878025 0.6090334 0.64545155 0.7989855
-0.23777233 -0.16590063 -0.32753608 0.21689579 0.22480604 -0.10351643 -0.44929582 -0.1257725
-0.2764214 -0.012589616 1.2316927 0.70150137 0.642552 0.5375958 0.35709077 0.4859995
1.0295118 1.1918631 1.1613954 0.95196015 0.6801132 1.0793197 1.4213941 1.4622164
0.93415284 1.2684828 1.3967593 1.4868813 1.3356814 1.3267626 -0.4292532 -0.20353706
0.07790244 0.11599402 -0.54547906 -0.009537418 -0.23199849 0.17674418 -0.4819479 -0.027232317
-0.52417374 0.17493151 -0.24005303 -0.13684827 -0.541266 -0.14735757 -0.33725965 -0.54360276
-0.35697272 0.22126876 0.09956338 -0.1029476 -0.38675606 -0.6225517 0.12711827 -0.053362757
-0.3359349 0.24974824 0.09060334 -0.46772635
00000000: 9d2f 6d3e fa9f e5be b581 b33d 2cfc 09bf
00000010: dc76 38be 1c0e f3bd 0253 743e c5b4 32bf
00000020: c0ed 423c 5eec ae3d 76dc 823f 5d82 463f
00000030: cbfe 153f dcc4 383f f5e3 1b3f 787b a83f
00000040: 027e 343f 6920 a03f 0604 8e3f 32f2 393f
00000050: a900 1abe 23a7 bcbd 12ae a13d 02c8 60bd
00000060: 7c4d a0bd 2147 923e 53b9 89be adbe fabe
00000070: 82a3 3dbd 4706 3dbe 6a22 713f a08e a93f
00000080: 9dbe 7a3f 4993 713f 27bc b73e 4688 b53f
00000090: 1d3d 8b3f 9de9 1b3f 503c 253f 508a 4c3f
000000a0: 977a 73be dbe1 29be cfb2 a7be ee19 5e3e
000000b0: 8e33 663e 6c00 d4bd 1a0a e6be 82ca 00be
000000c0: 1b87 8dbe ad44 4ebc 1ba8 9d3f 9895 333f
000000d0: 4a7e 243f e19f 093f 9ad4 b63e edd4 f83e
000000e0: 0bc7 833f f88e 983f 9ba8 943f a9b3 733f
000000f0: e61b 2e3f 2627 8a3f 3ef0 b53f e829 bb3f
00000100: a424 6f3f a55d a23f 02c9 b23f 2052 be3f
00000110: 9cf7 aa3f 5bd3 a93f 13c7 dbbe 056c 50be
00000120: 518b 9f3d 468e ed3d 84a4 0bbf d542 1cbc
00000130: 0391 6dbe 6dfc 343e e0c1 f6be 4f16 dfbc
00000140: 4030 06bf 3f21 333e 76d0 75be f421 0cbe
00000150: 6990 0abf e7e4 16be 4cad acbe 8d29 0bbf
00000160: 21c5 b6be 4794 623e e3e7 cb3d 31d6 d2bd
00000170: e404 c6be 8c5f 1fbf 4b2b 023e e892 5abd
00000180: a9ff abbe 01be 7f3e 3e8e b93d d479 efbe

sequential/dense_2/MatMul f4 [1, 10]
-0.24500547 1.397421 0.0192952 1.6874515 -0.06829354 1.5266554 1.0204651 -0.48301685
-0.5797612 -0.027076133
00000000: b7e2 7abe b1de b23f f810 9e3c 69fe d73f
00000010: 7cdd 8bbd 7269 c33f 9a9e 823f fc4d f7be
00000020: 3b6b 14bf c4ce ddbc
