app/src/main/assets/respeck_model.tflite (tflite, 653504 bytes, 8 tensors)

sequential_1/dense_3/BiasAdd/ReadVariableOp f4 [13]
000000 b1 2a 15 3e 3c eb a0 3d 67 16 b5 bc ef 8c 00 3c
       0.14567067 0.078573674 -0.022105409 0.007846101
000010 ff ad 6e bd 65 97 33 3d b4 88 5b 3d e0 40 08 be
       -0.058271404 0.043845553 0.053597167 -0.13305998
000020 3c 2f 76 bf 18 30 6a be a5 f9 e7 3e 37 75 04 3e
       -0.96165824 -0.22869909 0.4530765 0.12935339
000030 61 1a c4 3d
       0.09575344

sequential_1/dense_2/BiasAdd/ReadVariableOp f4 [100]
000000 2e 03 88 3d 32 4a 44 3e a6 93 90 bd c8 e3 be 3d
       0.066412315 0.19168928 -0.07059412 0.093207896
000010 0e 91 0c be e4 9d e0 bd c0 ae f5 3d 88 96 e3 3d
       -0.13727209 -0.10967615 0.119962215 0.11112696
000020 cb f8 c6 3d a5 7f 82 3c 0a 53 ce 3d 5b c6 49 bd
       0.09715422 0.015930006 0.10074432 -0.049261432
000030 8a 6b 18 3e a9 42 97 bc 72 09 5b 3d ee b0 ea be
       0.14884773 -0.018464403 0.053475805 -0.45838112
000040 98 09 55 3d 32 57 23 be e4 bc df 3d 30 f1 09 be
       0.052011102 -0.15951231 0.109247 -0.13470912
000050 2a 6d df bc af 96 44 be b9 ba 07 3e 90 19 a3 3e
       -0.027273733 -0.19198106 0.13254823 0.3185544
000060 30 26 bb bd cd cf 22 bf d6 0d a8 3d 2d d4 f2 bb
       -0.09138143 -0.6359833 0.08205764 -0.007410547
000070 5c 25 3c 3d f3 5c 06 3e 30 d2 62 3d 7c 3a 05 bd
       0.045934066 0.13121395 0.05537623 -0.03252648
000080 50 70 e7 bd 8b 9e cb bc f8 57 9f bd ec 29 61 be
       -0.11300719 -0.024855873 -0.077804506 -0.21988648
000090 54 2a 18 3e 66 ec 6a 3c 67 d3 10 3e aa cc a5 bd
       0.14859897 0.014338588 0.14143144 -0.08095677
0000a0 20 01 26 bd 0e 4b 50 3d be c6 19 3e 3f 63 1f 3d
       -0.040528417 0.050852828 0.1501722 0.038913008
0000b0 3f 9d ae bd 1c ab 1a be 30 07 f0 3c 0d aa 0c 3d
       -0.08526086 -0.15104336 0.029300302 0.03434186
0000c0 7c 2b 6c 3d a1 ff a8 3d c7 50 97 bc a6 b6 64 be
       0.057658657 0.08251882 -0.018471135 -0.223353
0000d0 61 78 10 3e d6 51 31 bd d9 ce 74 3c 8f 6f 7d 3d
       0.14108421 -0.043290935 0.014941894 0.06187397
0000e0 9f 27 28 be 6d 1e 66 bd 5f 9c b1 bd 49 be ff 3c
       -0.16421364 -0.05618136 -0.086724035 0.031218665
0000f0 44 ca a3 bd e9 9e 32 3d 29 0b c0 3d 29 29 62 bd
       -0.079975635 0.04360858 0.09377129 -0.055215035
000100 9a 64 0a bd 44 c6 b8 bc c5 b4 24 3d 6b cd 03 bf
       -0.033787347 -0.022555478 0.040211458 -0.5148532
000110 be d3 d4 3d 8c 09 06 bd 4b 00 3c 3b 86 26 ca 3e
       0.10391949 -0.03272395 0.0028686698 0.39482516
000120 8f e7 c1 bc a8 8a 90 3e 4f 09 72 be 6d cd 1f 3d
       -0.023669986 0.28230786 -0.23636363 0.03901427
000130 81 da e1 bd 4f 68 d8 3d a3 16 0d 3e 2c 6f 0e be
       -0.110280044 0.1056677 0.13778166 -0.13909596
000140 1e 4c ee 3c 7d 46 a2 be 86 8f 59 3e bc 5a f6 bb
       0.02908903 -0.31694403 0.21246156 -0.0075181406
000150 0c a1 6a bd e9 fa 2c 3e de 96 99 bd 25 1f 9c bd
       -0.057282493 0.1689259 -0.07499479 -0.07623128
000160 b7 9a 95 3d a9 f6 33 be 39 8b 4e 3e aa 6e 34 3e
       0.073049 -0.17574562 0.20170297 0.1762034
000170 f6 a0 e2 bd fc 03 83 be d9 a3 e9 3b 07 9e 56 bd
       -0.11065857 -0.25588977 0.007130128 -0.0523968
000180 66 b9 20 3e 5a ec d9 bc cb 0b 00 bd 5c 90 66 3b
       0.15695724 -0.026601959 -0.031261247 0.003518126

sequential_1/conv1d_3/BiasAdd/ReadVariableOp f4 [64]
000000 64 8e ae be e5 a4 6f 3d 7a 42 03 bd da 76 18 be
       -0.3409301 0.058506865 -0.03204582 -0.14889088
000010 41 3a c0 be 02 91 ad 3c c8 28 52 be 6a 7b 69 bd
       -0.37544444 0.02118731 -0.2052337 -0.057002462
000020 b8 ca 47 3d 22 0a 64 bc e2 56 2d bf 58 87 96 3d
       0.048777312 -0.0139184315 -0.677107 0.073500335
000030 3d 87 39 3c 74 3a a2 3d 79 58 93 3d e4 70 b0 ba
       0.011323747 0.07921305 0.07194609 -0.0013461378
000040 fe 7d 3d bc c9 a7 f5 bd 2d c6 7c be 0a c0 a4 3d
       -0.011565683 -0.11994893 -0.24684973 0.08044441
000050 90 06 21 3e 28 3c 2b bc 95 58 c7 bb 9e ca 85 3d
       0.1572516 -0.010451354 -0.006083558 0.06532787
000060 8a dc 88 be 73 0e 8d be e5 24 c1 3d 77 6a da 3d
       -0.26730758 -0.27550086 0.09430865 0.10664838
000070 49 6d 20 3d a2 31 59 3c 7f ba b5 be 02 ad 06 3e
       0.039166722 0.013256462 -0.35493848 0.13151935
000080 eb be 79 bd 9d b6 15 3e 88 05 86 3c d2 e9 bc be
       -0.06097309 0.14620443 0.01636006 -0.3689714
000090 60 da 07 3c 92 e9 08 3e a6 b1 22 3d f6 2e 15 bf
       0.008291811 0.1337035 0.0397202 -0.5827478
0000a0 62 fd 4f 3d 6a 4b 79 be e8 8b 7c 3d a0 0f 70 be
       0.050778754 -0.24345174 0.061656862 -0.2344346
0000b0 7a 10 22 be 43 b6 ad bd ed 41 ef 3a a7 9e e1 3d
       -0.15826598 -0.08482029 0.00182539 0.11016589
0000c0 22 a9 7f bd ab d4 03 3e b2 0d 81 be 67 ed 2b bd
       -0.062417157 0.12874095 -0.2520576 -0.04197445
0000d0 52 92 9f 3c d2 49 3b 3d 98 d3 01 be 69 a6 84 3d
       0.01947895 0.045724697 -0.12678373 0.06477053
0000e0 56 f8 16 3e b5 2b 6b be 03 ca bb bc 37 a0 3a bd
       0.1474317 -0.22965892 -0.022923475 -0.04556295
0000f0 4a 29 02 3d 0e 6b 1e 3c 6c 6b 04 3b c8 1b b7 bc
       0.031777658 0.0096690785 0.002020563 -0.022352114

sequential_1/conv1d_2/BiasAdd/ReadVariableOp f4 [64]
000000 a5 39 ff bd 16 9f 84 bd 45 d8 83 3b fc 56 bd bd
       -0.12462167 -0.06475656 0.004023584 -0.092451066
000010 10 48 be 3c 48 25 c8 bc 8a 8e 36 be 4c 48 0a 3d
       0.023227721 -0.02443184 -0.17827812 0.033760354
000020 1e 63 d7 be 01 34 18 bf 05 f4 72 bd d9 82 2c 3e
       -0.42067808 -0.5945435 -0.059314746 0.1684679
000030 dc 20 ac bc 7c b2 94 3c 67 88 43 bd a9 8d 01 3d
       -0.021011762 0.018151514 -0.047737505 0.03162924
000040 fc 42 32 3d 47 27 1a bd f5 2c 0f bd b3 fe 2b 3c
       0.043520913 -0.037635114 -0.034954984 0.010497737
000050 0c 1d 67 bc c6 6f ba 3b 07 72 e9 bd 72 80 b3 3c
       -0.014106046 0.005689594 -0.11398702 0.021911833
000060 b2 d2 77 be 9a 16 fc bd 63 7c 51 bd 8e 89 06 bf
       -0.24201468 -0.123089984 -0.051144015 -0.5255364
000070 a9 68 1c 3c 42 06 33 3d 58 7f a7 bc 60 85 d9 bd
       0.009546437 0.04370714 -0.020446464 -0.106211424
000080 2b da 78 3d 88 fb 21 bd ae 29 1f bd 4e 41 63 3b
       0.060754936 -0.03954652 -0.03885811 0.0034676376
000090 c0 31 0f be 42 c2 b9 3d 68 17 cc bc f5 ac 05 be
       -0.13983822 0.09070255 -0.024913505 -0.13054259
0000a0 57 19 1f bd 93 3e df bc 87 43 46 3b da a0 bf 3d
       -0.038842525 -0.027251517 0.0030252652 0.09356852
0000b0 d3 5f 1f be 2c 0f d7 bd 5b 3c 9f bd bf 18 a2 be
       -0.15563898 -0.10500941 -0.07775184 -0.31659505
0000c0 38 6a a4 bd 39 6a 5d be d4 e1 0a bd fa ba aa bd
       -0.08028072 -0.21622552 -0.033906773 -0.08336444
0000d0 7d f9 ad bc 34 4c 21 bd f8 53 af bd 45 bb 29 bf
       -0.02123713 -0.039379314 -0.08560938 -0.66301376
0000e0 1c 52 aa bd c4 e5 10 bd 3a 43 9d bd 49 a9 ea bb
       -0.08316442 -0.03537537 -0.07678838 -0.0071612936
0000f0 6e 21 2f 3c 46 8f a7 3c d7 a8 0d 3e 34 c6 3c 3d
       0.010689123 0.02045406 0.13833939 0.04608746

sequential_1/dense_2/MatMul f4 [100, 1472]
000000 bf be 4d bd 92 21 dc 3d 40 49 fc bc 2b 49 0d 3d
       -0.050230738 0.107485905 -0.030796647 0.034493607
000010 be 03 97 3c d0 b8 d4 bd 3d 46 bb bd 4c 46 0d be
       0.018434402 -0.10386813 -0.09144256 -0.13796347
000020 84 1f 9f bd 26 a1 05 3e c3 2a 77 bd 5a af 9c 3c
       -0.07769683 0.13049755 -0.060343515 0.019126583
000030 bd 47 fa 3d 24 9f 0f 3e 7b 55 06 3c 9b b5 ca bd
       0.12220714 0.14025551 0.008199091 -0.0989792
000040 22 71 e9 3d 9d 33 9b 3d b6 fd 98 bd 3f 70 95 3d
       0.113985315 0.07578204 -0.074702665 0.072968
000050 68 e9 19 bd b1 a4 f5 bd b0 61 25 38 9d dd b5 3d
       -0.03757611 -0.11994303 3.9430044e-05 0.0888016
000060 f6 61 33 3d 6c 3f 5d bd d2 ba aa be 18 a4 0c 3d
       0.043794595 -0.054015562 -0.33345658 0.03433618
000070 ec 23 78 bd f1 ab d3 3c a5 bc 68 3d 6d 7b a3 bd
       -0.060581133 0.025838824 0.05682053 -0.07982526
000080 6c 36 41 be fa d9 c0 be f6 f4 f8 3d 23 e2 b3 bc
       -0.18868417 -0.37666303 0.121560976 -0.021958416
000090 d0 bf b6 3d ae a6 4a be f0 4b e8 3d 45 78 23 3d
       0.08923304 -0.19790146 0.11342609 0.03990962
0000a0 f9 f5 72 3e 91 ac cc bb 41 77 9c 3c 64 88 f2 bd
       0.23726644 -0.0062461575 0.019099833 -0.11842421
0000b0 27 5c 88 3d b9 72 14 3e 66 a3 aa 3d 35 42 a3 3d
       0.06658202 0.14496888 0.08331947 0.07971612
0000c0 ac bf 97 3d ef a3 7a 3d ac 8a 19 bc 06 62 8b 3e
       0.074096054 0.061191496 -0.009371441 0.27223223
0000d0 2b 94 3c 3c f3 c5 11 be fd 86 7a 3d 09 84 e3 be
       0.011509935 -0.14235668 0.06116389 -0.44436672
0000e0 78 17 42 3d 8b 36 52 bd 47 e4 db 3c 2f c3 25 be
       0.047385663 -0.051321547 0.02684225 -0.16187738
0000f0 75 e1 21 3d 75 dd 27 3d 61 42 41 3d 39 5c 37 3e
       0.039521653 0.040982682 0.047182444 0.17906274
000100 0d 9f e3 3a 1a af 16 3c 9d 22 3d 3d 01 50 ed bc
       0.0017366126 0.009197021 0.046175588 -0.028968813
000110 98 2c 15 bd 94 0a 8c bd 15 f7 d7 3d ce e5 7e bd
       -0.03641948 -0.06837955 0.10545174 -0.062230878
000120 94 58 5f 3b c5 ee ad 3d 95 e3 ef bd 01 ec c4 bd
       0.0034079896 0.08492807 -0.1171333 -0.09615327
000130 82 12 d4 3d bf eb cf 3d 52 df 83 3d dd c3 80 bd
       0.103550926 0.10152387 0.06439079 -0.06287358
000140 ec 2f 93 3d 07 b0 81 bc e0 9f ac 3d 97 b7 0c 3c
       0.07186875 -0.015831007 0.08428931 0.008588693
000150 b7 bd c9 3b 18 bb dd bc ab 1d 07 3e cc aa 0b 3c
       0.006156649 -0.027066752 0.13194911 0.008524608
000160 96 2d 8e bc 2c 0e 0e 3d a3 2d 42 be ef c8 3f bd
       -0.017355721 0.034681484 -0.18962722 -0.046822485
000170 0e 69 2b bd 90 6d 87 bd 73 89 59 3d 69 e1 8e bd
       -0.041848235 -0.06612694 0.053109597 -0.06976587
000180 d3 f0 8d 3d fa 2c b3 be 44 65 8b 3c 35 ee 15 bd
       0.06930699 -0.34995252 0.01701606 -0.036604125
000190 11 96 28 bd fa 0d 3b be 3a 9d 0b 3e 29 ba 45 3d
       -0.04115874 -0.1826705 0.13634196 0.04827324
0001a0 2b df 5e bd 11 1d 2e 3d 6b 55 77 3c 18 cf 14 bd
       -0.05441205 0.04250819 0.015096049 -0.036330312
0001b0 dd dc 2e 3d b9 31 68 3d c6 9f e2 bb b0 61 3f 3d
       0.0426911 0.056688044 -0.006916019 0.04672402
0001c0 b4 b8 b1 bd c7 52 18 3d 76 57 4a bd eb 83 18 bd
       -0.086778075 0.037188318 -0.049399815 -0.03723518
0001d0 1e f9 aa bd ee 3b 03 be ba 23 d1 bc 4e 6c b7 be
       -0.083482966 -0.1281583 -0.025529731 -0.35824817
0001e0 7f 33 7f 3d 21 39 9f bd 2b a3 87 3d 24 d3 8e bd
       0.06230497 -0.07774568 0.06622919 -0.06973866
0001f0 e4 c1 cf 3d f6 65 09 3c 9b 7c e7 3a 55 b5 76 3d
       0.101444036 0.008386126 0.0017661037 0.060231525
000200 c1 cd ec bc 9c 41 aa bd 11 f6 39 3d 21 a9 5a bd
       -0.028906705 -0.08313295 0.045400683 -0.05338395
000210 08 4a 67 3d 0d 81 7c bd c8 78 80 ba 49 2c 06 be
       0.056467086 -0.06164651 -0.0009801621 -0.13102831
000220 96 b0 97 bd 22 c2 2b 3d 81 04 5e 3d a8 a1 1c be
       -0.07406728 0.041933186 0.054203514 -0.15296042
000230 57 fe 02 ba 17 97 2b 3e d3 12 bf bd 6f e3 4d bd
       -0.0004997006 0.16756855 -0.09329762 -0.050265726
000240 a8 fc b1 3d 34 17 9c bb d0 00 20 bd cc 6a e0 bd
       0.086907685 -0.004763508 -0.039063275 -0.1095787
000250 31 93 6d 3d 13 ee 9e 3d ce 75 70 bd e7 36 2d bc
       0.0580017 0.07760253 -0.058706097 -0.010572172
000260 03 fe 0a bd a9 f8 2d bd e0 56 23 be c5 0e 21 3d
       -0.03393365 -0.04247347 -0.15951109 0.039320726
000270 4c e9 3d 3d 73 9b e4 bb 2a 2a d7 3c 3a f9 e2 bd
       0.046365067 -0.006976539 0.026265223 -0.110826924
000280 e5 80 2e bc 09 f8 65 be 6e 0d 22 3e 13 c2 a3 bc
       -0.010650848 -0.22457899 0.15825436 -0.019990003
000290 79 c1 50 bd 57 db b0 be 63 d7 08 3e 36 d4 13 bd
       -0.05096576 -0.34542343 0.13363414 -0.036091052
0002a0 cb 32 96 bc ad b5 f5 3d 6c 91 b0 3d 88 b1 1d bd
       -0.018334767 0.119975425 0.08621487 -0.038499385
0002b0 af 1f dd bc 13 e6 a0 3d d5 fe 0d bd 5b 86 07 3d
       -0.026992647 0.07856383 -0.034666855 0.033087116
0002c0 a0 48 ff 3d 29 41 0e 3d f2 5b 86 3d c6 4b 23 3d
       0.12465024 0.03473011 0.06560506 0.039867185
0002d0 8c 98 6f bb 17 e4 2e bc fc 22 aa 3d 62 5d 64 be
       -0.003655943 -0.010674498 0.08307454 -0.22301248
0002e0 73 2c 6c 3d 9d 92 a0 bd a4 7e 03 3e f1 08 d2 bd
       0.057659578 -0.07840464 0.12841278 -0.10255612
0002f0 16 7c 77 3d 8a 32 a6 bd f2 ff 14 be 54 d3 1e 3e
       0.060421072 -0.08115108 -0.1455076 0.15510303
000300 b5 eb 43 bd 21 ff ed bd 9b 25 23 be 92 fb 6a bc
       -0.04783221 -0.116209276 -0.15932314 -0.014342206
000310 95 5e f6 3c 18 69 5b 3c 7c ce 13 3d 20 c1 cf bd
       0.030074397 0.0133917555 0.03608559 -0.101442575
000320 69 b6 17 3d b4 e3 ef 3b 88 7b d3 bd 05 e7 30 3d
       0.037039194 0.0073208455 -0.10326296 0.043189067
000330 35 33 d6 3d 2a 5f 3c 3d 07 a7 b7 bd fe bc 80 bb
       0.10458986 0.045989193 -0.08967405 -0.0039287796
000340 25 d5 4c 3d ff 07 09 3d 9f 9b 5f 3d ae 6d bd 3d
       0.050007958 0.03345489 0.05459177 0.09249435
000350 55 bb d4 3c 06 3c aa bd a4 6a 56 3d 0d 79 18 bd
       0.025968233 -0.0831223 0.052347794 -0.037224818
000360 c0 33 e4 bd d4 99 dc bb cf c2 56 be 0d a1 c9 3d
       -0.11142683 -0.006732205 -0.20972751 0.09845171
000370 e3 45 c7 3d ee f5 93 bb df f2 da 3d 27 52 f0 bd
       0.09730127 -0.004515401 0.10690855 -0.11734419
000380 15 5d c7 bd 52 f3 bf be 45 7b cd 3d ee a2 3c bd
       -0.09734551 -0.37490326 0.100332774 -0.04605382
000390 29 b7 a1 bc c5 98 f3 bd bd 7a cb bb 50 25 96 bd
       -0.019740658 -0.11894373 -0.0062097 -0.073313355
0003a0 7d 66 5e 3e 25 89 a4 3d 67 9b 5c bd 10 89 b6 bc
       0.21718784 0.08033971 -0.05385914 -0.022282153
0003b0 3d b4 fb bb 8d a6 32 bd a5 ef 2a 3d 69 dc d3 b9
       -0.007681398 -0.043615866 0.04173245 -0.00040409275
0003c0 45 c3 39 3d 62 ff 87 3d f2 b3 0f 3d e5 88 3d bd
       0.04535224 0.06640507 0.03508372 -0.04627313
0003d0 d4 8a 1e bd 23 8e 24 bd b4 b4 94 3d 36 a5 0f be
       -0.038706616 -0.040174615 0.07261029 -0.14027867
0003e0 23 ba e5 bc 23 54 9b bd 6d 9a d4 3d 1a f9 56 be
       -0.028042858 -0.07584407 0.10381017 -0.20993462
0003f0 a6 1f ef 3c 43 aa 64 bd 16 7c 0a 3d f2 fc 82 3e
       0.029189896 -0.055826437 0.033809744 0.25583607

sequential_1/dense_3/MatMul f4 [13, 100]
000000 d1 ec e0 be 82 77 d4 3d c9 e1 0c bc b0 0c 1b 3e
       -0.43930677 0.10374357 -0.008598753 0.15141559
000010 0e 51 a7 3c 16 14 c1 3e ca c2 78 3b c1 4e 81 3e
       0.020424392 0.37710637 0.00379579 0.25255397
000020 22 f3 6f 3e 02 ac 11 be e3 50 20 bd 27 1d a3 3d
       0.23432592 -0.14225772 -0.03913964 0.07964545
000030 83 3f 48 3e d1 a6 18 bf 61 78 d4 3d f9 bb bb be
       0.19555478 -0.5962954 0.10374523 -0.3666685
000040 e9 45 92 bd 25 4b 09 bf 79 a2 ca 3d de 40 8a bd
       -0.071422406 -0.53630286 0.098942704 -0.06750654
000050 06 b8 2c bf 66 dc bf 3d 02 26 12 be c3 7c c7 3d
       -0.674683 0.093682095 -0.14272311 0.09740593
000060 cd 42 f8 be 87 38 96 be 08 1a cf 3c 22 c1 75 be
       -0.48488465 -0.29340002 0.025280967 -0.23999456
000070 99 04 10 3d 66 fd 75 3e 52 01 f8 bd 6d 85 01 3f
       0.035160635 0.24022445 -0.12109627 0.50594217
000080 ce 6a 8d bd a3 61 ac 3e 06 02 1d bf 2e d6 61 be
       -0.06905137 0.3366824 -0.6133121 -0.2205436
000090 23 71 52 3e cc ba 91 3d 22 97 a0 3e a8 53 46 bc
       0.2055097 0.07115707 0.31365305 -0.012104906
0000a0 e9 84 1a bf 9d 10 64 be e0 18 93 3e 6d c2 0b 3e
       -0.60359055 -0.22271962 0.28729916 0.13648386
0000b0 aa f6 59 3d d8 25 b6 be 0e 0e 4d 3e 05 6f 97 be
       0.053213753 -0.35575747 0.20024893 -0.2957689
0000c0 72 be 31 bf cb fe 9e be fb 92 b9 be cb 7d 51 be
       -0.6943122 -0.31053767 -0.3624495 -0.20458142
0000d0 94 7e 4b 3e e9 93 67 bd 0f 00 7f be 77 55 c5 bd
       0.19872504 -0.056537542 -0.24902366 -0.09635442
0000e0 1f 19 8d bd 0c d9 32 3e 2f 68 33 3d 76 79 89 bc
       -0.06889557 0.1746561 0.04380053 -0.01678155
0000f0 c5 56 43 3d 5a a2 6a 3e cf f5 e2 bd 90 a0 1b be
       0.04769017 0.22913495 -0.110820405 -0.15197968
000100 f8 7c ef bd d2 3f 3b 3d 2f 0d fb 3c 69 17 e9 bd
       -0.11693758 0.04571516 0.030645935 -0.11381418
000110 65 66 36 be 67 86 0f 3e 8f 0f 89 be 47 07 e1 3d
       -0.17812498 0.14016114 -0.26769683 0.10987716
000120 2b 4a 56 bd af e5 c6 3d af e3 92 be c3 a2 b3 3c
       -0.052316826 0.097117774 -0.28689334 0.021928197
000130 cf 2d 9f 3d 01 95 2d bd 30 75 1f be f6 56 ab be
       0.07772409 -0.04237843 -0.15572047 -0.33464783
000140 55 e6 11 bf 19 43 5a be 0a 85 e7 3e b2 f4 2a 3e
       -0.56992084 -0.21314658 0.45218688 0.16694906
000150 cb 39 42 3e 4e 95 f3 be 50 74 85 be b3 32 78 bf
       0.18967359 -0.47574848 -0.26065302 -0.9695236
000160 b7 34 77 3e 04 6d 9f ba af aa ca be 69 d7 19 3e
       0.24141203 -0.0012163226 -0.39583346 0.15023579
000170 3b 5e 01 be 82 40 e3 be a6 46 57 bd f8 84 61 3e
       -0.12633602 -0.44385153 -0.05255761 0.2202338
000180 04 27 11 3e a9 26 4b be fa da e2 bd 3e 54 d5 3e
       0.1417504 -0.19838966 -0.11076923 0.41665834
000190 b8 f7 74 3d 0b ed ec bd 3b 25 47 3e c4 50 90 be
       0.059806556 -0.1156865 0.19447796 -0.2818662
0001a0 78 6f 3a be 1a d1 93 3e 66 3f a7 bd 43 f3 16 3d
       -0.18206584 0.2887047 -0.08166389 0.036853086
0001b0 5b a8 8c be 9f e2 73 bd 4b 05 4e 3e 55 93 ef 3c
       -0.27472195 -0.059542295 0.20119207 0.029245058
0001c0 c4 11 43 3e 98 4a ee 3d 2b ee 8c 3d 2a 59 0e 3e
       0.19049746 0.116353214 0.068813644 0.13901201
0001d0 ba f1 5a 3d 8a 78 bf 3d e3 a2 d1 3c b2 7e 8f bd
       0.053453185 0.09349163 0.025590366 -0.07006587
0001e0 00 2f 77 3e 7b de 93 3e 97 98 a5 bb 6c c6 ec 3d
       0.24139023 0.28880677 -0.0050535905 0.115612835
0001f0 09 90 55 be b7 5f c0 bd d4 d8 aa be d2 e5 fb bd
       -0.20855726 -0.09393256 -0.33368552 -0.12299694
000200 c9 cd 66 3e 82 fa ee bc 1f 04 4a bb 2e 24 c2 3d
       0.22539438 -0.029172186 -0.003082521 0.09479557
000210 8e eb a0 3d 00 89 36 be fc 73 71 3e 32 c1 c2 bd
       0.078574285 -0.17825699 0.23579401 -0.09509505
000220 33 d2 de 3d b8 43 7a be ff 6b a7 be 0e 2d 44 be
       0.10879936 -0.24439895 -0.32699582 -0.19157812
000230 32 9f 99 3c 5d d0 01 bd 85 a0 54 be 53 81 ef bd
       0.018752668 -0.03169285 -0.20764358 -0.116945885
000240 8e 27 80 3e b8 02 37 3e dc 31 56 be 47 a6 7f bd
       0.25030178 0.17872131 -0.20917457 -0.062414434
000250 39 78 2c be 56 25 ae 3e 85 d8 0e 3e f0 0e e3 3d
       -0.16842736 0.3401286 0.13949783 0.110868335
000260 54 e2 52 3e 2e bc 96 3d b9 56 d0 bd 68 78 72 3d
       0.2059415 0.07360111 -0.10172791 0.05919686
000270 6b 09 1a bd ce 15 37 3e 2c 50 b0 3b af 07 e6 bc
       -0.037606638 0.17879412 0.005380651 -0.028079836
000280 86 ca d8 3d f4 cc 80 3e c2 a4 ed bd d1 c7 59 be
       0.10585503 0.25156367 -0.11603691 -0.2126763
000290 22 bb c9 bc a8 18 67 be 2f 3f 43 be 09 28 47 bd
       -0.024625365 -0.22568 -0.19067071 -0.048622165
0002a0 3e 07 6d 3e 9a 31 03 be 4e bb 38 bc 66 6f 20 be
       0.23147294 -0.1281189 -0.011275126 -0.15667495
0002b0 a2 9e 86 be 32 fc 9f be fd f3 41 3e 43 a0 a3 3e
       -0.26292902 -0.31247097 0.1894073 0.31958207
0002c0 70 17 bb bd 2b 8d 18 3e 9b 13 ca bd 9e fd 19 3e
       -0.0913533 0.14897601 -0.09867021 0.15038154
0002d0 00 5a 06 be 0e 00 0d be 56 04 98 be be 07 da 3d
       -0.1312027 -0.13769552 -0.29690808 0.10646008
0002e0 35 ef 82 3c a3 c2 8a 3b 91 fc 8a bd c4 44 24 bb
       0.015983203 0.0042346283 -0.067864545 -0.0025065402
0002f0 e2 ca 1a be 88 bd d3 bd f4 29 31 be ab e8 03 3e
       -0.15116456 -0.103388846 -0.1730116 0.12881725
000300 de 94 73 3e e8 78 67 3e 2c 3a eb 3d de 82 28 3e
       0.23787257 0.22604716 0.11485705 0.16456172
000310 6f ef 5d be f1 8b 1d 3e 64 18 63 3e 71 1f 17 3e
       -0.21673368 0.15385415 0.22177273 0.14758088
000320 24 eb 0a be 40 25 92 be 7b 97 40 3e 83 d2 cd 3d
       -0.13566262 -0.28544044 0.18807785 0.100499175
000330 33 be 1d bc 48 0b 27 3e b6 48 06 3e f5 38 0b be
       -0.009627867 0.16312897 0.13113675 -0.13595946
000340 72 d6 1e be db 84 5b 3e 74 68 96 be 5b a6 5a be
       -0.15511492 0.21437399 -0.29376566 -0.21352522
000350 57 1e 88 3c 21 64 91 3e 65 be 9c be 08 da 12 be
       0.01661603 0.28396705 -0.3061401 -0.14340985
000360 fe 77 63 be b7 80 02 3e 14 97 e9 be 0b e0 b8 bb
       -0.22213742 0.12744413 -0.45623076 -0.0056419424
000370 59 0f 87 3e af 9f 1b 3c 4d 6a 01 3e dc 32 9a be
       0.26378897 0.009498521 0.12638207 -0.30116928
000380 3d 62 85 3d 14 4d 09 bd 7c 73 3a be a0 c2 63 be
       0.06512878 -0.033520773 -0.18208116 -0.22242212
000390 b8 20 b8 be af 39 ff be a7 70 3b 3e cc 4c 5b be
       -0.35962462 -0.49848697 0.18304692 -0.21416014
0003a0 ee 9a 54 3e 06 08 a3 3e 37 5b b6 3c 19 47 09 bd
       0.20762226 0.3184206 0.022260292 -0.03351507
0003b0 cf d0 52 bb ec 19 a2 be 36 31 95 3e e2 da 34 3e
       -0.0032167917 -0.31660402 0.29139107 0.17661622
0003c0 e2 90 f8 be 34 9c 17 3e 14 fa 44 3d 03 18 05 3e
       -0.48548037 0.1480568 0.048090056 0.12997441
0003d0 0b 77 dd bd d3 9a 1f 3e 28 2c 26 3e f5 59 aa be
       -0.10813721 0.15586405 0.16227782 -0.33271757
0003e0 00 ed db be c9 5c d2 be 34 ed 18 3e f6 a6 f3 3c
       -0.42954254 -0.41086414 0.14934236 0.0297427
0003f0 4f 7b 33 be fe 3c d4 bd c4 84 2b 3c 4b df b6 bd
       -0.17527507 -0.10363196 0.0104686655 -0.089293085

sequential_1/conv1d_2/Conv1D f4 [64, 1, 3, 6]
000000 44 e0 28 3d 86 2f 12 3e ed a5 14 3c 25 d9 6a bd
       0.0412295 0.14275941 0.009072763 -0.05733599
000010 f2 d1 8a bd 18 da e9 3d d6 eb 98 3d d6 4f 82 bd
       -0.06778325 0.11418551 0.07466857 -0.06362884
000020 f0 c9 b6 3d 2a 58 97 3e fc 87 9c bc fa d9 98 3e
       0.08925235 0.2955945 -0.019107811 0.29853803
000030 8d aa 0d 3d 44 1a b8 bd ed 5b fd 3d 51 d8 95 be
       0.034586478 -0.08989385 0.12371049 -0.292666
000040 42 07 e6 3c 80 65 8a be 0a 5f 17 3d 22 99 63 3d
       0.028079633 -0.27030563 0.03695587 0.05556596
000050 f9 b5 bc bd cd 81 07 be 38 46 17 be 38 7b 31 be
       -0.09214396 -0.13233109 -0.1477288 -0.1733216
000060 ed 6d ab 3e 1e e4 99 bd ae 01 6d be 48 38 41 bd
       0.33482304 -0.07514213 -0.23145172 -0.047172815
000070 01 45 44 3d 39 02 e0 bd c2 75 96 3e 7a 9d 0e 3d
       0.04791737 -0.10937924 0.29386717 0.03481815
000080 87 e7 c1 bd 42 62 ab 3b 53 11 0c be ca 56 65 be
       -0.094679885 0.005230219 -0.13678484 -0.22396389
000090 c7 c6 80 be d5 56 2b 3e 42 f9 5f 3d 4c d1 05 be
       -0.25151655 0.16732343 0.05468107 -0.13068122
0000a0 b2 5a 10 3e 17 80 ac bc dc e3 a4 be 93 0f d6 3d
       0.14097098 -0.021057172 -0.32205093 0.10452189
0000b0 2b 00 21 3b cf d1 bc bc 7f bd 1b 3e 4b 05 f7 bd
       0.002456675 -0.023049263 0.15209006 -0.120615564
0000c0 d7 83 01 be a0 0a ab bc c6 f6 4d be 5c 42 83 be
       -0.12647949 -0.02087909 -0.20113668 -0.25636566
0000d0 c3 80 33 be 32 f6 1d 3e c2 45 30 3e ab e8 c0 3e
       -0.17529587 0.15425947 0.1721411 0.37677512
0000e0 75 cd 17 3e cc bf 36 3e 04 a6 c8 3d 8e de f3 3d
       0.1482447 0.17846602 0.0979729 0.11907683
0000f0 bc 39 e2 3d ec 51 2c 3f e1 2e 01 3d 1c 54 94 3d
       0.11046168 0.673125 0.031538848 0.07242605
000100 60 2c 0f 3e 8c 27 9e bd 40 39 f5 bd 66 d4 23 3f
       0.13981771 -0.07722387 -0.1197381 0.6399597
000110 80 2c db 3c 05 99 55 bc 37 83 05 3e 79 73 cb bc
       0.026754618 -0.013036971 0.13038336 -0.024835335
000120 cd a0 3d be 85 7a 78 bd cf 39 5b bd d0 a0 04 be
       -0.18518372 -0.06066372 -0.053521927 -0.1295197
000130 b9 f5 04 be 93 0d 79 3e f3 54 31 be b3 0d 66 bd
       -0.12984361 0.24321584 -0.17317562 -0.05616541
000140 f5 79 aa 3a 7b 56 b6 bd 67 db be bc 5e 43 83 3e
       0.0013006317 -0.089032136 -0.023297979 0.25637335
000150 6c 26 2e be 4e 76 87 bd c4 b1 8d 3d ab 49 12 bd
       -0.17006844 -0.06614362 0.06918672 -0.035714786
000160 b4 86 e9 bd ba e4 76 3e e8 ef 1c be 06 7c ff 3c
       -0.11402646 0.2411069 -0.15325892 0.031187069
000170 0d 4e 7c be bb 2d 52 3e 16 ce 42 bd ea d1 24 3d
       -0.24639149 0.20525257 -0.04755982 0.040239252
000180 53 d8 95 be 12 a0 21 be d7 ac 2a 3d b5 ed dd 3c
       -0.29266605 -0.15783718 0.04166874 0.027090887
000190 6a 0d 4e bd 94 02 dc 3d 83 39 99 be 01 b7 36 be
       -0.05030576 0.10742679 -0.2992669 -0.17843248
0001a0 64 50 59 bc 67 11 49 3d 0d e8 7d 3d de 09 79 3e
       -0.0132637955 0.04908886 0.06198888 0.2432017
0001b0 e6 aa 86 be 7a d0 b9 3d 7a af be bc 3e 8a 0f 3d
       -0.2630226 0.09072967 -0.023277033 0.035043947
0001c0 d6 e5 17 be 99 b8 15 3e 93 b2 b9 bd 8e 32 c3 bc
       -0.14833769 0.146212 -0.090672635 -0.023827817
0001d0 65 ec e8 3d 52 79 68 be 92 ce 26 3e fe 8a 1b 3e
       0.11373214 -0.2270253 0.16289738 0.1518974
0001e0 e7 23 0c be 47 15 e5 3d 44 d7 b0 3d 09 ea d8 bd
       -0.1368557 0.11185699 0.08634809 -0.10591514
0001f0 46 c2 06 3e 60 b1 14 3e a1 1f d8 bd 42 ca 71 3f
       0.13160047 0.14520788 -0.10552908 0.94449246
000200 46 5c c9 be e7 39 a9 3d 49 a4 f8 3d d2 ba 12 3e
       -0.39328212 0.08262997 0.1214071 0.14329079
000210 60 58 85 bd 28 62 59 3f 5b 6f 15 bf 7e fe 08 be
       -0.06510997 0.849154 -0.5837304 -0.13378331
000220 d6 23 a3 bd 4a 18 82 3d 71 5b 5e be 82 bb 51 3f
       -0.079658195 0.06352289 -0.2171457 0.8192674
000230 89 aa e6 be 84 94 23 3e 17 11 ae 3d 1a fc 1e 3e
       -0.45051983 0.15974623 0.084993534 0.15525857
000240 54 ac 1f 3e e2 d5 05 3f b6 7a 40 be 18 ac c7 3b
       0.15593082 0.52279484 -0.1879681 0.006093513
000250 10 a4 12 be ac 26 2c 3c 7a b2 7d 3e ec 2f 50 3e
       -0.14320397 0.010507267 0.24775115 0.2033078
000260 d1 33 bc bd 3b 44 14 be c6 68 db bd 3c 08 1e bd
       -0.09189571 -0.14479153 -0.10713343 -0.03858207
000270 1d 4e de 3e 89 af b9 3e 1c 48 cc bd a3 20 bf 3d
       0.4341897 0.36266735 -0.09974691 0.09332397
000280 4a 20 96 bd 55 3e b7 3d 8d 0e ab be a8 ee 94 3e
       -0.073303774 0.08947436 -0.3340954 0.2908833
000290 3d 2e b5 3e ac 83 23 be 0c e8 af bd 48 ff ca bc
       0.3538684 -0.15968198 -0.08589181 -0.02477993
0002a0 ee 23 f3 3d 4f 89 9f 3e 31 a6 92 3e 2f 3d 6e 3e
       0.118720874 0.31159446 0.2864242 0.23265527
0002b0 01 ac d3 3d 52 8b 0f be cf 36 a9 3d 27 8a 1b 3f
       0.103355415 -0.1401799 0.08262407 0.6075768
0002c0 fc 64 d7 3d ba a2 5b be fc bf ed 3c 2b ff 10 3e
       0.10517308 -0.21448794 0.02902221 0.14159839
0002d0 29 5c 91 be 45 be 41 be 78 aa c5 3d ba f0 65 bd
       -0.28390625 -0.18920238 0.09651655 -0.056137778
0002e0 18 0a 7b be 3b 0b 05 3e da 4b e9 be c9 91 ca 3d
       -0.24515569 0.12992565 -0.45565683 0.098910876
0002f0 7d 1d 03 3c f3 1a f3 bd 2d e1 06 3e 01 33 2f 3d
       0.008002636 -0.118703745 0.13171835 0.04277325
000300 2c 2d 2a be de aa 85 3d e4 e1 9e bd e1 20 4d bc
       -0.16618794 0.06526731 -0.07757929 -0.012520046
000310 9c ec 1d 3e 37 68 2d 3d 4b ba 29 bf da e5 45 3e
       0.1542229 0.042335715 -0.66299886 0.19325963
000320 3e 1a 78 be b3 ba 05 3c b2 35 ef bd 92 04 c2 bd
       -0.2422876 0.008162188 -0.116801634 -0.09473528
000330 fb e0 1c bf 58 9d 01 3e aa 27 97 be 3b 7a 3c 3d
       -0.6128079 0.12657678 -0.2952245 0.046015006
000340 2f c1 e3 3c 10 b9 38 ba 6f 83 18 bf d3 0b 1a 3e
       0.027802078 -0.00070466194 -0.5957555 0.15043573
000350 19 8e 8c be 39 71 b3 3d ef 15 77 bc 68 bd e1 bd
       -0.27452162 0.0876183 -0.015080913 -0.110224545
000360 aa a4 cc bd c7 07 96 bd 23 55 3f 3e 49 9f c3 bd
       -0.09992345 -0.07325702 0.18684821 -0.095518656
000370 da d2 18 be 17 ac 79 bd cb 4f 69 3d 75 27 56 3e
       -0.14924183 -0.060955133 0.056960862 0.20913489
000380 9f 43 b6 bd 4c ff 1d be 0d d1 58 bd 97 65 5d bd
       -0.088996165 -0.1542942 -0.05293374 -0.05405196
000390 0c 7e 74 3e f2 71 97 3d e6 78 e3 3d b0 cf 2c be
       0.23876208 0.0739478 0.11107044 -0.16876101
0003a0 1a 4e 4e 3e 60 32 18 be 8f a9 f7 be 62 36 3b be
       0.20146981 -0.14862967 -0.4837155 -0.18282464
0003b0 4b 36 15 be cc 8c 68 3d c9 58 15 3e ff e7 18 3e
       -0.14571492 0.0567749 0.1458465 0.1493225
0003c0 5c 2c 70 be ff 9c 14 3d 67 b0 8a be bc 38 b4 bb
       -0.23454422 0.036282536 -0.2708771 -0.0054999273
0003d0 c0 c6 c1 bd 1a 85 2e 3e 1b 4e c2 be 59 d6 82 3d
       -0.09461737 0.17042962 -0.37950215 0.0638854
0003e0 b1 1b ae bd 10 a9 36 bd 4f f6 1b 3e e4 03 3d 3e
       -0.085013755 -0.044594824 0.15230678 0.18458515
0003f0 0e 5e ce 3e 44 25 eb 3d e0 9c da 3b 08 83 b5 bd
       0.40306133 0.11481717 0.006671533 -0.08862883

sequential_1/conv1d_3/Conv1D f4 [64, 1, 3, 64]
000000 f7 6c 96 3b 8b ab fd 3b 90 1e fe 3c 59 d3 5b 3d
       0.0045906263 0.007741397 0.031020433 0.053668354
000010 dc 7a ce bd 14 46 11 bd e7 f8 6e bd db d6 45 3e
       -0.10082027 -0.035467222 -0.05834284 0.19320242
000020 44 05 07 3e cb 17 cd 3d 2a 32 a0 bd 27 97 42 3e
       0.13185602 0.10014304 -0.07822068 0.19002973
000030 7f a8 21 bc 2d 12 0b 3d 96 0f 72 be 20 66 42 3d
       -0.009866833 0.03395288 -0.23638758 0.047460675
000040 1b 76 a5 3d 1f b2 a4 bd f1 aa 68 3d 81 c0 04 3d
       0.080791675 -0.080417864 0.056803647 0.03241015
000050 e0 b9 99 3d eb b4 24 be a4 e6 04 be 54 4e 83 bd
       0.07506156 -0.1608464 -0.12978607 -0.06411424
000060 bf c0 1c 3e 09 fa 51 3e 15 74 81 bd 3b d0 c6 3d
       0.15307902 0.20505537 -0.06320969 0.097076856
000070 f3 8b 4e bc 6e 0f 0d bd fb c3 3d be 69 f4 02 be
       -0.012606609 -0.034438543 -0.18531792 -0.12788548
000080 c5 e5 5d 3c ff 60 f7 bd d7 1f da bd 07 e7 e6 3d
       0.013543551 -0.120790474 -0.10650604 0.11274534
000090 94 af a6 bc 91 c2 a0 3d 4e 14 ab 3d c4 24 98 3b
       -0.020347394 0.078496106 0.08353482 0.0046430547
0000a0 29 31 4c be 21 0b ef bd 3d ba eb bd 01 0a 0e be
       -0.19940628 -0.116720445 -0.115101315 -0.13871004
0000b0 50 83 17 3e ad 9b ab bc 5a 4f da 3d 03 9f 33 3e
       0.14796185 -0.020948255 0.10659666 0.17541127
0000c0 2b ea 37 bd ce e7 f1 bc b9 85 cb bd 69 11 df bd
       -0.044901054 -0.029529478 -0.09937615 -0.108919926
0000d0 18 4c dd 3c 22 fa 07 3e ce 3a 31 3d c9 b2 69 3e
       0.027013823 0.13279012 0.04326897 0.22822107
0000e0 8a a9 56 be b1 cf 92 bd 57 9e ae 3d bf d2 b6 bc
       -0.20963112 -0.0716852 0.08526295 -0.022317288
0000f0 a4 1b 00 be 3b 84 b4 be a0 fe f8 bc 7d eb cc bc
       -0.12510544 -0.35257134 -0.030394852 -0.025014633
000100 8c f9 11 3e 01 a5 b2 bd 70 5f f5 bd 82 25 86 bc
       0.14255351 -0.08722878 -0.11981094 -0.016375307
000110 42 a9 56 3d 0d 23 6a be 92 05 9b bc 15 ca 45 3e
       0.05240751 -0.22864933 -0.018923555 0.1931537
000120 41 53 e3 3c 2e ba 4c 3e 3a b1 a4 bd 52 1a 5f 3d
       0.02774966 0.19992897 -0.08041616 0.05446846
000130 fa 59 03 3e ce f1 a6 bd 6f db 38 3d f2 23 8b bc
       0.12827292 -0.08151589 0.045131143 -0.016984913
000140 c6 47 13 3d ec 0d 7c 3d 21 20 b6 3d e6 8c 85 bc
       0.03595712 0.061536714 0.08892847 -0.016302537
000150 f9 e2 93 3d c2 bd f9 bd 9d 09 f3 bd 33 77 af bc
       0.07221026 -0.121943966 -0.11867068 -0.021419143
000160 06 a9 05 3e af c9 87 3e f3 31 70 3d 44 55 70 3e
       0.13052759 0.2652106 0.058641385 0.23470026
000170 e7 d8 28 3e 68 a1 ad bb b5 26 f5 bd 97 f0 03 3e
       0.16488992 -0.005298782 -0.119702734 0.12884746
000180 fb 92 99 bd c8 9d 3b 3d a6 0b d0 3b 53 87 f2 bc
       -0.074987374 0.04580477 0.006349045 -0.029605543
000190 1e 5e 9b 3c 63 27 f9 bb fc c7 8c bc c0 19 61 3c
       0.018965777 -0.007603572 -0.017185204 0.013739049
0001a0 06 a3 8f 3d e7 7e ca bd 12 5a b7 bd 7c 98 94 bd
       0.07013516 -0.09887486 -0.089527264 -0.072556466
0001b0 99 bc 51 3d c2 a4 06 be 10 de 5b 3e dc 0e 06 3e
       0.05120525 -0.13148788 0.21471429 0.13091606
0001c0 83 19 e6 3d ba 14 b2 bd 43 f7 28 3d cb aa 45 bd
       0.11235335 -0.086953595 0.041251432 -0.048258584
0001d0 34 96 95 bd 16 5a 11 3e 4f 3d b4 3b e0 5b f2 3d
       -0.073040396 0.14194521 0.0055004726 0.1183393
0001e0 d3 19 92 be 4a 4a 92 3d 98 e8 31 bd 5e 8a c3 3c
       -0.28535327 0.07143076 -0.04343471 0.02386969
0001f0 aa 9a f9 bd 4b 58 6d be 64 ed a2 bd f9 5a c8 bd
       -0.12187703 -0.23178212 -0.07955435 -0.09782977
000200 3a 75 49 bd fc 1c 03 3e 47 68 5c 3e 86 5e fc bc
       -0.04918406 0.12804025 0.21524154 -0.030806791
000210 7c 3a b5 3d 23 98 32 bd c9 9a 28 bc 91 d6 3b 3e
       0.08849046 -0.04360212 -0.01029081 0.1834357
000220 2c b9 1d 3e ca 57 8b 3e 3c e2 25 be 8d f2 9e 3d
       0.15402669 0.27215415 -0.16199583 0.07761107
000230 e6 f7 7a bc 78 7c 7b bc 66 96 36 3b f1 3b 77 3d
       -0.015317893 -0.0153495 0.002786064 0.0603599
000240 95 cd e5 3d 32 0e 03 bc 74 a1 75 3e a7 57 67 3e
       0.11220852 -0.00799899 0.2398737 0.2259203
000250 d6 53 22 3e 7b be b4 3d f8 2e 60 bc ec 74 7c bd
       0.15852293 0.08825394 -0.013683073 -0.061634943
000260 75 a0 89 3e 99 d2 78 3e a2 a6 41 bd 71 00 2b 3e
       0.26880231 0.24299087 -0.047278054 0.16699387
000270 9d 44 64 3d 7f 33 58 be 8f 40 fe bb a8 92 12 3d
       0.055729497 -0.21113394 -0.007759161 0.035784394
000280 45 60 9f 3d e9 1b 92 3d fd 10 a5 3d 9f 5b 92 3c
       0.07782034 0.0713423 0.08059881 0.017865954
000290 44 c9 14 3e 03 6e d4 3d 2f c7 dd 3d 73 4d a2 ba
       0.14529902 0.103725456 0.10829007 -0.0012382701
0002a0 ab 3c 9e 3d db 5d 2c 3d a7 b5 22 3e fe 16 65 bc
       0.07726415 0.042081695 0.15889607 -0.013982533
0002b0 76 95 40 3d bd 32 eb 3d b8 91 97 3e cc 13 f3 3d
       0.047017537 0.11484287 0.29603362 0.1186901
0002c0 b2 cc fc bd f3 b5 0b be 13 be ac 3d 4a 85 92 bd
       -0.1234373 -0.13643627 0.08434691 -0.07154329
0002d0 f3 51 d6 bc f7 98 e8 3d 8f 95 c5 3c e8 f4 6d 3e
       -0.026162123 0.11357301 0.024119167 0.23237956
0002e0 2a 79 7d 3c 57 62 59 bc 93 83 b0 bd a6 82 c9 bd
       0.015470782 -0.013268075 -0.08618846 -0.09839372
0002f0 24 b3 11 be c3 0f 23 3d 4a c5 dd 3d ee d0 21 3e
       -0.14228493 0.039809953 0.108286455 0.15802357
000300 b3 3e 2f be 84 b9 0c 3e 54 dd 12 3b c9 99 ee bc
       -0.17113762 0.13742644 0.0022409754 -0.029126065
000310 d9 7a 7b be 6d 6a 0a be 55 1d 96 3d 37 2f fa bd
       -0.24558581 -0.1351716 0.073298134 -0.12216037
000320 5d ef fd be 2f ed d4 bc 8d 16 cc 3c 20 63 4a bd
       -0.49596682 -0.025992004 0.024913097 -0.04941094
000330 90 d5 fa 3d e2 32 d8 bc 69 2c 8d bd 82 eb ea bd
       0.12247765 -0.02639145 -0.06893236 -0.11470701
000340 29 43 0f be 94 7d 05 ba dc 16 0c be bf af d3 3d
       -0.13990463 -0.000509226 -0.13680595 0.10336255
000350 2c 1d 72 3d e3 d2 10 3e 87 71 9b bc f8 f1 97 bd
       0.05910985 0.14142947 -0.018975032 -0.07419199
000360 b8 08 80 be f2 7e 49 3e 80 17 33 be d7 d7 50 bd
       -0.25006652 0.19677332 -0.17489433 -0.05098709
000370 b5 69 02 bc 97 89 e7 3d 05 f1 37 be 42 d9 1e bd
       -0.007959773 0.1130554 -0.17963035 -0.038781412
000380 b6 6b 92 3d 47 01 87 bd 87 86 05 3e 3d 43 4b be
       0.071494505 -0.065920405 0.130396 -0.19849868
000390 a7 97 8a 3d af d6 02 3e 3d c9 d0 3c 08 58 ba bd
       0.06767207 0.12777208 0.025486583 -0.09098822
0003a0 36 6a ec 3b ab 0d ad be dd 5b 28 be 74 ba 98 be
       0.00721481 -0.3379949 -0.16441293 -0.29829752
0003b0 fb d2 1e bb 4b c6 d2 3c e4 c3 d2 bc 00 6b 3b be
       -0.002423464 0.02572932 -0.025728174 -0.18302536
0003c0 cb 65 53 3e 27 cb 90 bd e2 ce 9f bd 6a 9e 5d 3e
       0.206443 -0.07069998 -0.07803132 0.21642461
0003d0 c2 5a d5 bd d4 66 8f 3d 86 d3 8e bd fb 92 57 3d
       -0.10417701 0.07002035 -0.06973939 0.052630406
0003e0 be b9 8f bd d8 47 8e be 03 a4 f9 3d b1 c0 ed bd
       -0.070178494 -0.27789187 0.12189486 -0.116090186
0003f0 9f 30 07 3d 6e 76 8a 3d ea 07 9c bd 8d 97 ac bd
       0.033005353 0.0676087 -0.07618697 -0.084273435
