app/src/main/assets/respeck_model.tflite (tflite, 653908 bytes, 8 tensors)

sequential_1/dense_3/BiasAdd/ReadVariableOp f4 [14]
000000 94 07 4b 3e 97 68 0b 3f 81 13 be 3d ca e6 f0 3c
       0.1982711 0.54456466 0.09281064 0.029406924
000010 c1 e9 95 bc 7f ca 4c bd 89 14 80 3d 7a 32 56 bf
       -0.01829994 -0.049997803 0.06253917 -0.8367077
000020 22 b8 29 bf 18 fd bc 3d ba 50 12 bd 21 a0 a7 3c
       -0.6629659 0.09227961 -0.035721518 0.020462098
000030 96 79 2f 3e 98 bd 66 3d
       0.17136225 0.056333154

sequential_1/dense_2/BiasAdd/ReadVariableOp f4 [100]
000000 22 10 b1 3e 1b 50 a2 bd 87 33 c6 bd 9f fa 8b 3e
       0.3458262 -0.07925435 -0.09677797 0.27339646
000010 07 24 a2 bd a5 ac 59 3e 84 83 3f bd 43 be 97 3e
       -0.07917028 0.21257265 -0.046756282 0.29637346
000020 08 84 01 bf fb 38 41 bd 25 1e 88 3b ce 25 68 3c
       -0.5059209 -0.04717348 0.004153984 0.01416917
000030 a8 6a 90 3d d5 55 40 3d 08 24 16 be da 79 34 be
       0.07051593 0.046956856 -0.14662182 -0.17624608
000040 ed 3b 6e bd d3 ef 96 be 34 2e 19 be ca 3d 03 3e
       -0.05816262 -0.29479846 -0.14959031 0.1281654
000050 ae 78 b6 3d 72 b3 19 3e 42 6e 1d 3d 2b 61 8e 3b
       0.089097366 0.15009859 0.03843523 0.0043450794
000060 1f 81 62 3d 21 ef 14 3e fd a2 7d 3d 2b 3e 25 3b
       0.05529892 0.14544345 0.061923016 0.0025214057
000070 8e ed 9a 3e 83 72 68 bc b7 e1 7e be a2 71 6d bd
       0.30259365 -0.014187458 -0.24890791 -0.057969697
000080 b0 04 1a 3d 30 21 f3 3b 61 16 4a bd a6 10 18 bd
       0.037602127 0.0074197277 -0.04933775 -0.037125252
000090 83 97 6b 3c a8 41 26 be 79 67 9f bd cb 45 1f 3d
       0.014379385 -0.16235983 -0.07783408 0.03888492
0000a0 9c e6 58 be 83 4c 9a 3d e0 df 35 3d d9 b6 b7 bd
       -0.2118172 0.07534125 0.044402957 -0.08970422
0000b0 26 85 14 be c2 56 95 3b 1d 32 c3 be 6a 7c 8c be
       -0.14503917 0.0045574615 -0.3812417 -0.2743867
0000c0 94 38 1d bd 1a fb ed 3b 61 1d a5 bd 4e 92 9b bd
       -0.038384035 0.0072625997 -0.08062244 -0.07596265
0000d0 03 0b 5c 3e 35 a7 2d bd dd c5 55 be 1d 5d 7f 3c
       0.21488576 -0.04239579 -0.2087626 0.015586165
0000e0 f8 9f a5 bc c3 c9 40 3e c7 d5 f0 bd 99 d4 ce bd
       -0.02021788 0.18826966 -0.11759525 -0.100991435
0000f0 3d ff ec be 22 dc 41 3d b9 f1 41 bb 6d e8 57 bc
       -0.4628848 0.047329076 -0.002959354 -0.013177973
000100 07 5e a2 bd 82 e8 a1 bb 72 bc a9 bc b4 6c 73 be
       -0.079280905 -0.004941047 -0.02071974 -0.23771936
000110 54 2a ed bd 29 a8 ca bd 46 03 44 be b5 d2 ac bd
       -0.11580339 -0.09895355 -0.19141874 -0.08438627
000120 e3 48 8f 3e ea 72 0c be 87 84 a3 bd 19 2d 05 3e
       0.27985296 -0.13715711 -0.07984262 0.13005485
000130 99 eb 81 be e6 d6 37 be 0c 3d 23 be e9 47 01 be
       -0.2537506 -0.17953071 -0.15941256 -0.12625088
000140 8b e0 a4 bd ba ff 9c bd 40 0c c1 be ec 7b 28 be
       -0.08050641 -0.076659635 -0.37704659 -0.16453522
000150 ea c7 1a be 4b 7e 85 be 8e 24 02 3e 75 c7 fc 3d
       -0.15115324 -0.26072916 0.12709257 0.12342731
000160 e1 7d 32 3e f3 99 86 3c 8f 4e 42 3e d5 cf 2f bd
       0.17430831 0.01643083 0.1897528 -0.042922813
000170 6b 34 bb 3e 34 65 68 be 26 a3 40 3c 74 eb 12 3e
       0.3656343 -0.22694856 0.011757648 0.1434763
000180 2c 0c 65 3e 7c b0 dd 3d bc 37 e7 3d fe 71 bb bd
       0.22367924 0.10824677 0.11289927 -0.09152602

sequential_1/conv1d_3/BiasAdd/ReadVariableOp f4 [64]
000000 d9 5e 4a be b7 12 4e 3d 86 7d 44 3e 2a 9f 83 3d
       -0.19762744 0.050310817 0.19188508 0.064268425
000010 fb ed 93 3c c3 b7 47 be 23 7a d1 3d 1e 3c 2a bb
       0.018057814 -0.19503693 0.10228374 -0.0025975774
000020 e8 a0 98 3d 37 0c b8 3d e7 32 2b bd 51 8d 7e bc
       0.074525654 0.08986705 -0.04179659 -0.015536622
000030 de 2c 6e 3d 60 e2 28 3e 56 82 66 3d a5 7b aa 3d
       0.058148257 0.16492605 0.05627664 0.083243646
000040 44 d5 0e 3e 7f ba e2 3d 59 ef 3f bd 9b 91 a0 3d
       0.13948542 0.110707276 -0.04685912 0.07840272
000050 57 ad 4e bd 36 9a 0f ba cf d1 b4 3d 20 c2 21 be
       -0.05045828 -0.00054779963 0.0882908 -0.15796709
000060 0f a1 48 bd cc b4 2e bd 78 37 2c ba 3c 5d 4a be
       -0.048981722 -0.04265289 -0.0006569545 -0.19762129
000070 ca f0 3d bd 23 78 32 be 02 ae 0c bf bd dd e4 be
       -0.046372212 -0.17428641 -0.54953015 -0.44700423
000080 72 7a 2b be c8 03 9e bd 8b 1b c2 bc bf 27 31 3d
       -0.16745928 -0.07715565 -0.023694774 0.043250795
000090 c0 b3 04 bd d3 11 74 3d cc 2a d1 be 7e 06 b2 3d
       -0.032397985 0.05958731 -0.40852964 0.086926445
0000a0 10 5b d3 be fa ee d5 3d e5 1c a5 3d 36 be 93 be
       -0.41280413 0.10445972 0.08062152 -0.28856057
0000b0 7a 83 b3 be a4 c0 bf be 91 b7 9d 3c 9b f9 27 be
       -0.35061246 -0.3745166 0.01925257 -0.1640381
0000c0 e4 9f be bb dd c1 a2 3d bc 5e 24 3d 84 2d 44 be
       -0.0058174003 0.07947133 0.04012941 -0.19157988
0000d0 1a 20 33 be df ca e3 3d 45 50 59 bd 3b 49 8e bd
       -0.17492715 0.11122679 -0.053055067 -0.06947561
0000e0 e6 f0 e8 3c c5 ff ef 3c 7f 71 33 3d d3 62 1e bf
       0.028435182 0.029296765 0.04380941 -0.61869544
0000f0 bd 37 89 3d 64 ed 7b 3d 4f f5 d1 3d ea 4f 6a bd
       0.06700084 0.06150569 0.10251867 -0.05720512

sequential_1/conv1d_2/BiasAdd/ReadVariableOp f4 [64]
000000 23 6d 0b be 58 9a 3f be 21 9d 05 be bd 49 3f be
       -0.13615851 -0.18711221 -0.13048221 -0.18680473
000010 da 08 89 3b 82 7e 10 bd a7 b3 d3 bd 83 de 05 3d
       0.0041819634 -0.035276897 -0.10337 0.032682907
000020 b3 9b b1 39 51 84 b3 bd 28 9e 19 3e e1 c9 42 3d
       0.00033876076 -0.08765472 0.15001738 0.047555808
000030 d5 f0 6c bd 9e d9 a0 3d b7 c4 39 be b2 07 cc 3d
       -0.057846863 0.07854007 -0.18141447 0.09962405
000040 ac 7c 96 bd 0d f0 ae bd 04 78 0c 3e 6b ac 98 bd
       -0.07347998 -0.0854188 0.13717657 -0.07454761
000050 a6 ef 83 bd 88 e1 0e 3d cb 9d 3c be 6c 53 06 be
       -0.06442194 0.034883052 -0.18419568 -0.1311776
000060 0f 02 ab bc 4f 74 03 be 0c 83 94 bc cd 6b 11 bc
       -0.020875005 -0.12837337 -0.018128894 -0.008875799
000070 d2 68 53 bd 3d 92 9b be 36 97 12 bd cd a2 ab bd
       -0.051613636 -0.30385008 -0.035788737 -0.08380661
000080 bb ea 83 bd 92 a8 82 bd c7 8e 98 bd 4e 5a a5 bc
       -0.06441256 -0.063798085 -0.074491076 -0.020184662
000090 3b dc 92 bd 2a 45 12 be 00 4b 21 be a7 6d a2 bd
       -0.07170912 -0.14284196 -0.15751266 -0.07931071
0000a0 83 5c d3 bc 60 08 ae bd 87 aa 24 bd 8f a8 6c 3d
       -0.025800949 -0.08497691 -0.04020169 0.057777938
0000b0 19 a1 09 3d 10 b8 6c 3d 4d 5a d1 be 79 9a f5 bb
       0.0336009 0.057792723 -0.40889207 -0.007495221
0000c0 85 db 92 be f6 f9 a7 be 6f b1 88 be 69 98 8d bd
       -0.28683105 -0.32807893 -0.2669787 -0.069138356
0000d0 d2 32 ae bd eb 0e a3 be 72 7c f8 bd af 56 96 be
       -0.08505787 -0.3184732 -0.12133111 -0.2936301
0000e0 93 db 3f bb 8e b4 f9 bd 3a b5 52 bd cb 06 cf 3d
       -0.0029275164 -0.12192641 -0.051442362 0.101087175
0000f0 79 e6 8b bd 5f b7 b3 bd 31 2d ff 3d 3e 7d ac 3c
       -0.068310685 -0.0877521 0.124597915 0.021055814

sequential_1/dense_2/MatMul f4 [100, 1472]
000000 8f 4d a5 bd 58 92 49 3d 6e 73 cc 3d d4 88 03 be
       -0.08071434 0.04921183 0.09982954 -0.12845165
000010 fe 0d 8b bc af 29 57 bc aa f9 ab bd 86 11 1c bd
       -0.016974445 -0.013132497 -0.08397229 -0.03810265
000020 57 cb 70 be 93 bb c7 3c 66 4e 39 be 5a 3c 6d 3c
       -0.23515068 0.024381435 -0.18096313 0.014479721
000030 38 bd 85 3e fb 64 93 3d f2 e7 1c 3d 77 1e a8 3c
       0.26120925 0.07196995 0.038307138 0.02052234
000040 25 97 06 bd d5 bd 2f 3e 30 f5 0c 3d 6c 4b 91 3d
       -0.032858986 0.17162259 0.034413517 0.07094464
000050 8a 0d bf bc 62 da e0 bc a4 51 d2 3c cc 19 43 bc
       -0.023321886 -0.027447883 0.025673695 -0.011908006
000060 52 8c 99 3d 26 e2 f2 bc 67 93 01 3e 6c 8f d1 bc
       0.07497467 -0.029648852 0.12653886 -0.025581084
000070 94 c8 a7 bb f4 03 6e bd 63 2b 84 bd 83 0a ff bc
       -0.0051203463 -0.05810924 -0.06453588 -0.031132942
000080 7b 3d 09 be 01 3d 42 bd 45 78 2c be 21 91 9b bd
       -0.13402359 -0.04742146 -0.16842754 -0.075960405
000090 66 a7 b3 bd 97 f7 b4 3c 5b 28 d6 bd 8e d3 ea bd
       -0.08772163 0.022090716 -0.10456916 -0.11466132
0000a0 87 88 db bd 24 37 f8 3d 2a a2 18 be 48 9b f7 39
       -0.107194 0.12119892 -0.1490561 0.00047227205
0000b0 51 bc 1c be 46 a4 f6 bd b5 34 b1 bc 0c f5 c0 bc
       -0.15306212 -0.120430514 -0.021631578 -0.023554347
0000c0 1f 7d bc 3d d4 57 d0 3d e0 4e 88 3d 2c a7 42 be
       0.092035525 0.10173002 0.06655669 -0.19009084
0000d0 c6 fc 6d 3b 5b a0 da 3d a8 33 2c be 4b 08 41 3d
       0.0036313995 0.10675117 -0.1681658 0.04712705
0000e0 d4 a4 60 3e 4f 97 26 bd 4b b3 10 bd 1c dd 68 bd
       0.21937877 -0.040671643 -0.035327237 -0.05685149
0000f0 da e9 19 3c fb b2 a2 3c 1d d2 98 3d ac 14 c4 bd
       0.009394133 0.019860735 0.07461951 -0.09574255
000100 64 5f 81 be d4 38 b8 3d 47 dc 88 3e 03 42 df 3c
       -0.2526809 0.08995214 0.26730558 0.027253157
000110 65 a8 02 3c 43 37 74 be 0a e7 e9 ba bb 79 aa bd
       0.007974719 -0.23849206 -0.0017845344 -0.083239995
000120 5f f1 72 bd 36 65 3c 3d 84 68 81 3d 61 2f a3 bd
       -0.05931222 0.04599496 0.06318763 -0.07968021
000130 19 ae 6d 3e ea e4 08 3e 14 cb cf 3c 25 ca e9 bb
       0.23210944 0.13368574 0.02536539 -0.007134693
000140 4b 3c c1 3d 5d 7f 92 3d df 40 84 3b 4b 78 09 3d
       0.09435328 0.07153199 0.0040360535 0.033561986
000150 13 06 d3 bd 6b fb 6d 3d 46 11 a3 bd 0e ba 1c be
       -0.10303893 0.0581011 -0.07962279 -0.15305349
000160 2c 4d fc bd 0a cb 4f 3d 52 49 d2 bc 5f 3a 49 be
       -0.12319407 0.050730743 -0.025669727 -0.19651173
000170 e8 e2 ac bd 17 bc d6 bc 9b dd 4a be 16 e8 fa bd
       -0.084417164 -0.026212735 -0.19811098 -0.12251298
000180 00 7e 23 be 7e f2 a0 be 00 b2 8c bd ff 6d ae bc
       -0.15966034 -0.31435007 -0.06869888 -0.021292685
000190 8f 52 61 be d0 e7 35 be a5 56 0a be 35 d0 c8 bc
       -0.2200415 -0.1776421 -0.13509615 -0.024513343
0001a0 24 96 75 be e5 d0 49 3d 9e b2 6c be 3b 30 06 be
       -0.23983055 0.049271483 -0.23115012 -0.13104336
0001b0 1d c7 26 be 28 4e 3b bd d8 84 13 3d 8e 0f 7b 3d
       -0.16286893 -0.045728832 0.03601536 0.06129413
0001c0 7c 0a 82 3d 56 90 8f 3d 1a 5e 47 ba d2 cd f4 3d
       0.06349656 0.07009952 -0.000760527 0.119533196
0001d0 e1 75 05 3d 66 b1 92 3d e0 f6 a1 bd 4a e4 82 3c
       0.03258312 0.07162742 -0.07908416 0.015977997
0001e0 0e 20 1b 3e 81 f6 30 bb 07 a1 e8 3d 6d 3a a6 bd
       0.15148947 -0.0027002397 0.113588385 -0.081166126
0001f0 cc 39 46 bd a8 ba 7d 3c 16 7d d6 3c e3 60 6a bc
       -0.048394963 0.015486397 0.026182692 -0.014305326
000200 36 5d ed bc 9e 2d 22 3e 65 c8 36 3e ef b4 dd 3d
       -0.02897511 0.15837714 0.17849882 0.10825526
000210 83 37 ee bd bd b0 09 3e c9 a6 a9 3d cb 06 80 3d
       -0.11631682 0.13446327 0.08283765 0.06251296
000220 0a 04 a4 bd 4c 61 1f 3d 51 68 82 3d 49 e8 80 bd
       -0.08008583 0.03891115 0.06367553 -0.06294305
000230 ef c3 d1 3d bc 83 0b 3e 61 8a 11 3d ca 52 8f 3d
       0.102424495 0.13624471 0.03553236 0.06998213
000240 4b 1b 71 bc 4d 77 a9 3d 48 b8 35 3c 48 00 b7 bd
       -0.01471598 0.08274708 0.011091299 -0.089356005
000250 af 8f 43 be de 6e 9d 3d 8f 12 d3 bd b1 8d 94 bc
       -0.1909778 0.07687162 -0.10306274 -0.01813397
000260 1e 74 98 39 fc 2e 0f 3e a4 14 a1 3d 98 6e 5f bd
       0.00029078213 0.13982767 0.07865265 -0.05454883
000270 97 34 24 3d b3 c7 de 3d b2 c7 90 be 7d fd c4 3d
       0.040089216 0.10877933 -0.28277355 0.096186616
000280 76 19 90 bc c9 43 ca bd 57 02 93 3d 01 27 a2 3d
       -0.017590266 -0.0987621 0.07178181 0.07917596
000290 fa 85 91 bd 3c 43 aa 3c 0a d8 83 bc a4 76 38 be
       -0.07105632 0.020784013 -0.016094226 -0.18014008
0002a0 bf e9 52 be 5c 12 35 3e af 6e e4 bd 1e b2 a7 bd
       -0.2059698 0.17682785 -0.11153924 -0.0818827
0002b0 95 82 d2 bd 04 26 d7 bd e3 30 26 bd e9 ff 28 3d
       -0.10278813 -0.10505298 -0.040573966 0.04125968
0002c0 7b 55 8b bd a1 e8 59 3d 5d a2 d0 3c 1a 6c 53 be
       -0.068034135 0.053200368 0.025468046 -0.20646706
0002d0 92 00 68 3d 0f 96 2c 3e 7c 73 20 be 87 79 ea 3d
       0.05664117 0.16854118 -0.15669054 0.11448961
0002e0 83 8b 20 3d 15 b8 a0 3d 69 85 8f 3d 1d bf 82 bd
       0.03919555 0.07847611 0.07007868 -0.06384108
0002f0 aa 62 0e 3e 62 52 8a 3c f4 4e 65 bd e6 7f 32 bd
       0.13904825 0.016884986 -0.0559835 -0.043579005
000300 65 60 8e bc 05 da 2f 3d e5 d1 4b 3d 6e 2b 96 bd
       -0.017379949 0.04293253 0.049760718 -0.07332502
000310 38 f8 c6 bb d4 ac 8e 3d 48 7f b2 bd 69 06 11 3c
       -0.0060720704 0.06966558 -0.08715683 0.008851626
000320 21 d8 24 be f3 a5 ce 3d 66 e7 50 3d 25 91 cf bd
       -0.16098072 0.10090246 0.05100193 -0.10135106
000330 04 3a 4d 3e 4f 0b 28 3e df 77 7e 3c 5b 31 85 3d
       0.20041662 0.16410564 0.015531509 0.065035544
000340 2d 52 a8 bd 68 a6 01 3e 01 66 0e 3d 90 3f 4c bd
       -0.08218799 0.12661135 0.034765247 -0.049865305
000350 09 ba 15 be b5 5c 0f 3e 35 3e 08 be 5a 07 18 3e
       -0.14621748 0.14000209 -0.1330498 0.14846554
000360 d7 25 e9 bd 1b c0 d4 bb ea 95 09 3e da 4d 20 bd
       -0.113841705 -0.0064926273 0.13436094 -0.039136745
000370 ae f8 9a 3d a8 ae 31 bd 64 77 ea 3c 94 68 e7 bd
       0.07566963 -0.043379456 0.028621383 -0.112992436
000380 4b e9 60 bc bc 13 d5 bc a1 8b 80 3d ab 03 9e bb
       -0.013727496 -0.026010387 0.06276632 -0.0048222146
000390 85 e3 f5 bd 32 fd 00 3d 9f ff 6e 3d 1b 5b 09 be
       -0.120062865 0.031491466 0.058349248 -0.1341366
0003a0 a6 b0 43 be 4a 3c 48 3e 94 a7 9f bd 51 ec 1a be
       -0.19110355 0.19554248 -0.07795635 -0.1512921
0003b0 95 cb 45 3d c6 cf 2f be 52 12 3d be 4b 7d 1d bd
       0.048289854 -0.17169103 -0.1846402 -0.038449567
0003c0 2c 87 d2 bd 4f 3c ce bd a9 53 9d bc 4d 82 51 be
       -0.10279688 -0.10070097 -0.019204931 -0.20459862
0003d0 e3 4c 2d bd 76 de 3a 3e d4 b2 37 bd 25 5a 4c 3e
       -0.042309653 0.18248925 -0.04484828 0.19956262
0003e0 a4 51 f9 3c 69 de 45 bd 35 9f 10 3e 06 5d d0 bc
       0.030434437 -0.04830781 0.14123233 -0.025434982
0003f0 2a e3 5f bb 65 b9 6d bd 82 f3 aa 3d cf 94 ae bc
       -0.00341625 -0.058038134 0.08347227 -0.021311192

sequential_1/dense_3/MatMul f4 [14, 100]
000000 b0 69 6c be 17 60 7a bd b0 2c 8c 3d df a5 7d be
       -0.23087192 -0.061126795 0.06844461 -0.24770306
000010 86 59 22 3e c0 09 a1 bd d2 3e 13 be 5e 77 ab bd
       0.15854463 -0.07863188 -0.14379433 -0.08372377
000020 5e 1e f8 3d 2e 00 a6 3d 8a fe 08 3e 79 bd 16 be
       0.12115167 0.08105503 0.13378349 -0.14720716
000030 66 88 83 bd fe ae 4c be 15 18 3e 3e 9d ab 55 be
       -0.064225 -0.19988629 0.18563874 -0.20866247
000040 24 62 59 be 82 0c 38 3e 27 32 10 3e 4a c4 ca be
       -0.21228844 0.17973521 0.14081632 -0.39602882
000050 9c a0 92 3d cf 37 f1 3d b9 45 44 bd 57 33 a0 3d
       0.0715954 0.11778223 -0.047918055 0.07822292
000060 f0 d0 6b be 20 f9 b2 be 32 ec 87 3d 0a b2 8e be
       -0.23028922 -0.34955692 0.066368476 -0.27870208
000070 af 16 0b 3e 4e 92 41 3e d4 9e 2d bd 1e 91 68 3e
       0.13582872 0.18903467 -0.0423878 0.22711608
000080 63 ab 20 3e fa 6a f5 3d fc 23 1f 3e 1e bc d0 3d
       0.15690379 0.11983295 0.1554107 0.101921305
000090 ba 2b 5f 3e 2c a7 ac bd 61 96 80 3d 57 86 5c 3e
       0.21794024 -0.08430323 0.062786825 0.21535622
0000a0 4c 46 12 be 9b 11 61 be a8 7b 62 be 51 14 24 3e
       -0.14284629 -0.21979372 -0.22117484 0.16023375
0000b0 a7 70 61 bd e3 f0 a2 bd d5 a9 fb bd 74 2c 82 bd
       -0.055039074 -0.07956102 -0.12288252 -0.06356135
0000c0 a6 ea 0d be de 82 9f 3d 10 01 0b 3e 29 7a 17 3e
       -0.13859043 0.07788633 0.13574624 0.14792694
0000d0 6f 8e 8d 3d 08 88 3e 3e df f2 d1 bd 0e fe 57 3e
       0.06911933 0.1860658 -0.10251402 0.21093008
0000e0 2b 6b 30 3e 0b 88 d5 bd f1 d2 ca bc 09 e7 7e bc
       0.17228381 -0.10426339 -0.024758788 -0.015558013
0000f0 2b cd 34 3c 29 ea 07 3e f7 6e 2c be 71 a9 08 be
       0.011035244 0.13272919 -0.16839205 -0.13345887
000100 68 43 04 be 56 a0 3c 3e 0f 66 fc 3d f7 71 86 be
       -0.12916338 0.18420538 0.12324154 -0.26258823
000110 d0 b6 4c 3e 2f e5 28 be ad 57 18 3e e3 c0 25 3e
       0.19991612 -0.16493677 0.14877196 0.16186862
000120 6c 4c 7d be cc e0 37 be 2b 32 2c 3d 25 37 03 bd
       -0.24736184 -0.17956847 0.04204003 -0.03203501
000130 f1 0a dc 3d 39 5c 89 be 4b 11 23 be 90 f2 90 3d
       0.107442744 -0.26828173 -0.15924565 0.07077515
000140 f5 82 e5 3c bd 2a 0d 3e f4 a8 a8 3c c4 c8 1f be
       0.028016547 0.13785835 0.020588376 -0.1560393
000150 0b 9c 92 be 25 72 f0 bd 97 f6 80 3e 45 f4 31 3e
       -0.28634676 -0.11740521 0.25188133 0.17378338
000160 9a a3 ea 3c 97 2a 92 3d c0 96 6e bd c5 f3 53 3d
       0.028642464 0.071370296 -0.058249235 0.05174615
000170 c7 68 66 bd 26 f0 6d bd 24 01 c6 bc 41 18 59 be
       -0.056252267 -0.05809035 -0.024170466 -0.21200658
000180 a8 60 d3 bd 33 1a 16 3e b8 09 db 3d 00 c3 45 be
       -0.1032117 0.14658432 0.10695213 -0.19312668
000190 a8 57 a3 be 63 f8 2f be 0a bf 79 3e 30 17 be be
       -0.31902814 -0.17184596 0.24389282 -0.37127066
0001a0 6e c7 29 be 44 b1 76 be 20 c5 aa 3d 02 2a 10 bd
       -0.16579983 -0.24091059 0.0833838 -0.03519631
0001b0 75 9e eb bd 61 b4 5b 3d bb a0 3c be 5a 8f ef 3d
       -0.11504833 0.05363882 -0.18420689 0.11697264
0001c0 8f 7f 50 3c 54 b0 30 3d 3c c4 4b 3e 89 e2 d9 bd
       0.012725725 0.04313691 0.19899076 -0.10638911
0001d0 ed 64 f2 bd f0 6f f2 3d 05 25 21 be c9 24 be bd
       -0.11835656 0.11837757 -0.15736778 -0.0928436
0001e0 8a e2 3c be 4f 6f 2b 3e 17 25 49 3e 04 74 4b be
       -0.18445793 0.1674168 0.19643055 -0.19868475
0001f0 45 74 53 bd 1d 69 c8 be fb e1 fc 3d 4a af 1a 3d
       -0.051624555 -0.39142695 0.1234779 0.037764825
000200 cd ce 34 be 46 03 b5 3d e9 c0 12 3e 6c c7 f5 3a
       -0.17657013 0.08838515 0.14331402 0.0018751449
000210 66 75 a1 bd 2a 30 85 bd 33 7b 44 3e 6f 53 45 3e
       -0.0788372 -0.06503327 0.19187622 0.19270109
000220 81 57 46 be 10 89 03 3e 34 e2 ae bd c8 53 20 3d
       -0.19369318 0.12845254 -0.085392386 0.0391424
000230 f0 7e 85 bd b5 aa b7 3d 2e e7 4e bd a5 81 19 bd
       -0.06518352 0.08968107 -0.05051344 -0.037477154
000240 ae 4d 4e bd 52 66 d4 3d 1f b9 ae 3c 30 08 80 bd
       -0.05036705 0.103710786 0.021328507 -0.06251562
000250 3a 40 ec 3d ef 27 3e be fb 55 8b 3d 7d 03 8d 3d
       0.11535688 -0.18569921 0.06803509 0.06885431
000260 6a 35 e7 3d a7 7e 0e 3e 96 da a9 bc bb df cc bd
       0.11289485 0.13915502 -0.020734113 -0.10003611
000270 19 8f e9 3d 89 f6 b3 be da e8 f9 bd 24 23 70 be
       0.11404247 -0.3514903 -0.12202616 -0.23450905
000280 c2 80 03 3e 06 b1 b0 3d 63 9a 52 be 26 30 b0 bd
       0.12842086 0.086275145 -0.20566706 -0.086029336
000290 6e 45 82 be 7a 41 32 bd 64 35 a0 3d 8e 6e 15 3e
       -0.25443596 -0.043519475 0.078226835 0.14592955
0002a0 41 d0 15 be 94 84 05 3e 60 9d 2b 3e 0f 94 24 be
       -0.14630224 0.13038856 0.16759253 -0.16072105
0002b0 b8 01 c3 bd 49 57 2b be 7c a6 c9 3d 62 bc 9c be
       -0.09521812 -0.16732515 0.098462075 -0.30612475
0002c0 06 5f 3f be c2 cb 5a 3e 74 cf f8 3d b8 51 42 be
       -0.18688592 0.2136679 0.121489435 -0.18976486
0002d0 1f 73 c5 3d c8 75 f7 bd d0 a5 92 bd 93 b8 97 be
       0.09641098 -0.12083012 -0.071605325 -0.29633006
0002e0 9a 13 d0 bd 87 ea 27 3d 63 5d ec 3d 37 ee 9b 3c
       -0.10159989 0.040995147 0.115412496 0.019034488
0002f0 bf 56 53 be 97 23 71 be 33 b5 6c 3d 48 b8 14 3e
       -0.2063856 -0.23548733 0.057789993 0.14523423
000300 2f 74 52 bd 27 7b 16 be 6e 19 b7 3d 8c 4f f3 3d
       -0.051380333 -0.14695416 0.08940397 0.11880407
000310 6d 15 d1 3d c1 fa 11 3e 12 38 14 be 98 5c 11 3e
       0.10209165 0.14255811 -0.14474514 0.14195478
000320 b5 a7 26 3e 3a 0c 28 bf 8c 19 9b bd 1a da c1 3d
       0.16274913 -0.65643656 -0.07573232 0.09465428
000330 1a a2 32 3e 8d 04 59 be 9d 25 0d 3e 76 0a 09 3e
       0.1744465 -0.21193142 0.1378388 0.13382897
000340 04 75 f4 3d 67 92 75 3e ad 56 23 3d 55 92 3b bf
       0.119363815 0.2398163 0.039877582 -0.7327016
000350 10 0e 82 3e f2 7f 66 be c9 26 d0 3c 41 90 92 bd
       0.25401354 -0.22509745 0.02540912 -0.071564205
000360 0a 8f c0 3d 6c b0 9d 3e e5 0e 7d 3c 69 51 27 3e
       0.094022825 0.30798662 0.015445446 0.1633965
000370 e8 90 00 3e 7a 58 13 be a7 eb b4 3d e9 ed 4b 3e
       0.12555277 -0.1438922 0.088340096 0.19914974
000380 ce c2 85 be 30 08 b9 be 27 7c 2b 3d 5b 28 aa be
       -0.26125187 -0.3613906 0.041866448 -0.33233914
000390 04 2d 95 3d b6 a3 12 be 60 0b 95 bd 34 2f ae 3e
       0.07283977 -0.14320263 -0.0727756 0.34020388
0003a0 60 ca 34 be f6 f4 7a bd e1 75 51 3e 44 c9 08 3e
       -0.17655325 -0.06126877 0.20455123 0.13358027
0003b0 3b 85 ba bd ad 26 93 3e 59 ab d4 bd ad 6b 18 bd
       -0.09107443 0.28740445 -0.103842445 -0.037212063
0003c0 91 0f d1 3e 7e ce 64 3e a1 89 88 3e 30 3f a2 bd
       0.4083219 0.22344396 0.26667503 -0.07922208
0003d0 30 7c 91 bd 71 e9 2b 3e 2d a4 bc be 63 a3 aa be
       -0.07103765 0.1678827 -0.36844006 -0.3332778
0003e0 c9 73 b1 3d 01 01 8d bc 5a 13 c8 3e 7e c1 9d be
       0.086646624 -0.017212393 0.39077264 -0.30811685
0003f0 93 b8 f1 3d c8 66 b5 bc bb 3f 8d bd ec 40 c9 3d
       0.11802783 -0.022143736 -0.06896921 0.09826836

sequential_1/conv1d_2/Conv1D f4 [64, 1, 3, 6]
000000 7d cb fa be 7e 0d 38 3e 05 0c 48 3e 31 3c 29 bc
       -0.48983374 0.17973897 0.19535835 -0.010329292
000010 aa 18 0a be 27 7b 23 be 37 46 88 be 79 13 9c 3e
       -0.13485971 -0.15964948 -0.2661607 0.30483606
000020 99 6f 87 3e ee 44 f7 bd 1b fc 0e be e5 35 17 be
       0.2645233 -0.12073694 -0.13963358 -0.14766653
000030 d3 de de be e3 2c 9e 3c 4f 33 83 3e bd 9e 1b 3c
       -0.43529376 0.019308513 0.25625083 0.009498295
000040 fc b4 ec bd 6d a2 37 be c4 86 5f be 66 56 2b be
       -0.115579575 -0.17933054 -0.21828753 -0.16732177
000050 fc ac c1 bd c8 cd 98 bd 5f bd 31 3e f8 35 35 3c
       -0.09456822 -0.07461125 0.17357396 0.01106023
000060 d5 d1 06 be 99 72 6b be 7f 66 4f be d1 a9 84 bd
       -0.13165982 -0.22992934 -0.20253943 -0.064777024
000070 be 50 af 3c 58 78 02 be ea 02 62 be 75 de a1 bc
       0.021400806 -0.1274122 -0.22071424 -0.019759396
000080 b7 be 54 bc c2 01 85 bc 81 67 72 3d bd b2 85 bc
       -0.012984923 -0.01623619 0.05918074 -0.01632058
000090 7e 7c 76 bd 72 90 9d 3d 2b 4a 79 be 23 5b d2 bd
       -0.06017732 0.076935664 -0.24344699 -0.10271289
0000a0 57 d2 a7 bb e9 82 f9 bd 99 3d 8f bd 2d 59 cc 3d
       -0.00512151 -0.12183172 -0.06994171 0.099779464
0000b0 4b 6e 6c be da 42 58 3d 43 10 09 be e5 5f d8 bc
       -0.23088948 0.05279813 -0.1338511 -0.026412914
0000c0 e7 59 33 be 7c a4 d2 3d 3d 6e 90 be e3 f0 1f 3e
       -0.17514764 0.10285279 -0.28209105 0.15619235
0000d0 5a 01 b0 bb 7b 92 b1 bd df 71 c6 3c f1 60 84 bd
       -0.005371255 -0.08670517 0.02422422 -0.064638026
0000e0 8e 82 dc bd 45 4b 41 3d 0b e7 98 bd 84 94 78 3d
       -0.10767089 0.047190923 -0.07465943 0.06068851
0000f0 45 08 2e 3e 74 53 f7 bd 30 4b 08 3d 96 e3 3c 3e
       0.16995342 -0.12076464 0.03327483 0.18446192
000100 af a0 02 3e e0 23 e8 bd 20 b4 ab bb 87 18 05 be
       0.12756608 -0.113349676 -0.0052399784 -0.12997638
000110 fb 1c 04 be d3 90 41 be 86 d7 98 bd ec 7e ef bb
       -0.1290168 -0.18902902 -0.07462983 -0.0073088314
000120 ee cf c6 be 4e b1 0f bc f7 f8 be 3c 13 bb 88 bc
       -0.38830513 -0.0087703 0.023312075 -0.016690766
000130 cc 22 b8 bd 01 4f 42 be 69 c6 d1 be 76 6c 36 be
       -0.08991012 -0.1897545 -0.40971687 -0.17814812
000140 f9 46 8a be 98 de e5 3d 0f b7 c7 bd 4e b9 81 3e
       -0.27007273 0.11224097 -0.097517125 0.2533669
000150 db 6d d0 be a5 65 a9 bd 00 73 6a be a0 05 af 3c
       -0.40708813 -0.0827134 -0.22895432 0.021364987
000160 a8 64 f9 3d 4f da 16 be 4a 81 54 bc ff 9a d4 bd
       0.12177402 -0.14731716 -0.012970278 -0.10381126
000170 45 0e ce 3c 6f 94 35 be a2 11 c4 3c 88 a0 df bd
       0.025153289 -0.17732404 0.02393419 -0.10919291
000180 11 74 94 3e 0b 30 0a be af 53 88 3e 8e ec 24 3d
       0.28994802 -0.1349489 0.26626346 0.04026466
000190 81 b4 00 be 17 cc 4d 3b df b2 14 3e 32 c5 1c be
       -0.12568857 0.0031402165 0.14521359 -0.15309599
0001a0 bb c5 8a 3e 70 a9 6b 3d 08 d8 c9 bd 2b 2a a2 bd
       0.2710398 0.057534635 -0.09855658 -0.07918199
0001b0 4a 5f 73 be 2c 4b b2 bd c5 40 c2 bd a3 97 82 3d
       -0.23766819 -0.08705744 -0.0948501 0.06376579
0001c0 15 0f 37 3b ed ba 19 3e 2d 84 8f be 97 04 2b be
       0.0027932574 0.15012713 -0.2803053 -0.1670097
0001d0 3d 91 26 3e 1c 0b 1e bd 9d 57 3c be 71 9c 50 3e
       0.16266342 -0.038584813 -0.18392797 0.20372178
0001e0 02 28 3c be 1f 51 a2 3d 17 41 03 3e ba 97 02 be
       -0.18374637 0.07925629 0.12817799 -0.12753192
0001f0 1a da 22 3c cb 9a 0f 3e 82 ae 4c be e0 af 83 bd
       0.009939695 0.14023893 -0.19988444 -0.0643003
000200 1e f3 83 3c 49 9f b4 bd 16 ed 94 bd 9d 10 c8 3d
       0.016107138 -0.08819444 -0.07271783 0.09768794
000210 09 74 c9 bd b9 da 85 3d 9b ae ed bc 40 2f ab bb
       -0.09836585 0.06535859 -0.029013922 -0.0052241385
000220 b7 be c5 bd 49 fe 4f bd 0f bd 46 3c 2a 59 57 bc
       -0.096555166 -0.050779615 0.012130036 -0.013143817
000230 7e 30 fb ba 9d c5 af bd 3f b0 a7 bd b3 04 41 bd
       -0.0019164232 -0.085826136 -0.08187913 -0.047123622
000240 14 a9 a5 be cd f2 e3 3d ec 29 2f 3d 54 b2 bf 3d
       -0.3235556 0.11130295 0.04276459 0.09360185
000250 be 67 9a 3d 71 92 ac be c4 38 b1 bd bf 10 d8 bd
       0.075393185 -0.33705476 -0.08653405 -0.10550069
000260 bd 01 1e bd 1a b3 f5 3c 95 f5 66 3d a5 00 a0 be
       -0.038575877 0.029992629 0.05638655 -0.31250492
000270 49 fb 65 be 48 8e 73 be 18 8b 83 ba 3e 90 36 bd
       -0.22459139 -0.23784745 -0.001003596 -0.044571154
000280 af ad 0c be 3a e8 34 3c cd c8 0a 3e 82 af 8e bd
       -0.1373813 0.011041695 0.13553162 -0.06967069
000290 52 50 e6 3c cf c7 8c bd 28 21 05 3d f3 d9 72 3b
       0.028114472 -0.06874048 0.032502323 0.0037056177
0002a0 06 f5 00 3e b0 f3 e5 3d d0 8a d3 bd 18 4a 02 3e
       0.12593469 0.1122812 -0.10329211 0.12723577
0002b0 a2 dd 32 bc 16 12 1d be 69 98 e6 3d a6 a2 3a 3e
       -0.010917099 -0.1533893 0.11259539 0.18226108
0002c0 84 3d 70 be 82 51 d3 3d 41 ce c9 bd e2 ee 22 bd
       -0.23460966 0.10318281 -0.09853793 -0.039778598
0002d0 36 1d 97 3e dd 04 c9 bd 51 65 8a 3e e4 50 84 bb
       0.29514474 -0.09815381 0.27030423 -0.004037963
0002e0 c9 d5 dc 3c c9 7e 20 3e 10 6d 0a 3f f3 1c 67 be
       0.02695741 0.15673365 0.54072666 -0.22569637
0002f0 7b 36 55 3e 4b aa d2 3d 9d eb 50 bc 78 90 8f bb
       0.20821564 0.10286387 -0.012751487 -0.0043812357
000300 fa 65 c3 3e be dc ab 3d c1 23 03 3c d2 6a 81 3d
       0.3816374 0.083917126 0.00800413 0.063192025
000310 0e e9 43 be ad 13 a0 3d a0 92 1b 3f 69 db 49 3e
       -0.19131872 0.07816253 0.60770607 0.19712605
000320 d2 e2 45 bf c3 ac e7 3d 0a f0 79 3d 62 f0 2b be
       -0.77299225 0.113122486 0.061019935 -0.16790918
000330 0e 9d 43 3f 14 a4 92 3e 32 5b 44 bf 66 da 5a bb
       0.7641152 0.28640807 -0.76701653 -0.0033394336
000340 8f d4 2b 3d 9e f8 08 3e 49 bf 17 3f f6 81 79 3e
       0.04195076 0.1337609 0.59276253 0.24365982
000350 dd 7b 35 bf 8a a9 7a bd 08 b4 06 be fd 72 c0 bd
       -0.70892125 -0.06119684 -0.13154614 -0.09396932
000360 e5 33 cd be 0b ba cf bc 27 b2 20 3e bd 27 82 3e
       -0.40078655 -0.025357267 0.1569296 0.25420943
000370 7a d5 95 bd 60 13 cb bd d2 26 de be 46 17 81 3e
       -0.07316108 -0.09915805 -0.43388993 0.2521307
000380 2f fa 2e 3e f1 ce 98 3d 2f 68 e2 3c 6f b3 53 3e
       0.17087625 0.07461346 0.02763757 0.20673917
000390 22 2f 10 be 09 8a 04 bd ce fb b8 ba e7 d5 01 3e
       -0.1408048 -0.032358203 -0.001411313 0.12679254
0003a0 64 a7 72 bc 5d ed e7 bd 46 ac 80 3c b5 e4 ca bd
       -0.014810417 -0.1132457 0.015707146 -0.09906904
0003b0 eb 6a a7 be c2 89 de bd d7 14 16 be 08 86 14 3e
       -0.3269876 -0.10866119 -0.14656387 0.14504254
0003c0 ec 2e 8b 3c 2e ec 25 be 5d b3 c6 be 11 ad 3d bd
       0.016990148 -0.16203377 -0.38808718 -0.046307627
0003d0 16 32 1d be 96 86 98 3e 9e a2 17 3e 38 5b a7 3d
       -0.15351138 0.2979018 0.14808127 0.081716955
0003e0 91 ad 99 be 66 4f a5 bd 1f d0 d8 bc 14 96 0d 3e
       -0.30015233 -0.08071785 -0.026466427 0.13826782
0003f0 f3 07 89 be 78 4c 05 3f 56 04 37 3e ba 0f 5b bc
       -0.26763877 0.5206981 0.17872748 -0.013370449

sequential_1/conv1d_3/Conv1D f4 [64, 1, 3, 64]
000000 d4 c4 2f 3e b5 10 c5 bd df 30 07 3e cc 93 87 3d
       0.17164928 -0.09622327 0.13202237 0.06619987
000010 5d 5c 25 3e 4e a6 14 be 76 50 17 be 56 34 cf 3c
       0.16148515 -0.14516565 -0.14776787 0.02529351
000020 72 65 ea 3d 45 a9 2c be 2d 69 ec bc cb 75 c3 bd
       0.114451304 -0.16861446 -0.028858745 -0.095439516
000030 1f 29 b8 3d a4 5b c9 bd be 5b 3c 3d af 1a 65 bc
       0.08992218 -0.09831932 0.04598593 -0.013983413
000040 fa 78 e0 bb 00 79 27 3d 0c ca d4 3d 73 74 71 3d
       -0.006850359 0.04088688 0.103901 0.058948945
000050 d9 49 8b 3e 8c d4 15 bc 02 d1 bb bb d5 1d 73 3d
       0.2720478 -0.009144913 -0.005731703 0.059354622
000060 1d d5 05 3b 1d a5 35 be 04 18 34 be 24 0a 58 bd
       0.0020421215 -0.17738767 -0.17587286 -0.052744046
000070 a9 c1 17 3d bd 23 fe bc ac 9a d8 3d 7c 87 97 3d
       0.037049923 -0.0310229 0.10576376 0.073988885
000080 00 94 9f be 74 2d 2c bd 19 87 47 bd 0c 09 4f bb
       -0.31167603 -0.042035535 -0.048712824 -0.0031591086
000090 39 73 ca bd d9 6f c9 bd a8 14 bd bd 52 e9 c1 bd
       -0.09885258 -0.09835786 -0.092324555 -0.094683304
0000a0 27 32 c5 3d 5e af 25 be fb a4 4a 3d 8d 98 33 3d
       0.096287064 -0.16180179 0.049473744 0.043846656
0000b0 67 3d f3 3d a1 c2 04 bc 12 9b 5d 3e 97 8b ff 3d
       0.11876946 -0.008103044 0.21641186 0.124777965
0000c0 75 7c 20 3e 13 09 f0 3d 55 42 8b bd ae bd 09 bd
       0.15672477 0.11720481 -0.06799761 -0.03362816
0000d0 67 89 da 3c 75 39 99 3c ca ee 25 bd a7 a7 8b be
       0.026676847 0.018704155 -0.04051093 -0.27276346
0000e0 59 51 3b 3e d8 15 0c bd 3e 42 41 3e 77 2a 2b be
       0.1829275 -0.03420052 0.18872926 -0.16715418
0000f0 e4 ad 41 bd 3c 4a e2 3d 21 08 64 be ac 5c 85 bd
       -0.047284976 0.11049315 -0.22268726 -0.065118164
000100 64 9d f6 bd 2c d1 07 3e e0 c3 6e bd 1d 64 81 3c
       -0.12041739 0.13263386 -0.05829227 0.015794808
000110 c9 34 9c bd ea 52 31 be bc d5 44 be 8a a6 5a bc
       -0.076272555 -0.17316785 -0.19222158 -0.01334537
000120 9f de b5 bd aa fb a2 bd 51 e9 e9 bc e5 c4 0a be
       -0.08880352 -0.07958157 -0.028553637 -0.13551672
000130 18 8d ca 3c 45 6c e0 bd 6b cf b2 bd d2 f2 09 3d
       0.024725482 -0.10958151 -0.08730968 0.033678837
000140 82 6f 55 be 42 b3 a5 bd bf b0 94 3c f9 2e 32 bd
       -0.20843318 -0.08090831 0.018150685 -0.043501828
000150 89 6b 26 3d 53 4c 10 3c c3 9a 21 3d c5 00 2d 3e
       0.040629897 0.00880726 0.039454233 0.16894825
000160 e7 5d aa bc ac 97 12 3e 46 0e 35 be 4f 50 9c 3c
       -0.02079673 0.1431567 -0.17681226 0.019081263
000170 ba c9 f0 3d 4d 73 ae 3a b7 14 7f bd e0 5f ad 3d
       0.11757226 0.0013309509 -0.062275615 0.08465552
000180 08 55 20 be 9e cc 0a 3c af bd 92 3d a6 f1 20 bd
       -0.15657437 0.008471636 0.071650855 -0.039292954
000190 02 81 b3 3d 12 a3 e9 bd 9a 82 80 bd 1d b3 94 bd
       0.08764841 -0.11408056 -0.0627491 -0.07260726
0001a0 53 b6 19 3c 2b 77 84 bd 5b dc 4a bd 83 78 3b be
       0.009381848 -0.06468042 -0.049526554 -0.1830769
0001b0 4c 78 b3 3d c6 8c f6 3c ee a6 3f 3e 9e d2 9e 3d
       0.08763179 0.030096423 0.18716022 0.07755016
0001c0 81 cb ac 3c 00 41 4a 3c 64 18 eb bd 20 f3 2c be
       0.021093132 0.012344599 -0.114792615 -0.1688962
0001d0 a0 10 7b 3d 91 be f0 bb 4d 01 84 3c dd 00 ec 3d
       0.06129515 -0.007346936 0.016113902 0.11523602
0001e0 75 c3 56 3d c3 5d bf bd 66 03 64 3d f9 c7 fa bd
       0.052432496 -0.093440555 0.055667304 -0.12245173
0001f0 86 4c 14 bd c3 b8 50 bd 9f 71 78 be b6 d4 54 be
       -0.03620579 -0.050957453 -0.24262093 -0.20784268
000200 00 c3 53 be 57 f2 1c 3e ff 01 25 be 42 5a 0b 3e
       -0.20679855 0.1532682 -0.16114043 0.1360865
000210 61 2d 9b 3d 9d 56 66 be 8e 13 d3 ba 73 6a 4d be
       0.07577015 -0.22493978 -0.001610385 -0.20060138
000220 10 00 06 be 09 6e 59 be 5e eb 9b be 0e 51 7f bd
       -0.13085961 -0.21233381 -0.30453008 -0.06233316
000230 8b 5d 75 be 38 d3 48 be 9e 2c 07 3e a7 83 af 3d
       -0.23961465 -0.19611824 0.13200614 0.085700326
000240 29 0e b7 bd 76 e4 55 be fc 78 07 be c9 15 e8 3c
       -0.08938248 -0.20887932 -0.13229746 0.0283307
000250 80 4b 07 3e 5a f5 20 be a4 26 31 be 9e 26 fc 3d
       0.13212395 -0.15718594 -0.17299896 0.12312053
000260 00 3a f9 3d 39 8a de 3d 42 6a dd 3d 72 83 67 be
       0.12169266 0.10866208 0.10811283 -0.22608736
000270 7e 4a 86 3d c7 b8 0f 3e a4 31 89 3c a3 c4 a7 bc
       0.06557177 0.1403533 0.016747303 -0.020479506
000280 0d 5a b8 3d 2d dd 7b 3d a5 93 8f bc 36 9d e9 bc
       0.09001551 0.061490227 -0.017526457 -0.028517347
000290 8e 7b 90 3d c9 6a 93 bd 9d d7 3a bc 3b 3f 20 be
       0.07054816 -0.07198102 -0.011403945 -0.1564912
0002a0 6c d3 3c be 7c e2 58 3d 6e ef 1c 3d 4d 23 a9 bd
       -0.18440026 0.052950367 0.038314275 -0.08258686
0002b0 21 1d 96 bd 5c d7 e9 bd 26 65 ad bd 36 fd 05 3a
       -0.07329775 -0.1141803 -0.08466558 0.0005111279
0002c0 cb 5c a2 ba 53 47 61 be ea 2d 00 3c fc 67 8b be
       -0.0012387274 -0.21999864 0.007823447 -0.2722777
0002d0 ed b3 6e 3e 7d 8c 6e 3d c9 ae d3 bd 6d 05 8d bd
       0.23310824 0.05823945 -0.10336072 -0.068858005
0002e0 6a 07 97 3d 90 11 cc 3d e4 63 86 3d 8b b3 d1 3d
       0.07374461 0.09964287 0.065620214 0.10239323
0002f0 32 8e 92 bd b2 32 1e be e9 3c 86 bd 08 4f 7f bc
       -0.07156028 -0.15449026 -0.065545864 -0.015582807
000300 a8 ae 25 be 18 4f 5d 3c e8 8d aa bb 6e d6 71 bb
       -0.16179907 0.013507627 -0.005204905 -0.0036901492
000310 d9 d6 36 3c e2 0a 6c 3d 27 de ec bd 03 3d d4 bd
       0.011159622 0.057627566 -0.1156581 -0.103631996
000320 7d 1b a0 bd a3 03 05 3e d9 96 ac 3d 80 5b 8d 3d
       -0.07817743 0.12989669 0.084272094 0.06902218
000330 ce be c4 3c 82 8a 99 bc 41 cc 7f 3c af 3e 2b be
       0.024016764 -0.018742803 0.015612663 -0.1672313
000340 11 4a 3d 3c 4d 2c 9f bd e7 e8 18 3d 0f 61 d9 bd
       0.011553303 -0.077721216 0.037331488 -0.106142156
000350 14 ab 4e 3d 4e bb 33 3d f2 0e 8c 3d 71 fb 13 bd
       0.05045612 0.0438798 0.06838788 -0.036128465
000360 24 1d 2e bd 71 76 fe bd 24 0b 01 3e c9 8e 2a 3d
       -0.04250826 -0.12424935 0.12601906 0.041640077
000370 32 ff e2 bd 36 6d 32 be e6 5a c8 bd a4 f5 0c 3d
       -0.11083831 -0.17424473 -0.097829625 0.03441395
000380 b7 2e 00 3d 10 76 d9 3d f6 0e 39 bd c8 51 f3 bd
       0.03129455 0.10618222 -0.045180283 -0.11880833
000390 4c a2 53 be 0a 8e 3c be 2f bc 9f bc 67 4c 48 be
       -0.2066738 -0.18413559 -0.019498913 -0.19560395
0003a0 57 84 4d 3c 05 32 08 3e 1e 4c 23 bd 8e e7 9f bc
       0.012543759 0.13300331 -0.039867513 -0.019519594
0003b0 44 71 fa 3c a5 f2 bd 3d fa 72 de bc 20 05 a1 bd
       0.030571587 0.092747964 -0.027154434 -0.07862306
0003c0 a6 f7 1b be 11 36 17 be df 93 ea bd 22 fe 83 b9
       -0.15231189 -0.14766718 -0.114539854 -0.0002517561
0003d0 9d dd 17 3e 43 6e 75 be 14 3e 9c 3d 52 1b 24 be
       0.14830633 -0.23967843 0.07629028 -0.16026047
0003e0 28 f9 9b bd 6a c7 0b be c0 66 aa bc 90 a0 6f 3d
       -0.07615882 -0.13650289 -0.020800948 0.058502734
0003f0 aa 12 28 be 7c 6b 66 bc 5c f8 19 be 27 5e d3 bd
       -0.1641337 -0.014063712 -0.15036148 -0.103206925
