app/src/main/assets/thingy_model.tflite (tflite, 655808 bytes, 8 tensors)

sequential_2/dense_5/BiasAdd/ReadVariableOp f4 [13]
0	0x3e3ec0f2	0.1862829
1	0xbe22fe6b	-0.15917365
2	0x3e87192d	0.26386395
3	0x3be4330a	0.006964092
4	0x3decbe18	0.11559695
5	0xbdf5ead5	-0.12007681
6	0x3cc31868	0.023815349
7	0xbdfed934	-0.12443772
8	0xbfd87a4a	-1.691232
9	0xbf1fc18c	-0.62404704
10	0x3fb8992b	1.4421743
11	0x3eb87406	0.3602602
12	0x3da5ff3b	0.08105322

sequential_2/dense_4/BiasAdd/ReadVariableOp f4 [100]
0	0x3cfb04c4	0.03064192
1	0xbd84e5ce	-0.06489144
2	0xbc758f0c	-0.014987718
3	0xbe0496ae	-0.12948105
4	0xbd3b39cd	-0.04570942
5	0xbdbfc7a4	-0.0936425
6	0x3e55a24f	0.20862697
7	0xbd93140e	-0.071815595
8	0xbe97eb85	-0.29671875
9	0xbd77d5ce	-0.060506634
10	0xbb977f08	-0.0046232976
11	0xbccb5def	-0.024825064
12	0x3ce457e0	0.027873933
13	0xbe88e3e7	-0.26736376
14	0x3ce894d7	0.028391285
15	0xbe6ec1b5	-0.23316081
16	0x3e3e5fa2	0.18591169
17	0x3c4e815e	0.012604086
18	0x3dead9ef	0.11467349
19	0x3d0846b9	0.03327057
20	0x3d4f25e2	0.050573237
21	0xbd9db8b3	-0.07701244
22	0x3e0564ab	0.13026683
23	0xbdc300c6	-0.09521632
24	0x3af132e4	0.0018402007
25	0xbe46861a	-0.19387093
26	0x3e5da13f	0.21643542
27	0xbe9abefd	-0.30223837
28	0xbe3bfb85	-0.18357666
29	0xbdb66876	-0.08906643
30	0xbe0f369c	-0.13985676
31	0xbe723155	-0.23651631
32	0xbe086707	-0.13320552
33	0x3e7b9eaa	0.24572244
34	0x3e264dd9	0.16240634
35	0x3c140b77	0.009035937
36	0xbd26c806	-0.0407181
37	0x3e14e9b9	0.14542283
38	0x3e6b12c6	0.2295638
39	0x3d8500c2	0.06494285
40	0x3e8ff988	0.28120065
41	0x3e1a70bd	0.15082069
42	0xbd618a80	-0.055063725
43	0x3d5523ec	0.05203621
44	0x3db011a2	0.08597113
45	0xbe40d868	-0.18832552
46	0x3dd52800	0.1040802
47	0xbe1aa062	-0.15100244
48	0xbcd467c2	-0.025928382
49	0x3b89243c	0.0041852277
50	0x3d596feb	0.05308525
51	0x3ddad7a1	0.10685659
52	0xbdc10b35	-0.09425966
53	0xbd697f74	-0.057006314
54	0xbdbafbb0	-0.09130037
55	0x3e169fff	0.14709471
56	0xbdd567cb	-0.104201876
57	0x3e1ab2c9	0.15107264
58	0xbea7b3c0	-0.32754326
59	0x3e01fee1	0.12694885
60	0x3ea327aa	0.318662
61	0x3c831d94	0.016005315
62	0x3d9e2612	0.07722105
63	0xbe0874c7	-0.13325797
64	0x3d4b423d	0.049623717
65	0xbd1fe41d	-0.039035905
66	0x3a91369a	0.0011078895
67	0x3d2902ce	0.04126244
68	0xbe65919d	-0.22418828
69	0xbeee8ed1	-0.46593335
70	0xbcf9b2ed	-0.030480826
71	0xbda15813	-0.07878127
72	0xbe2515e3	-0.1612163
73	0x3b252b42	0.0025202786
74	0x3b89ce44	0.004205497
75	0x3c588f1e	0.013217716
76	0xbdd6ac13	-0.10482039
77	0xbdc0bd82	-0.09411146
78	0x3db4eedc	0.08834621
79	0xbde4d981	-0.11174298
80	0x3c1709bb	0.0092186285
81	0x3da3ef54	0.080046326
82	0x3ea09a87	0.31367895
83	0x3ec82a1a	0.3909462
84	0x3d178622	0.036993153
85	0xbe0b998b	-0.1363279
86	0x3e88cd9d	0.2671937
87	0xbdbc4852	-0.091934815
88	0x3d1358a6	0.035973214
89	0x3d1cdc5f	0.0382961
90	0x3dfbec31	0.12300909
91	0x3d606688	0.05478528
92	0x3dab5dc2	0.08367492
93	0x3eb1480e	0.34625286
94	0xbde9e7c2	-0.114211574
95	0xbdd8d3d1	-0.10587276
96	0xbd5463ee	-0.051853113
97	0xbd5355a5	-0.05159535
98	0xbddbc8c0	-0.107316494
99	0x3e2b6019	0.16735877

sequential_2/conv1d_5/BiasAdd/ReadVariableOp f4 [64]
0	0x3e30b837	0.17257772
1	0x3dc0dafa	0.094167665
2	0x3cb76b43	0.022390014
3	0xbdf9224b	-0.12164744
4	0x3e34ca8e	0.17655393
5	0x3da90674	0.08253184
6	0xbdf93b39	-0.12169499
7	0xbe112de5	-0.14177664
8	0x3df9a39c	0.12189409
9	0xbdb67931	-0.08909834
10	0xbee2ba73	-0.44282874
11	0xbc0197ac	-0.007909697
12	0xbcd4cb48	-0.025975838
13	0x3dc7e024	0.09759548
14	0x3e2b2864	0.16714627
15	0x3e9ebfe3	0.31005773
16	0xbe0657e3	-0.13119464
17	0x3e1738fd	0.14767833
18	0x3eea62b8	0.4577844
19	0x3dbbf338	0.0917725
20	0x3bff4172	0.007789784
21	0x3da8037f	0.08203792
22	0x3e7d03e5	0.24708517
23	0x3d1aad44	0.037762895
24	0x3d76e96b	0.0602812
25	0x3d537ff1	0.051635686
26	0xbe4cf724	-0.20016152
27	0x3e1fdacb	0.15610807
28	0x3e88b4b5	0.2670037
29	0xbe62f529	-0.22163834
30	0xbe119b58	-0.14219415
31	0x3d8bc97e	0.06825541
32	0x3e2a9422	0.1665807
33	0x3e4de1da	0.20105687
34	0x3da214b0	0.07914102
35	0x3e3a17b5	0.18173106
36	0xbea193c1	-0.3155804
37	0xbdda8dce	-0.10671578
38	0x3e3e436d	0.18580408
39	0x3e8ec732	0.2788635
40	0xbe8fe9f3	-0.28108177
41	0xbe8c00be	-0.27344316
42	0xbd6f8431	-0.058475677
43	0xbf11a5f3	-0.56893843
44	0x3d94a573	0.072581194
45	0xbdc27832	-0.09495582
46	0x3d38b3b9	0.045093272
47	0x3e604a38	0.21903312
48	0x3d62be4a	0.055357255
49	0x3cf68edd	0.03009742
50	0x3ec58a3f	0.38582036
51	0x3e16735b	0.14692442
52	0xbe4ec67d	-0.20192905
53	0x3e375812	0.1790469
54	0xbd3b9162	-0.045792945
55	0xbe0d537e	-0.13801381
56	0xbf03168f	-0.51206297
57	0x3e2fcef1	0.17168786
58	0xbe5a4a04	-0.21317297
59	0x3b9f455f	0.0048605646
60	0xbe2a830d	-0.16651554
61	0xbe22b27f	-0.15888403
62	0x3e72dd9b	0.23717348
63	0xbd5ec306	-0.054385208

sequential_2/conv1d_4/BiasAdd/ReadVariableOp f4 [64]
0	0x3d2e3aa9	0.04253641
1	0x3edad41a	0.42739946
2	0xbda7a2c6	-0.081853434
3	0x3cdc7dec	0.026915513
4	0x3d3f65d1	0.04672796
5	0xbdd2df91	-0.10296548
6	0x3d0685c2	0.032842405
7	0x3ead5d0a	0.33860046
8	0xbe8a3a60	-0.26997662
9	0x3e0af8b2	0.13571432
10	0x3e84f538	0.25968337
11	0xbe997862	-0.29974657
12	0x3e53e781	0.2069378
13	0xbe367af4	-0.1782034
14	0x3de4255e	0.1113994
15	0xbe03e30c	-0.1287958
16	0xbd1c5731	-0.03816909
17	0xbd9d026e	-0.07666479
18	0xbe32f7c0	-0.17477322
19	0xbc8f5743	-0.017497664
20	0xbe3e3845	-0.18576153
21	0xbe30a6db	-0.1725115
22	0x3cdbedfa	0.026846875
23	0xbd86675c	-0.06562683
24	0xbdddcccb	-0.10830077
25	0xbe80d1b8	-0.25160003
26	0x3d6f54c5	0.058430452
27	0xbf162869	-0.5865541
28	0x3e756447	0.23964034
29	0x3e37a39f	0.1793351
30	0xbc62fee6	-0.013854718
31	0x3cd569e7	0.026051475
32	0x3e16fc21	0.14744617
33	0xbe2de3d4	-0.16981441
34	0xbd9656bf	-0.07340764
35	0xbdf84a0b	-0.121234976
36	0xbce5d15d	-0.028053934
37	0xbcd3d7dd	-0.025859768
38	0xbe8574f0	-0.2606578
39	0xbe979c9d	-0.29611674
40	0x3e8a559f	0.2701845
41	0x3e5b2918	0.21402395
42	0xbe25752f	-0.16157983
43	0xbe3858f0	-0.18002677
44	0xbbf49a1d	-0.007464661
45	0xbea2b256	-0.31776685
46	0xbd490216	-0.049074255
47	0x3e7b43bb	0.24537556
48	0xbe4a80ce	-0.19775698
49	0xbcbae9f7	-0.022816641
50	0xbdf3f418	-0.119117916
51	0x3c284ae4	0.010271762
52	0xbbe59c90	-0.007007189
53	0xbd647e58	-0.055784553
54	0xbd88300c	-0.06649789
55	0xbd43f266	-0.04783859
56	0x3eac5b1f	0.3366327
57	0xbdba4e94	-0.09097019
58	0xbe0c8a94	-0.13724738
59	0xbd94f529	-0.07273323
60	0x3e65add4	0.22429591
61	0x3e247e0f	0.16063713
62	0xbc2fa37d	-0.010720131
63	0x3cd5cd97	0.02609901

sequential_2/dense_4/MatMul f4 [100, 1472]
0	0x3ceca0fc	0.028885357
1	0x3e1220ec	0.14270371
2	0xbea69fd7	-0.32543823
3	0xbb3cd4dc	-0.0028813398
4	0x3e298661	0.16555168
5	0x3d9f6adc	0.07784054
6	0xbdc36d64	-0.09542349
7	0xbcdd18cc	-0.026989363
8	0x3d97e96c	0.074175686
9	0xbd44c6be	-0.048041098
10	0x3d421c37	0.04739019
11	0xbcc16cc4	-0.023611434
12	0x3dcfafea	0.10140975
13	0x3c88df7e	0.016708132
14	0xbcf78035	-0.030212501
15	0xbcb098d4	-0.02155725
16	0xbdedb68f	-0.11607086
17	0xbd70c661	-0.05878294
18	0xbc80eee1	-0.015738906
19	0x3da0c602	0.07850267
20	0xbd261b8b	-0.04055361
21	0xbbe1d61b	-0.0068919784
22	0xbd5d7fe0	-0.05407703
23	0x3c5af5a8	0.013364233
24	0xbe13d27c	-0.14435762
25	0xbcf278ec	-0.029598676
26	0xbcffc0a0	-0.03121978
27	0x3dd20174	0.102541834
28	0x3d803994	0.06260982
29	0x3dac090f	0.08400165
30	0x3d1e8925	0.03870501
31	0xbd1ab6bf	-0.037771937
32	0xbd977139	-0.073946424
33	0xbcd54376	-0.026033144
34	0x3df67038	0.12033123
35	0xbad4a2c4	-0.0016222824
36	0x3d7ee38b	0.06222872
37	0xbd4a5d03	-0.04940511
38	0x3cc4c273	0.024018502
39	0xbce1991a	-0.027538825
40	0x3d636385	0.05551483
41	0xbe6fa2a2	-0.23401883
42	0xbc6f586a	-0.014608482
43	0xbe3eb637	-0.18624197
44	0xbc8a3abf	-0.016873715
45	0x3d1adf77	0.03781077
46	0xbb355e83	-0.0027674742
47	0xbdc469a7	-0.09590464
48	0x3c2a48ab	0.010393302
49	0x3cc9190b	0.024548074
50	0xbc7a9726	-0.015294826
51	0x3d62e7f5	0.055396993
52	0xbd5b91d4	-0.05360587
53	0x3cc2de12	0.023787532
54	0x3d2d9dd4	0.042386845
55	0x3c9509bf	0.018193124
56	0xbe145acc	-0.14487761
57	0xbd891f94	-0.06695476
58	0xbd3b7d9b	-0.045774084
59	0xbe14b560	-0.14522314
60	0xbd658795	-0.056037504
61	0xbcdae37d	-0.026719803
62	0xbe6e09b3	-0.23245887
63	0xbe5ea59e	-0.21742865
64	0x3d06b15a	0.03288398
65	0x3db15479	0.0865869
66	0xbe845607	-0.25846884
67	0x3d8558d7	0.065110855
68	0x3e32a5d8	0.17446077
69	0xbbc5f408	-0.0060410537
70	0xbe14831b	-0.14503138
71	0x3db82262	0.08990933
72	0xbd9cd2ac	-0.0765737
73	0xbdafbb7f	-0.08580684
74	0xbd5004eb	-0.05078594
75	0xbd8abf65	-0.06774787
76	0xbdc8d9b2	-0.09807147
77	0x3bd69e2d	0.0065496177
78	0xbdd6102a	-0.10452302
79	0xbd5427e7	-0.051795866
80	0xbdbc1bcf	-0.091849916
81	0x3adc8ce6	0.0016826659
82	0xbddbe926	-0.10737829
83	0x3e348711	0.17629649
84	0xbd0b4821	-0.034004334
85	0xbda2de82	-0.07952596
86	0xbd7a72d3	-0.06114466
87	0x3dd866fd	0.105665185
88	0xbe3d092c	-0.1846053
89	0xbd998bda	-0.07497378
90	0xbe352193	-0.17688589
91	0x3d2646d1	0.04059488
92	0x3dcc696f	0.09981047
93	0x3c208430	0.009797141
94	0x3d96bfe6	0.073608205
95	0x3d3007da	0.042976238
96	0x3d9ab918	0.07554835
97	0xbd0ac781	-0.033881668
98	0x3e3d789a	0.18503037
99	0xbcb985cf	-0.022646813
100	0xbcfd8066	-0.030945014
101	0x3e036864	0.1283279
102	0xbdf6b5a1	-0.12046362
103	0x3c5d22a4	0.0134970285
104	0xbb88847f	-0.0041661854
105	0xbe0ccb7c	-0.13749498
106	0xbd984f5d	-0.07437012
107	0xbd9120f8	-0.070863664
108	0xbd19dbb6	-0.03756305
109	0x3d299220	0.04139912
110	0x3e0233f7	0.12715136
111	0xbdf2712e	-0.118379936
112	0xbdc69d6e	-0.09697996
113	0xbd3d2562	-0.04617823
114	0xbcba7038	-0.022758588
115	0x3e0fb9e9	0.14035763
116	0xbd8e37cc	-0.06944236
117	0xbd7ce9a6	-0.061746262
118	0xbc2537e3	-0.010084125
119	0x3d2ee425	0.042698044
120	0xbc223dab	-0.009902398
121	0x3c9e1849	0.01929869
122	0x3bdab69a	0.0066746
123	0x3c7f5b57	0.015585742
124	0xbd4bdb32	-0.049769588
125	0x3db36cb0	0.08760965
126	0xbe0ed925	-0.13950022
127	0x3d7547e7	0.059883025
128	0xbe0d2b68	-0.1378609
129	0x3b5297a3	0.003213384
130	0xbe8a0f97	-0.2696502
131	0x3d60a926	0.054848813
132	0x3d593a53	0.053034138
133	0x3cf02b63	0.029317563
134	0x3c84eba0	0.016225636
135	0xbd73b7d5	-0.059501488
136	0xbd907dfe	-0.07055281
137	0xbdb88f47	-0.09011703
138	0xbd1f2325	-0.038851876
139	0xbc90f346	-0.017694127
140	0x3c882e04	0.016623504
141	0x3c87fadc	0.016599111
142	0xbdc68a56	-0.09694354
143	0x3b9a1f58	0.0047034435
144	0xbd93df29	-0.07220299
145	0xbda5c929	-0.08095009
146	0xbe2be790	-0.16787553
147	0xbdbd125d	-0.09232018
148	0xbd7eedee	-0.062238626
149	0x3d9f4e01	0.0777855
150	0xbe1d5539	-0.15364541
151	0xbde75e2e	-0.1129726
152	0xbe25bd97	-0.16185604
153	0x3cc8bfab	0.024505457
154	0xbe9fba89	-0.31197003
155	0xbc9d1e1b	-0.019179394
156	0x3b3ade8b	0.0028513994
157	0x3d81100d	0.063018896
158	0xbda6b047	-0.08139091
159	0xbd72a60a	-0.05924038
160	0xbe6b58c0	-0.22983074
161	0xbe5db139	-0.21649636
162	0x3e26a6d5	0.16274579
163	0x3d941e1d	0.07232306
164	0x3d9a6a43	0.07539799
165	0xbe54abeb	-0.20768707
166	0xbd95fc84	-0.07323554
167	0x3db57259	0.08859701
168	0xbd86ed44	-0.065882236
169	0xbc6ff80a	-0.014646539
170	0xbdab7739	-0.08372349
171	0xbd0f5f38	-0.035002917
172	0xbdac3985	-0.084094085
173	0x3d62aba0	0.055339456
174	0xbd827563	-0.06370046
175	0xbe3c67c5	-0.1839896
176	0xbc91ba48	-0.017789021
177	0xbc8cf46d	-0.017206395
178	0xbe85884a	-0.26080543
179	0xb9fde4bf	-0.0004842635
180	0x3da94183	0.082644485
181	0xbcfa1e1f	-0.030531941
182	0xbde0bcab	-0.109734856
183	0x3c2b054e	0.010438276
184	0x3d3472f2	0.044054933
185	0xbd9de46a	-0.07709582
186	0xbce7c361	-0.028291406
187	0x3da05691	0.07829011
188	0xbdbccc57	-0.09218662
189	0xbdb3b4fa	-0.08774753
190	0xbdb6af88	-0.08920199
191	0xbe6b36d9	-0.22970141
192	0xbd358ae5	-0.044321913
193	0xbe47a09f	-0.19494866
194	0xbe943e85	-0.2895395
195	0x3db89738	0.09013218
196	0xbc875a5f	-0.016522584
197	0x3d8d0d59	0.068873115
198	0xbdd7cee8	-0.10537511
199	0xbcf01065	-0.029304693
200	0xbdda7440	-0.10666704
201	0xbda45534	-0.08024064
202	0xbcbf026b	-0.023316583
203	0xbd0485b0	-0.032354057
204	0xbc7aed15	-0.015315314
205	0x3d694ac2	0.05695606
206	0x3e0a3598	0.13497007
207	0xbdb5acc5	-0.08870844
208	0xbd4b51be	-0.049638502
209	0xbe4dd79a	-0.20101777
210	0xbd41bba2	-0.04729808
211	0x3b36d5c7	0.0027898417
212	0xbdc75e79	-0.09734816
213	0xbc0d7b5e	-0.00863537
214	0xbd6990f0	-0.05702299
215	0xbe2c25d1	-0.16811301
216	0x3ca1df2d	0.019759739
217	0x3e06bcb5	0.13157924
218	0xbe92286f	-0.28546473
219	0x3d176762	0.036963828
220	0xbcd10bf3	-0.025518393
221	0x3d0a7260	0.033800483
222	0x39962b5d	0.00028642538
223	0xbd3fac82	-0.046795376
224	0xbe3d34b1	-0.18477131
225	0x3e1a5446	0.1507121
226	0x3dd06f33	0.101774596
227	0xbddc11dc	-0.10745594
228	0x3d514790	0.051093638
229	0xbcaf8011	-0.021423372
230	0xbe1e1974	-0.15439397
231	0xbe9d2bf2	-0.3069759
232	0x3d5cc0c4	0.053894773
233	0x3be41db4	0.0069615487
234	0xbdae250a	-0.085031584
235	0x3d9a70d7	0.07541054
236	0xbd77082f	-0.06031054
237	0x3b555d6d	0.0032556907
238	0x3d7486f4	0.059699014
239	0xbe41aa43	-0.18912606
240	0xbe124a82	-0.14286235
241	0xbe313546	-0.17305478
242	0xbe646194	-0.22302848
243	0x3caeeb99	0.021352576
244	0x3e186230	0.14881206
245	0xbdb3757e	-0.08762644
246	0x3d6988c1	0.057015184
247	0xbce1f4e6	-0.027582597
248	0xbc132aef	-0.008982404
249	0xbdfc2a2a	-0.1231273
250	0xbd3c0214	-0.04590042
251	0xbdfe9259	-0.12430257
252	0xbddbebab	-0.107383095
253	0x3cc71ec7	0.024306668
254	0x3d336801	0.043800358
255	0xbe9650c3	-0.2935849

sequential_2/dense_5/MatMul f4 [13, 100]
0	0xbe9a112f	-0.30091235
1	0xbe88c6f9	-0.26714304
2	0xbf0205e5	-0.50790244
3	0xbd127a72	-0.035761304
4	0x3eaade4c	0.33372724
5	0x3e720eb8	0.23638427
6	0xbe3ad2bb	-0.1824445
7	0xbe92e013	-0.2868658
8	0xbcdc9d85	-0.02693058
9	0xbf11185f	-0.5667781
10	0x3ea3f719	0.32024458
11	0x3d8b08c3	0.067887805
12	0x3d05cc31	0.032665435
13	0xbe807409	-0.25088528
14	0xbd99fa1d	-0.075184084
15	0xbdd43206	-0.10361104
16	0x3d0a9b6e	0.033839636
17	0x3de1d185	0.11026291
18	0xbebfbfef	-0.3745112
19	0xbed1f215	-0.41005006
20	0x3c15262c	0.009103339
21	0x3ebced75	0.36899915
22	0xbca31bce	-0.01991072
23	0xbd469104	-0.04847814
24	0x3e2f6cb0	0.17131305
25	0xbeaca3be	-0.33718675
26	0xbc080769	-0.008302548
27	0xbe0ca7f8	-0.1373595
28	0x3b8bd1c1	0.004266948
29	0x3e29491f	0.165318
30	0x3de2c47b	0.11072632
31	0xbe4a2e3c	-0.197442
32	0x3e1b77da	0.15182438
33	0x3b480371	0.003051963
34	0x3e5e1c16	0.21690401
35	0x3eb24d23	0.34824476
36	0xbe964bf2	-0.29354817
37	0xbbe410fa	-0.0069600316
38	0x3e3411a2	0.17584851
39	0x3eae8bc8	0.3409102
40	0x3d54484d	0.051826764
41	0x3db1255d	0.086497046
42	0xbde6fc40	-0.112785816
43	0xbecd5b89	-0.40108898
44	0x3d188e1f	0.037244912
45	0x3eb0310e	0.34412426
46	0xbd2e3053	-0.042526554
47	0xbd562e7f	-0.052290436
48	0x3e556915	0.20840867
49	0x3d3faf4e	0.046798043
50	0x3e3c6afb	0.18400185
51	0xbf16cad4	-0.5890324
52	0x3d00eaac	0.0314738
53	0xbe61dd58	-0.22057092
54	0x3eab981d	0.3351449
55	0x3ea3a122	0.31958872
56	0x3cdccb11	0.026952298
57	0xbc91974c	-0.01777234
58	0x3daa0506	0.083017394
59	0xbe7c29bd	-0.24625297
60	0x3cc8376b	0.024440488
61	0x3eb658b1	0.3561454
62	0x3db8f50a	0.090311125
63	0xbd09656f	-0.033544
64	0xbeb6aba2	-0.3567782
65	0x3e99ffde	0.30078024
66	0xbd230ec0	-0.03980899
67	0x3e07733c	0.13227552
68	0x3e1deff3	0.15423565
69	0xbebd2fb9	-0.36950472
70	0xbd205841	-0.039146665
71	0xbcfe0f24	-0.031013079
72	0xbecca034	-0.39965975
73	0xbe8a0549	-0.26957157
74	0x3e5c61d9	0.21521701
75	0xbdfd5a69	-0.1237076
76	0xbe5ca13c	-0.21545881
77	0xbd98725c	-0.07443687
78	0x3dd0c030	0.10192907
79	0x3db94878	0.090470254
80	0x3e2d61cb	0.16931836
81	0xbf42506b	-0.7590396
82	0x3e4ff1d5	0.20307095
83	0xbcf60585	-0.030031929
84	0xbdacf541	-0.08445216
85	0xbd9e2615	-0.07722107
86	0xbf0922c7	-0.5356869
87	0x3e54ef97	0.20794521
88	0xbe2455b7	-0.16048323
89	0xbe867ae3	-0.2626563
90	0xbe220745	-0.15823086
91	0xbdadbaef	-0.084829204
92	0x3d9e8b91	0.07741464
93	0x3de2989c	0.11064264
94	0xbd0c7a58	-0.034296364
95	0xbedcb19a	-0.4310425
96	0x3e1337cd	0.14376755
97	0xbd7892a3	-0.06068672
98	0x3d9eab5d	0.07747529
99	0x3e42fd47	0.1904193
100	0x3df6f232	0.12057914
101	0xbcd5c389	-0.026094215
102	0xbdcee3e3	-0.1010206
103	0x3e4b3ed1	0.19848181
104	0x3b4e5ead	0.0031489537
105	0xbd510bc5	-0.051036615
106	0xbcb80120	-0.022461474
107	0x3e4dfda1	0.20116283
108	0xbe20dfc2	-0.15710357
109	0x3dd8512f	0.105623595
110	0x3e072db6	0.13201031
111	0xbe115dde	-0.14195964
112	0xbe08d981	-0.13364221
113	0x3e559680	0.20858192
114	0x3d6b6225	0.057466645
115	0x3dc54f52	0.0963427
116	0xbe0d908a	-0.13824669
117	0xbd1277ac	-0.03575866
118	0x3dc26e4c	0.09493694
119	0xbe5b6f46	-0.21429166
120	0x3e1fc84e	0.15603754
121	0x3db19337	0.08670657
122	0x3e04b55e	0.12959811
123	0x3e68d297	0.22736584
124	0xbca3ef0b	-0.020011446
125	0xbe354c77	-0.1770495
126	0xbe8f2cb1	-0.27963784
127	0x3df959d8	0.121753395
128	0x3e20de40	0.15709782
129	0xbd3ec728	-0.04657665
130	0xbe0ec145	-0.13940914
131	0x3e1a93a4	0.15095383
132	0x3e2018c2	0.15634444
133	0xbe02a65f	-0.12758778
134	0xba2b929d	-0.00065449794
135	0x3e297812	0.1654971
136	0xbd3d2148	-0.046174318
137	0xbe1378c0	-0.14401531
138	0xbbc257bf	-0.0059308703
139	0xbc95389e	-0.018215474
140	0xbc35e4a3	-0.0111018745
141	0xbd5fb700	-0.05461788
142	0xbe101d7e	-0.1407375
143	0xbbb407bc	-0.005494086
144	0x3dd882f4	0.10571852
145	0xbe20e516	-0.1571239
146	0x3db7ff86	0.08984284
147	0x3d4ba75e	0.04972016
148	0xbc847975	-0.016171196
149	0x3d413b4a	0.047175683
150	0x3d80623a	0.06268735
151	0x3cd48b2e	0.025945272
152	0x3ddd11c5	0.10794405
153	0x3d7137f7	0.058891263
154	0x3b1c5869	0.0023856407
155	0xbe8d665d	-0.2761716
156	0xbeb64360	-0.35598278
157	0x3e0a6811	0.1351626
158	0xbdc4049c	-0.09571192
159	0x3dc8dd88	0.09807879
160	0xbb86de70	-0.004115872
161	0xbcf55f7e	-0.02995276
162	0xbd683a2d	-0.056696106
163	0x3d2a38da	0.041558124
164	0xbdfa11ed	-0.1221045
165	0x3dca29ba	0.0987124
166	0xbdc5e50d	-0.096628286
167	0x3d3851fc	0.04500006
168	0x3d05f783	0.03270675
169	0x3e306205	0.17224891
170	0x3d9b2ac1	0.07576514
171	0xbdc414f8	-0.09574312
172	0xbd8a5293	-0.06754031
173	0xbe0284fd	-0.12746044
174	0x3c6bda4d	0.014395309
175	0xbd991342	-0.07474376
176	0xbd433237	-0.04765531
177	0xbbb38120	-0.0054780394
178	0xbd863ae6	-0.06554203
179	0x3d041838	0.03224966
180	0xbe0c4304	-0.1369744
181	0xbe1500b7	-0.14551054
182	0x3d230d2b	0.03980748
183	0xbeb6bf2a	-0.35692722
184	0x3e2b9c6e	0.16758892
185	0x3da1d56e	0.079020366
186	0xbcbed8c8	-0.023296729
187	0x3d79568a	0.060873546
188	0x3d233126	0.039841793
189	0x3e1db7c3	0.15402131
190	0xbdc65981	-0.0968504
191	0xbe231176	-0.1592463
192	0xbe1bf29a	-0.15229264
193	0xbd7a01ab	-0.061036747
194	0x3d5c7978	0.05382678
195	0xbdfffeca	-0.12499769
196	0xbb8fb3e0	-0.0043854564
197	0xbd99f256	-0.07516925
198	0x3deccf59	0.11562986
199	0x3dba562d	0.09098468
200	0xbe79f33f	-0.24409197
201	0x3d7cfcf8	0.061764687
202	0xbed45053	-0.41467533
203	0xbe0be45e	-0.13661334
204	0xbe1c9730	-0.15292048
205	0x3e9a2d39	0.30112627
206	0xbda1546f	-0.078774326
207	0xbe56c974	-0.20975286
208	0xbd40d3a7	-0.047076847
209	0xbe4f3a50	-0.20237088
210	0xbe05d15e	-0.13068148
211	0x3e22034f	0.15821575
212	0x3e0d43b0	0.13795352
213	0x3e439ab3	0.19101982
214	0xbecb6851	-0.39728025
215	0x3e3c5c0c	0.18394488
216	0xbec6eee5	-0.38854137
217	0x3e3ba73a	0.1832551
218	0xbe598447	-0.21241866
219	0xbef8c502	-0.48587805
220	0x3bd5550e	0.0065103834
221	0xbbc21dcd	-0.0059239627
222	0x3d7e7e26	0.062132023
223	0xbe43ba4c	-0.19114035
224	0xbb595a6c	-0.0033165468
225	0x3d8c7e5b	0.06860038
226	0xbc73bbc5	-0.014876311
227	0xbc98ba01	-0.018643381
228	0xbe7ed1ca	-0.24884716
229	0xbaa2994e	-0.0012405307
230	0x3dfb75e4	0.12278345
231	0x3e3470b6	0.17621121
232	0xbe8251c2	-0.25453
233	0x3e122cc1	0.14274885
234	0xbc2cb68c	-0.010541569
235	0x3eb4034e	0.3515877
236	0x3e3b6df3	0.18303661
237	0xbe99d705	-0.3004686
238	0xbe83e8d3	-0.25763568
239	0xbe19033d	-0.14942642
240	0x3e67f160	0.22650671
241	0x3cee2a8e	0.029073026
242	0xbdc8322b	-0.09775194
243	0xbe69ffde	-0.22851512
244	0x3daf18cc	0.085496515
245	0xbe1059d3	-0.14096765
246	0x3e3a55f2	0.18196848
247	0xbeb53d5c	-0.35398376
248	0x3d109b6f	0.035304483
249	0xbd4e868b	-0.05042128
250	0x3e83e5a8	0.2576115
251	0xbd8e8787	-0.069594435
252	0xbda6eca0	-0.081506014
253	0xbe4ac4a3	-0.19801573
254	0xbbdbb489	-0.006704871
255	0xbe73c7cf	-0.2380669

sequential_2/conv1d_4/Conv1D f4 [64, 1, 3, 9]
0	0x3f76546a	0.96222556
1	0xbd4fb560	-0.050710082
2	0x3e8c0ea2	0.27354914
3	0x3bd57f3d	0.006515412
4	0x3dce8139	0.10083241
5	0xbd2f6ec6	-0.04283025
6	0x3e5935c4	0.21211916
7	0xbdceb9d4	-0.10094038
8	0xbc93561a	-0.017985392
9	0x3f758af3	0.95915145
10	0x3c59ac88	0.013285764
11	0x3eaad9ae	0.333692
12	0x3ddfbf2c	0.10925135
13	0xbd31bbed	-0.04339211
14	0xbdff5044	-0.12466481
15	0x3dce767d	0.100811936
16	0xbd1d38da	-0.038384296
17	0x3cbfa27d	0.02339291
18	0x3f728c8c	0.9474571
19	0xbe131720	-0.1436429
20	0x3d7e77fa	0.062126137
21	0x3d089c2d	0.033352066
22	0xbe5c02d3	-0.21485452
23	0xbd0adede	-0.03390395
24	0x3ebfc43a	0.37454396
25	0xbe6fe3d2	-0.2342675
26	0x39d3b64c	0.00040380878
27	0x3f6edc9e	0.93305385
28	0xbd45a2cd	-0.048250962
29	0x3e1cff0c	0.15331668
30	0xbd172257	-0.036897983
31	0x3d57124b	0.05250768
32	0x3d3d8a4d	0.046274472
33	0xbd9dc60b	-0.07703789
34	0x3eee9cec	0.46604097
35	0xbd515f02	-0.051115997
36	0x3f79d3e6	0.97588956
37	0xbb9ee023	-0.0048484965
38	0x3d4d5c4c	0.05013685
39	0xbd8742d2	-0.06604542
40	0x3d8e6e92	0.06954683
41	0x3da815c5	0.08207277
42	0x3c806ca9	0.015676813
43	0x3df88a03	0.12135699
44	0x3e039543	0.12849908
45	0x3f3a5bae	0.7279614
46	0xbe33a304	-0.17542654
47	0xbda0e0f0	-0.078554034
48	0xbbef5c52	-0.0073047066
49	0x3db33dc7	0.087520175
50	0x3de1bb97	0.11022108
51	0x3bf796ed	0.0075558336
52	0x3c718ef6	0.014743557
53	0xbcade252	-0.021226082
54	0xbc873a65	-0.016507337
55	0xbe8bcd51	-0.2730508
56	0x3e2988cb	0.16556089
57	0xbda123e3	-0.07868173
58	0x3e16e39e	0.14735267
59	0xbd34498d	-0.044015456
60	0xbc465601	-0.012105466
61	0xbe43443a	-0.19068995
62	0x3e27357b	0.16328995
63	0xbe0d0ccb	-0.13774411
64	0xbf0aedc5	-0.5426906
65	0x3cfa6588	0.030565992
66	0xbd3c2ddd	-0.045942176
67	0xbd881913	-0.066454075
68	0xbd6bb48d	-0.057545234
69	0x3e1648a4	0.14676148
70	0xbda33ee2	-0.07970978
71	0xbd287cb5	-0.041134555
72	0x3d2f19b4	0.04274912
73	0xbec6adad	-0.3880438
74	0xbcf678ae	-0.030086841
75	0x3cfb4ecf	0.030677227
76	0xbd5672f3	-0.052355718
77	0xbe2978f5	-0.16550048
78	0x3e75e4fe	0.24013135
79	0xbd83046a	-0.06397326
80	0x3e0e8afe	0.13920209
81	0xbee11c6e	-0.43967003
82	0xbe61d893	-0.22055273
83	0xbd18f7da	-0.037345745
84	0x3d09a0aa	0.033600487
85	0x3e244ffe	0.1604614
86	0x3da3a88e	0.07991134
87	0x3ede274e	0.43389362
88	0xbebef5ba	-0.3729685
89	0xbc6398d1	-0.013891415
90	0xbf0bc0c6	-0.54591024
91	0xbe74b019	-0.23895301
92	0xbb585e66	-0.003301525
93	0xbc53d79a	-0.012929821
94	0xbca942eb	-0.020661792
95	0xbe25745d	-0.1615767
96	0xbcbe3e3c	-0.023223035
97	0x3cdfd979	0.027325379
98	0xbd7d9587	-0.06191018
99	0xbeb58850	-0.3545556
100	0xbe823caa	-0.25436908
101	0xbdd24be5	-0.10268382
102	0x3cd8d59f	0.02646905
103	0x3d26d55b	0.040730815
104	0x3d4c7d22	0.049924023
105	0xbd2cfeee	-0.042235307
106	0xbd759899	-0.05995998
107	0x3e1c2efc	0.15252298
108	0x3e4cf12a	0.20013872
109	0x3e986e17	0.29771492
110	0x3e89e755	0.26934305
111	0xbd56bfa9	-0.052428875
112	0x3e13fa88	0.14451039
113	0x3ac5b307	0.0015083262
114	0x3e697e70	0.22802138
115	0xbea75aca	-0.32686454
116	0xbd3f1ce9	-0.04665843
117	0x3eb3b77c	0.35100925
118	0x3e4c0343	0.19923119
119	0x3d7b034b	0.061282437
120	0x3cbe221d	0.023209626
121	0x3dd0fffb	0.102050744
122	0xbd8eb107	-0.06967359
123	0x3e0879ac	0.13327664
124	0x3ddb0877	0.10694974
125	0xbcc7383b	-0.024318805
126	0x3dba30b2	0.09091319
127	0x3e925036	0.2857682
128	0x3e925465	0.28580013
129	0xbda8d674	-0.08244029
130	0xbe984539	-0.29740313
131	0xbdfb437e	-0.122687325
132	0x3eb978d8	0.3622501
133	0xbdcdbf95	-0.10046307
134	0xbda4c36e	-0.08045088
135	0x3d07990b	0.033104938
136	0xbc86a557	-0.016436262
137	0x3d0b613b	0.034028273
138	0x3d13c489	0.036076102
139	0x3df6c073	0.120484255
140	0x3d98480f	0.07435619
141	0xbdcc3d95	-0.09972683
142	0x3e731bb5	0.23741038
143	0x3d544e48	0.051832467
144	0xbdc801e2	-0.09765984
145	0xbda95471	-0.08268059
146	0xbc98cd43	-0.018652564
147	0xbd98bdb8	-0.07458061
148	0x3d4bb778	0.049735516
149	0xbd39f0c1	-0.045395616
150	0xbe04fdeb	-0.12987487
151	0x3ddc5d64	0.1076
152	0xbd2753c6	-0.040851377
153	0xbc889eb5	-0.01667724
154	0xb9cbe1ee	-0.00038887508
155	0x3e106fd5	0.1410516
156	0x397395c9	0.00023230085
157	0xbe96114e	-0.29310077
158	0xbe0c8591	-0.13722827
159	0xbdaef81c	-0.08543417
160	0x3d8fdc7b	0.07024475
161	0x3cfdd99c	0.030987553
162	0xbe616afb	-0.22013466
163	0xbde0408c	-0.10949811
164	0x3e6b37b6	0.22970471
165	0xbd6530c7	-0.05595472
166	0xbbcd5678	-0.0062664114
167	0x3e3e38dd	0.18576379
168	0xbd15e46d	-0.036594797
169	0xbe627a14	-0.22116882
170	0x3c90988c	0.017650865
171	0xbd07733a	-0.033068873
172	0x3e1c20a4	0.15246826
173	0x3e3da2f6	0.18519196
174	0xbdbc7d11	-0.09203542
175	0xbd7e73e7	-0.06212225
176	0x3cc157ce	0.023601439
177	0x3eb7ec6a	0.35922557
178	0x3e1d4df3	0.15361767
179	0xbd8f46ee	-0.06995951
180	0xbd0c4296	-0.03424319
181	0x3dd6c53f	0.104868405
182	0x3e80ca79	0.25154474
183	0xbd5469cb	-0.051858705
184	0xbdd06b05	-0.10176662
185	0xbc941053	-0.01807419
186	0xbc3f70da	-0.011684621
187	0x3e6b997a	0.23007765
188	0x3d836059	0.06414861
189	0x3ec47479	0.38370112
190	0xbe69fe08	-0.22850811
191	0xbf14f571	-0.58187014
192	0xbb5e5993	-0.0033927902
193	0xbca356f5	-0.019938925
194	0xbe172735	-0.1476105
195	0x3db64fad	0.08901916
196	0xbd57e554	-0.05270894
197	0x3d1dd93c	0.03853725
198	0x3ef97217	0.48719856
199	0xbdba8894	-0.091080815
200	0xbefa3781	-0.4887047
201	0xbdba9ce7	-0.09111958
202	0xbd44c733	-0.048041534
203	0xbe33ed2c	-0.17570943
204	0x3d24a22c	0.04019372
205	0xbdf671d9	-0.120334335
206	0xbd281660	-0.041036963
207	0x3eaaf248	0.3338797
208	0xbdb7558d	-0.089518644
209	0xbf06910e	-0.52565086
210	0xbe17946d	-0.14802714
211	0xbd7bbb90	-0.06145817
212	0x3ce89d03	0.028395182
213	0x3e08ec05	0.13371284
214	0xbdf5a412	-0.119941846
215	0xbc26ef66	-0.010188913
216	0xbeaa5928	-0.33271146
217	0xbd95fad0	-0.07323229
218	0x3e9e6e31	0.30943444
219	0xbcc2ac32	-0.02376375
220	0xbe407bf3	-0.18797283
221	0x3da58d3e	0.080835804
222	0xbe12258a	-0.14272133
223	0x3e46a924	0.1940046
224	0x3e3df6ed	0.18551226
225	0xbc80d725	-0.015727589
226	0xbdc43468	-0.09580308
227	0x3e1830c1	0.14862348
228	0x3deefa61	0.1166885
229	0x3d8ca474	0.068673044
230	0xbe459e72	-0.19298723
231	0x3e87d95c	0.2653302
232	0xbcd190a9	-0.025581675
233	0xbdb6914b	-0.08914431
234	0xbe8a4f02	-0.27013403
235	0x3cef4e4f	0.029212145
236	0x3e835a4f	0.25654837
237	0xbd27df8c	-0.040984675
238	0x3e48e11d	0.19617124
239	0x3da6df15	0.08148018
240	0x3d75cfdd	0.060012687
241	0xbdcc86ad	-0.09986625
242	0x3d16379a	0.03667412
243	0xbe364267	-0.17798768
244	0x3efe85dc	0.49711502
245	0xbe99fc5c	-0.30075347
246	0x3d4c8623	0.04993261
247	0x3dfba488	0.12287241
248	0x3de1626f	0.11005103
249	0xbe436e3e	-0.19085023
250	0x3ebf26bd	0.37334242
251	0xbcd7151a	-0.02625518
252	0xbe321e90	-0.17394471
253	0x3ed931e4	0.42420876
254	0xbe168a5d	-0.14701219
255	0x3d9c4e16	0.07632081

sequential_2/conv1d_5/Conv1D f4 [64, 1, 3, 64]
0	0xbde5707d	-0.11203096
1	0x3e069fe7	0.13146935
2	0xbd3e17c5	-0.046409387
3	0xbdb571e4	-0.088596135
4	0x3cceabe6	0.025228452
5	0x3b389e45	0.0028170508
6	0xbd81947f	-0.063271515
7	0x3dd6c32e	0.10486446
8	0x3d261698	0.04054889
9	0xbd0bab83	-0.034099113
10	0x3e0decfa	0.1385993
11	0xbe6bfa3d	-0.23044677
12	0xbcc76166	-0.024338435
13	0x3d4ad965	0.04952373
14	0x3d9f266b	0.077709995
15	0x3d98d960	0.07463336
16	0xbe7267d9	-0.23672427
17	0xbd89c29d	-0.06726573
18	0xbe7b73ae	-0.24555847
19	0x3bb802ab	0.0056155524
20	0xbd19b641	-0.037527326
21	0x3e08220f	0.13294242
22	0xbdeb6e21	-0.11495615
23	0x3bce6639	0.006298807
24	0xbe26a8bc	-0.16275305
25	0x3bd71588	0.006563846
26	0x3d97afdd	0.0740659
27	0xbd870cd5	-0.065942444
28	0xbe282fb9	-0.16424455
29	0xbdf4b12e	-0.11947857
30	0x3d80bcf6	0.062860414
31	0xbdcaa601	-0.09894944
32	0x3dce5884	0.10075477
33	0xbdaaa6a4	-0.083325654
34	0xbe956fba	-0.29186803
35	0x3d843fc2	0.06457473
36	0x3dee9621	0.116497286
37	0xbe30e9eb	-0.17276733
38	0xbdcfd84f	-0.101486795
39	0x3d987025	0.07443265
40	0x3d6154e6	0.055012606
41	0xbe0cfa83	-0.13767438
42	0x3d9d26a2	0.07673384
43	0x3e01edd7	0.12688385
44	0xbe97b6fd	-0.29631796
45	0xbd71d040	-0.059036493
46	0xbc7392fa	-0.014866585
47	0x3cb4c661	0.02206725
48	0x3e31a599	0.17348327
49	0xbdc877a3	-0.09788444
50	0xbeb2f51c	-0.3495263
51	0xbe29f861	-0.16598655
52	0xbe0705fa	-0.13185874
53	0xbd93fc79	-0.0722589
54	0xbc63ca4e	-0.013903214
55	0x3d1ee7b1	0.038795177
56	0x3d8312b3	0.06400051
57	0x3dceb941	0.10093928
58	0xbd94df91	-0.072692044
59	0xbe3f1730	-0.18661189
60	0x3cc4a10a	0.02400257
61	0x3d84d7ee	0.06486498
62	0xbdba15de	-0.09086202
63	0x3d83ccad	0.06435523
64	0xbd85b984	-0.06529525
65	0xbd35596f	-0.044274744
66	0xbe801a76	-0.25020188
67	0x3b7f93b5	0.0038997952
68	0xbca19ec8	-0.019729033
69	0x3dd9f855	0.10643069
70	0xbd61214f	-0.054963406
71	0x3dfd6db5	0.123744406
72	0x3d9394eb	0.07206138
73	0x3dc1e457	0.094673805
74	0xbd676572	-0.05649323
75	0xbe683342	-0.22675803
76	0xbddee572	-0.10883607
77	0xbe3b78f7	-0.18307863
78	0x3d76fe61	0.06030119
79	0x3d2a4ce9	0.041577253
80	0xbec1972a	-0.37810642
81	0xbc9362e5	-0.017991493
82	0xbdfb2769	-0.12263376
83	0x3d64489d	0.055733312
84	0xbda997c4	-0.082809
85	0x3e1da356	0.15394339
86	0xbdf3ddfb	-0.11907574
87	0xbdccce5c	-0.100002974
88	0x3a468893	0.0007573452
89	0x3a81c30b	0.0009900046
90	0x3d8e496b	0.06947597
91	0xbe01a807	-0.12661754
92	0xbe0b8ba8	-0.13627493
93	0xbe4de853	-0.20108156
94	0x3dff4f30	0.12466276
95	0xbddb69bd	-0.10713527
96	0x3d485512	0.048909254
97	0x3d4d74b8	0.05016014
98	0xbd833dfe	-0.064083084
99	0x3ce0de96	0.027449887
100	0xbd58b236	-0.05290433
101	0xbdba4195	-0.0909454
102	0x3c46dbb8	0.012137346
103	0x3da267bb	0.07929941
104	0x3d316c19	0.04331598
105	0xbe01a47e	-0.12660405
106	0x3dfcc5bf	0.123424046
107	0x3dc95b57	0.09831875
108	0xbe6ff2f9	-0.2343253
109	0x3d8255d7	0.06364029
110	0xbead904d	-0.33899155
111	0x3b2b53f0	0.002614256
112	0x3d15d3b9	0.036578868
113	0xbe2b3edc	-0.16723198
114	0xbe8f7753	-0.28020725
115	0xbe4d4ec0	-0.20049572
116	0xbdea9532	-0.11454238
117	0x3cefeda8	0.029288128
118	0x3e1226bd	0.1427259
119	0x3b4886fb	0.0030598033
120	0x3c5a92ce	0.013340665
121	0x3dafb05a	0.08578558
122	0x3d9c1ea6	0.07623033
123	0xbdb36ce5	-0.08761004
124	0x3c7b0ab7	0.015322379
125	0xbdc3248e	-0.09528457
126	0xbc999ac9	-0.018750565
127	0x3d98a994	0.074542195
128	0xbde3a0fa	-0.11114688
129	0xbad7d146	-0.0016465567
130	0xbe1a4438	-0.15065086
131	0xbc85b70e	-0.016322639
132	0x3e21f240	0.15815067
133	0x3e2237f8	0.15841663
134	0xb911e6b0	-0.00013914215
135	0x3e666bd7	0.22502075
136	0xbd010bb7	-0.031505313
137	0xbdc0cc29	-0.094139405
138	0x3e82c278	0.25538993
139	0xbcb3855f	-0.021914182
140	0x3dc1c937	0.09462207
141	0xbe53fc5f	-0.2070174
142	0xbc197be2	-0.009367915
143	0x3da815c5	0.08207277
144	0xbef5936d	-0.4796404
145	0x3d130134	0.03588982
146	0xbeb90821	-0.36139014
147	0xbda2ab75	-0.07942859
148	0xbdc971ae	-0.09836136
149	0x3d26b0bd	0.040695895
150	0xbe3572d0	-0.17719579
151	0xbdbe35aa	-0.09287579
152	0x3d6bf55e	0.057607047
153	0xbe188966	-0.14896163
154	0xbcd69111	-0.02619222
155	0xbda2736c	-0.07932171
156	0xbe963633	-0.29338226
157	0xbe7ee0fd	-0.24890514
158	0x3d4da8f8	0.05020997
159	0xbe519239	-0.20465936
160	0x3cbfa7c7	0.023395432
161	0xbd2fa6bc	-0.04288362
162	0xbe14c2ef	-0.14527486
163	0xbd106bce	-0.03525906
164	0x3e4f5988	0.20248997
165	0x3d8c3e07	0.06847768
166	0xbbb85f1e	-0.005626573
167	0xbc8a63c4	-0.016893275
168	0xbd8e71b9	-0.069552846
169	0x3d75ba3e	0.059992068
170	0x3b89a9f3	0.0042011677
171	0x3e17cd47	0.14824401
172	0xbd703b53	-0.058650326
173	0x3d8a3930	0.06749189
174	0xbe9be368	-0.30446935
175	0x3d1171bf	0.035508867
176	0x3c0e343e	0.008679448
177	0xbd9ec93e	-0.07753228
178	0xbe6b42aa	-0.22974649
179	0xbd48383d	-0.048881758
180	0xbde48119	-0.11157436
181	0x3d7aa7c2	0.061195143
182	0xbd9e856f	-0.07740294
183	0xbe8c13f7	-0.27358982
184	0xbda19a7a	-0.07890792
185	0x3dbfd61a	0.093670085
186	0xbd838d70	-0.064234614
187	0x3cff4652	0.031161461
188	0x3dd77c01	0.10521699
189	0xbe36a8c3	-0.17837815
190	0xbdf45660	-0.11930537
191	0xbe17154f	-0.14754222
192	0x3e0f7614	0.14009887
193	0x3ddd86b5	0.10816709
194	0x3cb57d3e	0.022154447
195	0xba465f62	-0.0007567314
196	0xbe760499	-0.24025191
197	0x3c809011	0.015693696
198	0x3d1f0f85	0.03883316
199	0xbee1af1f	-0.4407892
200	0x3d2cf061	0.04222143
201	0xbd363e1e	-0.044492833
202	0xbe35e81d	-0.17764325
203	0xbdd619e4	-0.10454157
204	0x3e13654e	0.14394113
205	0xbd9c5d29	-0.076349564
206	0x3deb33d1	0.114844926
207	0xbdb0d10b	-0.08633622
208	0xbe794872	-0.24344042
209	0x3dce8f23	0.10085895
210	0xbe0b330e	-0.13593695
211	0xbe5c5243	-0.21515755
212	0x3df7db74	0.12102404
213	0xbdc2edbb	-0.09518
214	0xbe58a213	-0.21155576
215	0xbe97c694	-0.2964369
216	0xbd8482e1	-0.06470276
217	0xbd5920b6	-0.05300971
218	0x3e80c927	0.25153467
219	0x3de52d18	0.111902416
220	0x3de5eb05	0.11226467
221	0x3e0bf2d3	0.13666849
222	0xbed3fbc9	-0.41403034
223	0x3d1d9004	0.038467422
224	0x3db70f9b	0.089385234
225	0xbcbe8073	-0.023254609
226	0x3e4e435e	0.20142886
227	0x3d9331b1	0.07187212
228	0x3d1474a4	0.03624405
229	0xbd042b08	-0.0322676
230	0x3e46f9d1	0.19431235
231	0xbd91549d	-0.07096217
232	0x3d9f39eb	0.07774719
233	0xbee59258	-0.44838214
234	0x3e02dd4a	0.12779728
235	0xbde1589a	-0.110032275
236	0xbdde081b	-0.1084139
237	0xbeb12647	-0.34599516
238	0xbdf0dd85	-0.117610015
239	0x3d44e13b	0.04806636
240	0xbd633123	-0.055466782
241	0xbe2f070b	-0.1709253
242	0x3d51a937	0.051186766
243	0x3d595d2d	0.053067375
244	0xbdc20d96	-0.094752476
245	0xbe90165a	-0.28142053
246	0xbda18bc3	-0.078879856
247	0x3b9f5583	0.0048624887
248	0x3dc9e97f	0.09858989
249	0xbdbcf74a	-0.09226854
250	0xbe52d667	-0.205896
251	0xbee3180c	-0.44354284
252	0x3df1b56e	0.11802183
253	0xbdf47506	-0.11936383
254	0x3da4132b	0.080114685
255	0x3d031120	0.031998754
