appinstallation/all_model.tflite (tflite, 660684 bytes, 8 tensors)

sequential/dense/BiasAdd/ReadVariableOp f4 [100]
00000000: 5ee4 603c 360c 8bbf ec69 a3bc 1eb2 c93d
00000010: 3850 1ebe f42f 72bd 09a8 39bd 417d 783e
00000020: 0d33 8cbd b809 69bc b738 48bd c88f cb3d
00000030: 63b9 c2bd 6792 1cbe 9b0f a9be b9c5 fa3d
00000040: 78b6 0ebe f75d 993d 3105 233b 3948 a9bd
00000050: 1a82 7a3e c724 f43d 2585 cabc c38e e4bd
00000060: fd35 46be ea5f 1fbe a512 12be 22e1 8bbd
00000070: a6f7 5f3d 462e 7b3e 0ea7 363e 752b febd
00000080: 1a10 21bd 565b 38bd be58 32bd 29b5 853e
00000090: fc82 fabd 218a e4bd 2f78 6b3c 9542 273e
000000a0: 9376 963e 374e f03d d39b 0bbd 1fe4 3a3d
000000b0: 9100 623d bf7b 01be 9fe9 653d 86e8 323e
000000c0: e6e7 6f3d 1314 f1bd c0a1 a13d f2f9 3abe
000000d0: 698f 84be e387 c4bd 2994 bfbb 7b50 143d
000000e0: 41e5 203e fe60 78be a40e 713e 3349 14bc
000000f0: 48a6 37be b932 37bd 7eb9 323e 49a4 79be
00000100: 6928 96bc fcf0 87bd 4544 88bd 8507 cd3d
00000110: c1f8 6bbe 0a9b 813e 8b9f da3e fab5 92be
00000120: e300 c8be 1811 6d3d 3d19 7e3e c363 903d
00000130: 5f4e acbd b2b5 1e3e 469c b6bc 55c3 843e
00000140: 6711 b93e 9e99 a03b e2d2 213e 24c7 3abe
00000150: 2856 69bd a0eb 773d 02f9 f83d dc22 c1bd
00000160: 2a20 3cbe 5c8f ae3c d7df 9f3c 4a82 b73d
00000170: da3f 8d3e d815 cfbd 9627 f8bd 3137 b6bd
00000180: 6761 55be 204f 05bf ae1d eebe 3fd6 49be
0.013726322 -1.0863101 -0.019947968 0.09848426 -0.15460289 -0.059127763 -0.045326266 0.2426653
-0.06845675 -0.014223509 -0.048882212 0.099395335 -0.09508016 -0.15290223 -0.3301972 0.12244744
-0.13936794 0.074886255 0.002487492 -0.082657285 0.24463692 0.11921077 -0.024721691 -0.11160042
-0.19356532 -0.15563932 -0.14264925 -0.0683005 0.054679535 0.2452937 0.17837164 -0.124106325
-0.039321996 -0.04500898 -0.043541662 0.26114777 -0.122320145 -0.111591585 0.014371916 0.16333993
0.2938734 0.11733668 -0.034084152 0.04562771 0.05517632 -0.12644862 0.056131 0.17471513
0.058570765 -0.11771407 0.078921795 -0.18259409 -0.25890663 -0.09596231 -0.0058465195 0.036209565
0.15712453 -0.2425575 0.23540741 -0.009050655 -0.17934525 -0.044726107 0.17453572 -0.24379076
-0.018329816 -0.06637761 -0.066536464 0.100112 -0.23044111 0.25313598 0.42699847 -0.28654462
-0.39063177 0.05787763 0.24814315 0.07050278 -0.084133856 0.15498999 -0.022291314 0.25930277
0.3614609 0.004901125 0.15803102 -0.18240029 -0.05696693 0.060527444 0.121568695 -0.09430477
-0.18371645 0.021308593 0.019515915 0.089603975 0.27587777 -0.10111588 -0.121169254 -0.08897246
-0.20837937 -0.5207386 -0.4650702 -0.19710635

sequential/dense_1/BiasAdd/ReadVariableOp f4 [14]
00000000: 4a73 35be 6785 d03f 25ab ff3d e69d 033d
00000010: 7387 cd3d 200f 483c d9e2 04bd ff66 74bf
00000020: 0468 bcbf 4bbe 0c3e 34ba 80bd 30ed 61bd
00000030: 431a dbbd d47b 543e
-0.1771976 1.6290711 0.12483815 0.032133006 0.100356005 0.012210637 -0.0324429 -0.9546966
-1.4719243 0.13744466 -0.062855154 -0.05515784 -0.106983684 0.20750362

sequential/conv1d/BiasAdd/ReadVariableOp f4 [64]
00000000: 817d 253e 75a6 1e3d 33dc 363d e2db abbc
00000010: 8bf0 5dbf e8ff e5be d6c3 89bc 8919 31bd
00000020: ef67 41be 1e49 153e bd88 3a3d 6b59 febd
00000030: 9573 a9bc d41a c73d 86bb ab3d 3248 ebbd
00000040: ce4f ac3b 9571 81be 0ce5 10bd 0fa6 5b3d
00000050: af91 2dbd 7c5c 0abd 610b 423d 8ff7 01be
00000060: 04a1 123e ec59 a7be c024 ec3d a570 b1bc
00000070: 01c7 6ebd fae5 d5bd 8efe 773e 5f53 343d
00000080: b347 863e b6e9 143e 2a55 a13c 3c53 f9bb
00000090: fab0 133e 1388 90be 8eec 33bd 0093 20be
000000a0: dfdf 0bbe 24ae cb3c 6951 86bd b58d 9fbe
000000b0: ddd0 dbbd 9292 58be e3d5 d63c ccb0 efbd
000000c0: 0f26 98bd babb e5be 3ec3 47bd af90 a3bd
000000d0: 4d63 163d 4110 903d 764d 52bd 2a49 423c
000000e0: 6da2 713d b6d9 2e3e 07ec cdbc 44ee 1f3d
000000f0: af4d 0bbe ce2f 5ebc 61b0 5ebd f1a7 a5bd
0.16161157 0.038732965 0.044643592 -0.020978872 -0.86695164 -0.44921803 -0.016817015 -0.043237243
-0.18887304 0.14578673 0.04554056 -0.12419399 -0.020684997 0.09721914 0.08385377 -0.114883795
0.005258537 -0.2528197 -0.035374686 0.053625163 -0.042375263 -0.033779606 0.047374133 -0.12692092
0.14319235 -0.32685792 0.11530447 -0.021660158 -0.058295254 -0.10444255 0.24218199 0.04402482
0.26226577 0.14542279 0.01969393 -0.0076087993 0.1442298 -0.28228816 -0.043926768 -0.15681076
-0.13659619 0.02486331 -0.065584965 -0.311628 -0.10733197 -0.21149662 0.026225036 -0.11703643
-0.07429134 -0.44869787 -0.04877018 -0.079865806 0.036715794 0.0703435 -0.051343404 0.011858264
0.058992792 0.17075238 -0.02513696 0.039045587 -0.13603853 -0.013561202 -0.054367427 -0.08088673

sequential/conv1d_1/BiasAdd/ReadVariableOp f4 [64]
00000000: bd05 783c b3c2 393e f4e6 f0bd 0f9d 16bd
00000010: 398e 233e c025 033e b5bd ad3d 9e7e 8bbe
00000020: 4539 c3bc a98f 4b3d 58b3 853e 56b6 3c3e
00000030: 4488 e43c e371 9ebe 0b2c 463d cf5c 09be
00000040: 91e3 f43c 5e37 cfbe f1a8 a13d 7048 9b3d
00000050: d94c 203e 5fc8 7f3c 809e 0fbf 271d 9e3e
00000060: 4e67 3fbc bb2b aebe 25ba 703d ba95 f0be
00000070: ac98 b73d 44fd f2bd 753f c9be 57a7 26bc
00000080: 50c0 acbe bba4 22bd 9d24 a63e be64 dbbd
00000090: b9d7 2cbd 54c7 7c3d 799f a23d d173 993e
000000a0: 77e1 033e 7fca 39bd 5ca8 ee3d ce65 bdbd
000000b0: 5d99 5d3e 13a0 24bf f980 f839 a6e0 423e
000000c0: 02b3 413d cab2 923e 00d2 49be 675b 9bbd
000000d0: 6b3a 9b3d a4bb 8fbe a404 313d 1928 4cbd
000000e0: 7a3f e9bd 1c59 763e 04f9 893e e58d 76bf
000000f0: 9fda 5dbd 109a e1bc 2a11 29bb 5d88 203d
0.015138087 0.18140678 -0.11762801 -0.036770876 0.15972222 0.12807369 0.08483449 -0.2724504
-0.02383102 0.049697552 0.2611339 0.1842893 0.027897008 -0.30946264 0.048381846 -0.1341431
0.029893668 -0.4047193 0.07893551 0.07582176 0.15654315 0.015611737 -0.56101227 0.30881616
-0.011682345 -0.3401774 0.05877127 -0.46989232 0.08964667 -0.11864713 -0.39306226 -0.010171733
-0.33740473 -0.03970788 0.3244981 -0.107125744 -0.042197917 0.06171353 0.07940573 0.29971173
0.12878977 -0.04535913 0.11653206 -0.09247933 0.21640535 -0.64306754 0.00047398338 0.19031009
0.047289856 0.2865203 -0.19709015 -0.07585793 0.07579502 -0.28072846 0.043217316 -0.049842928
-0.1138906 0.2405743 0.26947796 -0.96310264 -0.05416357 -0.027539283 -0.0025797584 0.039192546

sequential/dense/MatMul f4 [100, 1472]
00000000: 949d 00be 19f4 e6bc 93c1 1fbe 704d 5e3b
00000010: 2867 ee3c 34ac c6bc cf73 bc3c c9cd 64be
00000020: 840b c83d 1f6b c0bb a139 133c ba85 733c
00000030: 56bb 14be 4da9 2d3e 929b a03c 6017 0cbd
00000040: fa00 743d fdc8 23be 3625 653d d1ed 043e
00000050: 5923 56bc 81c5 95bd 4e7b 8bbd ac72 aabd
00000060: 6b05 28bd e837 efbd 5640 76bd 291c 05bd
00000070: 61ec cabc cd14 493d 3aea d33d 9e04 b13d
00000080: 30b6 cf3d 6d5d c5bd a74f ca3c a275 30bd
00000090: 21fd 39bc 9e3a 06be f06e 613c c2dc 39bd
000000a0: a649 e3bd 37d5 28bd 1b49 e43d 5ada 9cbd
000000b0: 8e26 193d bb6f 53bd 608c 01bd 7930 8dbc
000000c0: 6025 973d 6443 28bd d955 f13c 26dc 81bd
000000d0: 0278 303c c6d1 92bb 141d 603d dd36 083e
000000e0: 4c51 98bc 30ab 0e3d 7baf f53c b11e 81bd
000000f0: 21fa 96bd 6a18 033d 3a04 9b3c 61f3 813c
00000100: 9f04 1dbd add9 893d 72ca 26bd 4dfb 1b3d
00000110: d08d 003c a20d 73bd 6e0e 22be bc7b b6bd
00000120: b2a6 b53c 182c 2fbb 53e3 c0bd 2eab 603d
00000130: 9bc5 753d d9d8 0b3e 3850 96bc f9ba a3bd
00000140: 8315 efbd ff73 dabd 0184 14be ec4b ddbc
00000150: 7a8c 123c 4def 8abd ac2b cebd d733 fcbd
00000160: 345c 58bd b9f6 a1bd 5ee1 883c c51b b03d
00000170: d38f 83bd d634 0fbd 2e38 233d f163 553d
00000180: 07b9 573d 891b 113d 1ad0 5d3e 0187 6bbd
00000190: 0970 8d3c 16f4 5fbe 35ab e83d d311 c93c
000001a0: 262f 8f3c 742c 1bbd 1e3b b83d 92f3 603d
000001b0: e35d 993d fb80 74bd 3296 403e fa5c 50bd
000001c0: 0fc3 213c fb82 b4bd 94f9 aabd 714a 57bd
000001d0: 9ac2 7e3d 29ee bd3b 4fe4 833d 75c5 60bc
000001e0: fbb5 08bd faff 3fbc cd6e d93c 0b3d 00be
000001f0: 2819 16bd e5ee 0ebd 17b9 70bc e15e 963c
00000200: d2cb 3dbd a287 b0bc 303f 0bbd 6ad9 423d
00000210: 1d84 cebc 08fb 76bc 4e0f da3b 3b8e b6bd
00000220: 677e bfbc a898 f6bd bf1e aebd 7115 07bd
00000230: 697c 203e b03f 5dbd 4de3 e7bc ba50 44bd
00000240: 0d8e cdbd 6428 c9bd e675 863d e19b 49bc
00000250: f5ac fcbc 7b7d b8bd 7624 a93d f1a8 0dbe
00000260: cd8d 05bd 1fbd babd 0a85 95b9 208f 533c
00000270: 6501 433d d68d 5fbc ceb2 283d 4666 2b3c
00000280: 44ce 2abd 62f2 c8bc d3c5 053e 0b30 573d
00000290: f0e2 4abd bf76 c2bd 6855 c33d c92f 0bbe
000002a0: f47a 40bc 1678 ccbd 1ff3 8d3d 9c3b 26bc
000002b0: acc5 e23b bedc 43bd 1517 703a 8d09 95bc
000002c0: 17ec e7bc 1a4d b93c 3e20 01be 300e 443d
000002d0: d52d 44bc 30bb aabc f687 e4bd a117 b43d
000002e0: 8a86 893c a210 c83c 6282 1dbe 5683 e0bd
000002f0: 8983 82bd 46a0 84bc 3ce8 55bd 1576 ff3d
00000300: a86a 13bd fe10 9cbc d3a6 263d 7bb5 193e
00000310: dec5 68bd 1012 a0bd 3905 8f3d 0f3b 59bd
00000320: 6f2b bb3d d51b c0bd 5e4b 013c 747e 493d
00000330: a79f b13c b6b5 4dbc fd65 443d c9f3 66bd
00000340: e411 7cbe f4f9 f3bd e5d9 4f3d da74 32be
00000350: d409 283d 3650 29bd 744d 53bd 8604 d5bd
00000360: bb3f 06bd 2532 9d3d 5682 99bd 8fa4 b1bd
00000370: 1498 32bc bfe1 a73a 4547 56bd 6d00 03bd
00000380: 8de6 833c 28b8 b43c ca72 ca3c 22c7 873d
00000390: 20af 85bd 3a31 65bb c0dd af3d 27d3 09be
000003a0: 74d2 66bc 40ad 6cbd 0f16 063e 9070 c4bd
000003b0: f834 ba3c 47e5 65bd 257b 20bd e6af 94bd
000003c0: 0365 323b 463f 923a dfc0 433c ed66 2f3d
000003d0: d682 a33d 7e20 bf3d 7846 2abd 576f a23d
000003e0: de66 15bd 97be 7f3c 49ce b93c 26f2 e4bd
000003f0: 3b0e 1fbd 8e7c 67bd ff0c e53d 2d1f c6bd
-0.12560111 -0.028192567 -0.15601186 0.0033920668 0.029101923 -0.024252035 0.02300444 -0.22344126
0.097678214 -0.005872145 0.008985908 0.014863426 -0.14524588 0.16959114 0.019605432 -0.03420198
0.059571244 -0.1599464 0.05594369 0.12981345 -0.013069951 -0.073130615 -0.06810628 -0.08322653
-0.041020792 -0.11680585 -0.06011995 -0.03249756 -0.024770917 0.049092103 0.103474095 0.08643459
0.101421714 -0.0963696 0.024696184 -0.043080933 -0.011351855 -0.13108298 0.01375936 -0.045376547
-0.11098032 -0.041218963 0.11146756 -0.07658835 0.037390284 -0.051620226 -0.031628013 -0.017235028
0.073801756 -0.041079894 0.02945988 -0.06340818 0.0107708 -0.0044805733 0.05471523 0.13302179
-0.018593453 0.034831226 0.029990902 -0.06304682 -0.07371927 0.032005705 0.018922914 0.015863122
-0.038334485 0.067309715 -0.04072041 0.038081456 0.007846311 -0.059339173 -0.15825817 -0.08910319
0.022174213 -0.0026729163 -0.09418359 0.05485075 0.060002904 0.1365694 -0.018348798 -0.079946466
-0.11674025 -0.10666656 -0.1450348 -0.027013741 0.008944625 -0.06783924 -0.100669235 -0.12314575
-0.052822307 -0.07908387 0.016709026 0.085990466 -0.06423917 -0.034962498 0.0398485 0.052097265
0.05266669 0.03542665 0.21661416 -0.057501797 0.017265337 -0.21870455 0.1136078 0.024544632
0.017478537 -0.03788419 0.08995651 0.054919787 0.074886106 -0.059693318 0.18807295 -0.05086992
0.009873166 -0.08814045 -0.083483845 -0.052561227 0.062197305 0.005796213 0.06440031 -0.013718952
-0.033376675 -0.011718744 0.026542092 -0.12523286 -0.036645085 -0.034895796 -0.014692566 0.018355789
-0.046336956 -0.02154905 -0.033995807 0.047570623 -0.02520948 -0.015074499 0.0066546565 -0.08913847
-0.023375703 -0.120408356 -0.08501958 -0.032979432 0.15672459 -0.054015815 -0.028306628 -0.04792855
-0.1003686 -0.09822157 0.06565456 -0.012305231 -0.030844191 -0.090083085 0.082589075 -0.13833977
-0.032605935 -0.09118103 -0.00028518616 0.012912542 0.04760875 -0.013644656 0.041186146 0.010461396
-0.041700616 -0.02452964 0.13063745 0.05253605 -0.04953283 -0.09495305 0.09537774 -0.13592447
-0.011748064 -0.09983842 0.06931137 -0.010146048 0.006920537 -0.047817938 0.0009158713 -0.01819303
-0.028310819 0.022619773 -0.12609956 0.047865093 -0.011973818 -0.020841211 -0.11158745 0.08793569
0.016787786 0.024421994 -0.15381768 -0.1096255 -0.063727446 -0.016189706 -0.05222343 0.12473694
-0.035990387 -0.019051071 0.04068644 0.15010636 -0.056829326 -0.07815945 0.06983418 -0.05303484
0.09139144 -0.093803085 0.007891504 0.04919286 0.021682573 -0.01255553 0.047948826 -0.056384835
-0.246162 -0.11912909 0.05074491 -0.17427388 0.041024998 -0.04133626 -0.051587537 -0.104012534
-0.03277562 0.0767558 -0.07495563 -0.08673965 -0.010900516 0.0012808366 -0.05231406 -0.031982828
0.016101146 0.022060469 0.024712939 0.066297784 -0.06527543 -0.0034971968 0.08587217 -0.13459454
-0.014088262 -0.05778241 0.13094352 -0.09591782 0.022730336 -0.05612686 -0.03917994 -0.072601125
0.0027220852 0.0011157773 0.0119478395 0.042822767 0.07983939 0.09332369 -0.04157111 0.07931393
-0.036475055 0.015609405 0.022681372 -0.11178999 -0.03883193 -0.05651527 0.111841194 -0.09673915

sequential/dense_1/MatMul f4 [14, 100]
00000000: 734e ef3d d66f 2b3e b86e fb3c 455b 99bd
00000010: f67c b4bd feb3 1e3e c00e 5a3d 7c46 6bbe
00000020: 01f2 bcbc fcbd 26be 2a4a 2c3e 2d94 8d3d
00000030: 18bd 18be 0a7b 07be c7f4 9d3c 4e90 8d3d
00000040: fddd 323d 0509 14be 23ee a53d 7f77 5cbc
00000050: 897b abbc 6f6f 383e 365f 313c 9b60 063e
00000060: 0181 19bb 026b 003e 5ca3 db3d 35cc ccbc
00000070: ccdf a43d e5be 58be b591 5dbc eab4 073e
00000080: 56be 75bd 7966 fc3d a6be 8a3d d182 fb3d
00000090: 3516 d23d 2585 413e 1d6f 943d c77b fbbd
000000a0: d5f4 24be 9aa1 c7bd 126a e93c f921 fabc
000000b0: c562 bd3d 0ad5 e8bc 528b b73c ba5c 16be
000000c0: c043 8ebd 2e5d a0bd 0d38 34be 2866 603e
000000d0: 001e f2bc e481 2abe 0491 d5bc 3d75 86bd
000000e0: 61b4 ab3c 8bd0 383e 7098 bf3d 6eed 13bb
000000f0: 8b6d 8ebd 1bf0 bfbd 6e10 8fbc 1901 2b3e
00000100: 427c 8bbb dbcf 9a3d d2f3 c83d d64f 323e
00000110: 2048 28bd f53f a93d fa4d ec3d 14b2 2fbd
00000120: 93eb 853d d041 debd 2450 3cbe baf0 5cbe
00000130: 2e61 74bc 9172 853d 29ca 273c b427 2fbe
00000140: 7e2a 4c3d aaf6 fe3d 42f1 973d cffa 5a3b
00000150: 3ee2 27be 8e4d 043d 4c22 e3bd fa6f d0bc
00000160: 490a 603e d484 4abd 6ba8 74bd 2625 943d
00000170: 5d07 ad3c 4b66 1a3e 9090 05bd 4495 f53d
00000180: e39b cd3d 4306 ca3d 6daf e5bd 0a76 ab3d
00000190: 8c13 9e3d e323 f23c 9dd9 223e 7901 36bd
000001a0: 1bb1 113e da02 143c e6e3 423d 9168 81be
000001b0: 6412 adbd e846 c0bc d0ce d43d d9f7 30be
000001c0: d504 33bd 8539 2ebe 9eec 95ba bee4 39bc
000001d0: d564 cf3c 48a9 cabd 7762 98bc 6d3c 493d
000001e0: ca47 c13d 92f3 e13d 6d30 abbe 2636 7b3d
000001f0: 202b 68bd 4e71 6b3d f3bb 6b3c 753c 203e
00000200: 9e6a 38bc 8952 92be 113f 983b 23a7 7cbd
00000210: 0b6d e4bd dd0b 2ebe 9114 713d aae5 013e
00000220: 043e b03d 3fa9 5c3d 558a cd3d 6483 913d
00000230: 5eb9 f8bd 4132 773d 4339 253e 055f a8bd
00000240: 82ef 75be 92ff 2b3d a008 673d 623d a8bd
00000250: 76f2 3cbd b341 ee3d b674 873d b63e 113d
00000260: dd3a 1c3e 80e3 35be 5b2f f03d 9e3d cc3d
00000270: dee2 6abd bee0 82bd 259c 7f3d 7684 d53d
00000280: 9d4e 613d 73df 4cbd 1531 af3c 9d2a 14bd
00000290: 1796 a1bd 6c0e 5ebd 2e5e ecbd fc98 003e
000002a0: b18c 963d 5ac5 023e 75fa d53d 91a5 103e
000002b0: b86e cbbd 761f 9cbc d553 15be 5f60 80bd
000002c0: e9f1 233e 42a8 c03b d41c 4f3e edf5 583d
000002d0: 7371 1c3e d5f3 d13d c250 003d 52b3 00bd
000002e0: acf8 4bbe 45fb e13d e4eb 023d 5f03 763e
000002f0: 677d 26be e694 11be ea20 74bd a716 3dbd
00000300: 8d25 34be 5787 e73d 687a a8bd 2b97 013d
00000310: db6a 733d 9d22 973b ba5f 87bd 6998 febc
00000320: b9ee 1cbe 937f 85bd fdd8 09be cb6a 8f3d
00000330: 08ff 0c3e c548 0fbe 2003 7cbd 8627 b6bd
00000340: 8af9 15be 2dd8 38be c6d1 5cbd 6b02 94bd
00000350: 2bfb 43be 9d8c 38be 9f7b 83bd 0b41 263d
00000360: a86a a63d 25c7 b73c d5d9 8f3d 3edc 4bbc
00000370: b856 8c3b ef66 e03c 22df 273e 9144 80bd
00000380: d339 663c b945 0cbe c53d df3d a855 78bb
00000390: de15 b3bd 4406 403e 9466 d63d 2784 1ebd
000003a0: e6f9 803d 72a8 8f3c 3bf8 d0bd c98c 1dbe
000003b0: a7d6 5e3e 420c 45be a4a0 18bd 3200 d6bd
000003c0: 1576 333e 3468 0fbe 2a75 66bc 9b82 683e
000003d0: dfea 56be f0f5 94be d62b 0bbd d396 d0bd
000003e0: 2cc2 2abd c7f8 d43d 922c eabe ca2d 0f3c
000003f0: dee2 86bd 0e58 53be f551 3d3d 85da b5bc
0.11684885 0.16741881 0.030692443 -0.074881114 -0.08812897 0.15498349 0.053236723 -0.22976106
-0.023064615 -0.16283411 0.16825166 0.06913028 -0.14915884 -0.1323053 0.019281758 0.069122896
0.043668736 -0.14456566 0.081020616 -0.013456224 -0.02093293 0.18011259 0.010825923 0.1312279
-0.002342284 0.1254082 0.10724518 -0.024999717 0.08050498 -0.2116657 -0.013523509 0.13252607
-0.05999597 0.123242326 0.067746446 0.122808106 0.10258142 0.18898447 0.07247756 -0.12279468
-0.16109021 -0.0974762 0.028492961 -0.030533778 0.092473544 -0.028421897 0.0224053 -0.1468381
-0.06946516 -0.078302726 -0.17599507 0.2191397 -0.02955532 -0.16651112 -0.026070125 -0.0656533
0.020960035 0.18048303 0.09355247 -0.002257194 -0.069544874 -0.09371968 -0.017463889 0.16699637
-0.004256756 0.075591765 0.0981213 0.17413267 -0.04108441 0.08264152 0.1153831 -0.042894438
0.06539073 -0.108523965 -0.18389946 -0.21576205 -0.014915748 0.065159924 0.01024107 -0.1710499
0.04984521 0.12449391 0.07419063 0.0033413654 -0.16394898 0.032300524 -0.11090526 -0.02544402
0.21878923 -0.04944308 -0.05973093 0.07233648 0.021121675 0.15078084 -0.03260857 0.11991361
0.10039499 0.098644756 -0.112151004 0.083721235 0.07718572 0.029558128 0.15903325 -0.044435
0.14227717 0.009033883 0.047580622 -0.2527509 -0.08450773 -0.02347131 0.10391009 -0.17282046
-0.04370578 -0.1701413 -0.0011438315 -0.01134604 0.025316635 -0.09895569 -0.01860164 0.049129892
0.09437521 0.110327855 -0.33435383 0.061330937 -0.056681752 0.057481103 0.014388072 0.15648063
-0.011255888 -0.28578594 0.00464619 -0.06168283 -0.11153611 -0.16996713 0.058857504 0.12685266
0.086055785 0.053872343 0.1003615 0.07105139 -0.12144731 0.06035066 0.16135125 -0.082212485
-0.24017146 0.041991778 0.05640471 -0.08214833 -0.046129666 0.11633625 0.06614058 0.035460196
0.1525683 -0.17762566 0.11727782 0.0997269 -0.057345264 -0.063905224 0.06240477 0.104256555
0.055006612 -0.050017785 0.021385709 -0.03617345 -0.078899555 -0.054212973 -0.11541401 0.12558359
0.073510535 0.12770596 0.104481615 0.14125659 -0.09933227 -0.01905797 -0.1458276 -0.06268381
0.1601025 0.005879433 0.20225841 0.052968908 0.15277652 0.102515854 0.031327017 -0.031421013
-0.1991908 0.11034254 0.031963244 0.24024723 -0.16258775 -0.14216956 -0.0596017 -0.04616418
-0.1759245 0.11305111 -0.08226472 0.031638306 0.059428077 0.0046122805 -0.06610055 -0.031078534
-0.1532544 -0.065184735 -0.1346168 0.07002791 0.13769162 -0.13992603 -0.061526418 -0.08894257
-0.14645973 -0.18051215 -0.053910993 -0.07227024 -0.19138782 -0.1802239 -0.06420063 0.040589374
0.08125812 0.022433827 0.0702397 -0.012442647 0.0042827986 0.027392833 0.16393712 -0.06263078
0.014051872 -0.13698472 0.109004535 -0.0037892852 -0.08744405 0.1875239 0.10468784 -0.03870025
0.06297664 0.017536376 -0.10203596 -0.15385737 0.21761571 -0.19242957 -0.037262574 -0.10449256
0.17525513 -0.14004594 -0.01406602 0.22706072 -0.20988034 -0.29093885 -0.033977352 -0.101850174
-0.041689083 0.10399013 -0.4573713 0.008738944 -0.0658624 -0.20639059 0.04622074 -0.022198925

sequential/conv1d/Conv1D f4 [64, 1, 3, 15]
00000000: 96e8 823e 23ac b33d 702f 73bd 1d05 37bb
00000010: 0dab 153c de72 70bd 2e26 87bd 0f1e 05be
00000020: 297e 553c ec89 d23d bee1 0c3e 9aab b73d
00000030: 15e5 9c3d 59cf 8abd 85e1 c73e cd8c 563e
00000040: 7a5d dd3a 132e 71be fa00 bcbc 56d2 89bc
00000050: 4b63 283d 741e 533c 39e7 823c d88a b13d
00000060: 3bd3 843e 39aa 0e3e b0a1 7cbd 9851 383e
00000070: d49a 89bc a816 ad3e 253f b73d 0e2d f4bd
00000080: fed7 acbd 21a8 fa3c f680 9dbc 2094 d63d
00000090: 0358 7e3d c6ab 533d 34d3 ed3c 38f1 ac3e
000000a0: ce5d 803e c993 5f3d e0e3 ac3e 1f91 7b3c
000000b0: 977c e63e 5adb 7e3d 0024 8a3d 8392 32bd
000000c0: 37c6 51bc a51a 663d d1a9 3f3d 8725 243d
000000d0: bb49 373e a74a ab3d 931f dd3d baae 41be
000000e0: f3d8 9cbd 1354 233e 5cdd 44bd 5861 5e3e
000000f0: 796b 423b a71b 933c cdf8 debd 3eac dfbc
00000100: 941a 0abc d7e4 413c a967 c43d 5433 db3d
00000110: 9001 aabb 6b92 1c3d 1d9c c5be 55e0 7abe
00000120: 7ff2 9c3d fbee 20bb c811 6f3e 52c8 233d
00000130: 7d15 763e d4d8 763d c6d9 1a3d 9a30 d93c
00000140: 589e c93d 40ea 12bd a4f4 a2bd 0d28 a4bc
00000150: ca90 103e 857b dcbe 5e44 aebd a5de 093d
00000160: 195f 59bd 146b 253e 5b31 24be da43 d43e
00000170: 9b78 88bd 37ac 14bd 5aa1 a9bd ba86 ad3d
00000180: 1b8f dabd 0cdb ff3d f03b 50bd e081 353f
00000190: 6612 4c3d c9ba 1fbf cc47 c53c 4ac6 27be
000001a0: f334 443d 28de 13be e013 fd3e 8b1d a9bd
000001b0: 30b2 2ebc 75ee 83bd 1370 c53d 9ca3 0a3e
000001c0: 4f33 73bc 94ae 91bd 31b8 0e3f 8f8b c6bd
000001d0: ac11 c5be 57e0 7dbe 3887 34be 56cb 7c3e
000001e0: 6454 e9bd e10e 133f 69a5 c23d 348b f23c
000001f0: ff56 34be 22d7 f1bc b2b8 3f3e 3883 9a3d
00000200: 0ec7 98bc 69ba f43e 3d78 cd3d cf87 07bf
00000210: 1c02 1abe 7cfb 29be 8764 7e3e 930e a93d
00000220: 69f2 c63d 7dbb 0e3e 327e 58bd 720f 7abb
00000230: 4625 49be 788a 1fbe 3f2f 963d 8807 1e3d
00000240: 7324 6ebe 127e 563d 5329 1e3e 56d8 063e
00000250: 4a36 cd3c 1e7d 82be 158b dd3d 5bf7 723c
00000260: a5a5 533e dc24 16bd f575 243d af95 5cbb
00000270: acb6 4f3e 6c15 e8bd 992d c0bc 7153 eabe
00000280: a71c 723e 9f4a 473e b1cb c33d 0283 46bc
00000290: fb02 0fbe f5c7 123c 6bad 3f3e 53a4 673e
000002a0: 9895 c9bc c198 18bd e779 f0bd a50c 92bc
000002b0: e935 443e 1370 393e 981d c8be 409d a83b
000002c0: 7938 a23e e808 5d3d 05f7 d2bd 4d0d ccbd
000002d0: a596 f83e f550 ad3e 85e8 9dbe 46c8 79bd
000002e0: 16d6 06be 1e11 8cbe d9b7 80bd 1d4a a83d
000002f0: 4a5c c3b9 bbd4 213e 19a7 6e3f 303f f2be
00000300: 2507 013e 9ea0 333c 1070 9b3c ef24 3e3f
00000310: 6ffb 723e a343 cebe 9483 bfbd 8442 a63c
00000320: ee75 973d 7579 113c 6720 ba3b daaa a13c
00000330: fdc7 e8ba 8c8d 6e3f dc56 86be aff3 3ebe
00000340: 6713 113d 65f0 493e 29b0 303f f884 013f
00000350: 8006 87be 6359 55bd ec2d b53b 541c 193d
00000360: f0e9 603e 5b4d d5bd 9760 92bc fdde b73d
00000370: b05a 6e3f 4d7d 83be d16e 9b3a 1cca ed3d
00000380: 7620 cebc de13 1e3f 24f1 043f dcc7 4abe
00000390: d7c6 b1bd 70e9 1cbd 80d9 cdbc 6372 273e
000003a0: c456 1e3d 3e4b 7fbc c58c e93d 9994 113f
000003b0: d4ab 08bf 793e babd f842 dc3d cf3a fbbd
000003c0: 4be6 0b3f 741b 123f deba 05bc 14db a5bd
000003d0: d517 bbbd 96b5 1e3e 1934 b23c 79af fdbc
000003e0: 818d 9abd debc 74bd 3163 193f dd9e f3be
000003f0: fe77 023e e557 123e bac4 943d 132b fb3e
0.25568074 0.08773067 -0.05937141 -0.0027926632 0.00913502 -0.058703296 -0.06599079 -0.12999748
0.013030567 0.10280213 0.13757989 0.08968277 0.076608814 -0.0677783 0.39039245 0.20952149
0.001688882 -0.23552732 -0.022949684 -0.016823929 0.04111032 0.012885679 0.015979396 0.086690605
0.25942406 0.13932122 -0.061677635 0.17999876 -0.01679746 0.33806348 0.08947591 -0.11922656
-0.08439635 0.030597748 -0.019226532 0.10477471 0.062095653 0.051677488 0.029031374 0.33777785
0.25071567 0.0545843 0.33767605 0.015354424 0.4501693 0.06222091 0.06745148 -0.043596756
-0.012803606 0.056177754 0.04679281 0.04007485 0.1789922 0.08363848 0.10797038 -0.18914309
-0.07658567 0.1595004 -0.048062667 0.21716821 0.002966611 0.017957522 -0.10887299 -0.027303811
-0.008429188 0.011834345 0.09590084 0.107031494 -0.0051881745 0.038225573 -0.38595667 -0.24499638
0.0766344 -0.0024556506 0.23346627 0.039985962 0.24031635 0.060265377 0.03780534 0.026512433
0.09844655 -0.03586793 -0.07956818 -0.020038629 0.14117733 -0.43062988 -0.08509134 0.033659596
-0.053069208 0.16154128 -0.16034453 0.41458017 -0.06663629 -0.03629705 -0.082827285 0.08472963
-0.106718265 0.12492952 -0.05083841 0.709013 0.049822234 -0.62394387 0.024082087 -0.16384235
0.04790206 -0.14440215 0.49429226 -0.08257588 -0.0106626 -0.064419664 0.09640517 0.13538975
-0.014843776 -0.07113376 0.55749804 -0.096945874 -0.38490045 -0.2479261 -0.17629707 0.24686942
-0.11393049 0.5744458 0.09504206 0.029607393 -0.17611311 -0.029521529 0.187228 0.07544559
-0.018649604 0.4779847 0.10032699 -0.529416 -0.15039867 -0.1659984 0.24843036 0.08254733
0.09714205 0.13938709 -0.052854724 -0.0038156179 -0.19643125 -0.15580165 0.0733323 0.0385814
-0.23256092 0.052366324 0.15445451 0.13168463 0.025050301 -0.25486082 0.108175434 0.014829482
0.20668657 -0.036656246 0.040151555 -0.0033658554 0.20284528 -0.11332211 -0.023459243 -0.45766786
0.23643743 0.1946206 0.095603354 -0.012116196 -0.1396598 0.008958806 0.18718497 0.22621278
-0.024607465 -0.037255052 -0.11742001 -0.017828295 0.1916119 0.18109159 -0.39085078 0.005145699
0.3168371 0.05396357 -0.103010215 -0.099634744 0.48552433 0.33850828 -0.3084146 -0.06098201
-0.13167605 -0.2735681 -0.06285066 0.08217261 -0.0003726206 0.15803806 0.9322372 -0.47313833
0.12600382 0.010963587 0.018974334 0.74275106 0.23728727 -0.40285978 -0.093512684 0.020295389
0.0739554 0.008879055 0.005680132 0.019734789 -0.0017759796 0.93184733 -0.26238143 -0.18647645
0.035418894 0.1972061 0.690188 0.5059352 -0.26372147 -0.0520872 0.005529156 0.03738053
0.2196424 -0.10415145 -0.017868323 0.089780785 0.9310713 -0.25681534 0.0011858587 0.11610815
-0.025161963 0.61749065 0.5193045 -0.19802803 -0.08680504 -0.03830856 -0.025128126 0.16352229
0.038656965 -0.015581904 0.11403803 0.5686737 -0.5338719 -0.09093947 0.10754961 -0.12267076
0.54648274 0.5707314 -0.008162228 -0.080984265 -0.09135405 0.15498957 0.021753358 -0.030967461
-0.07546521 -0.05975043 0.5991698 -0.4758214 0.12741086 0.14291342 0.07264085 0.490563

sequential/conv1d_1/Conv1D f4 [64, 1, 3, 64]
00000000: c871 893e 8b73 153e 9719 a33c 9f2d 19be
00000010: 5d01 c7bd b75c 5cbd 8216 67bc 3505 973d
00000020: 5c24 86bd eabd a7bc 5200 a7be 263f 0f3c
00000030: 3524 80bd d25d 61be 5cef c8bd d615 883c
00000040: 1c71 0abe 066d 053e 0860 fbbc 14e2 36be
00000050: 83a4 22bd b6f5 f2bd 7e63 1abe c52c a3be
00000060: 4e3d 0b3e 54bd db3c 3794 eebc aaf7 45bd
00000070: 8e2a 58be 6a3e 9ebb 28ce 453e aae9 373c
00000080: 3f86 5c3e c564 3f3d c2d2 7c3d e4d0 2abe
00000090: 0429 833d f2fd 8ebd c893 b03d 2e88 0dbd
000000a0: de39 653c 72e8 16bd 2bf0 0fbe 4916 743d
000000b0: 130e 0abd 1f03 093e b122 1ebd 7d88 d73d
000000c0: 040b 303d e23c 27be 2aa9 38ba 0248 0b3d
000000d0: 7b4a 293e 1ce6 9dbe 47b5 d9bd 9be7 81bd
000000e0: ec63 f13d 76e9 a7bd e94e 75be 73da c5bc
000000f0: 5f96 bf3d 2879 5bbd 2036 123e bc3a ad3d
00000100: f040 823e ca5c 693d fb51 2d3d 272c 483b
00000110: 21dd c2bc f9ea b93d 1066 4f3d 5627 c23b
00000120: a32e 1e3d fcd4 0b3d 8a49 44be 13ce 11bc
00000130: c9ca 59be 4266 53be b1ea 58be 257b 1d3d
00000140: ec21 a6bd a0d3 b23d 0d71 443c 5c24 38be
00000150: 81e8 bf3d 02c5 c1bd 2a75 f73d ccf4 20be
00000160: 93d7 09bd 4170 0cbd 5600 05be ae52 63bd
00000170: 61a9 33be 71c2 09be 320f 093e 39b9 41bc
00000180: 2fa1 803c dab0 383e 87a7 03be a5c3 43be
00000190: 6405 c13d 6780 90bd 8ff8 bcbd fe82 003e
000001a0: 3063 3abe 27f9 02be 3708 9dbe 2438 233e
000001b0: 444c c3bd 6b06 4b3e dfb6 c23c 4594 223d
000001c0: 875b d23d 163c 5cbe ce93 00be 00c5 ebbb
000001d0: c502 603d 2ebd 83be 45dc afbd 7825 623d
000001e0: 00d5 443e 9437 b2bd 47d3 39bd c6fd acbd
000001f0: 367f fc3d 5ea9 883c 0392 0bbc dd1b 05bd
00000200: a74b 463e e482 1d3d fada 5a3d 5581 cfbb
00000210: 5653 c2bd 0f07 163d 8053 68bc d923 e83c
00000220: 7273 493c bbdc d43c 1410 89be e9ed 77bb
00000230: db73 d8bd 47de 8fbe ae6d 34bd 6697 e6bd
00000240: bfb3 1ebe ff89 c73d bf60 5b3d 4e38 48be
00000250: 6658 c9bd a070 12bd ab1d 803d b0be 15be
00000260: 919c d33c afca 98bc 1ad5 8eb9 a350 7cbc
00000270: 294b 25be 23bc 4fbd b97b f43d f41d bebd
00000280: 1eff 203e 1c3f 9c3d 96f0 bcbd b0d4 33be
00000290: ca4e 6c3d 4b0a 1c3d 8c1d bdbd 6998 453e
000002a0: baa3 56be 93b3 14be c2b6 85bd a19b b53d
000002b0: dadd 13bd 137a 323e f13b 00bc 13f7 bd3c
000002c0: ec77 813c ad96 d8bd 6b34 c9bd ea9d 01bd
000002d0: 1976 363e da46 9ebe dda9 05be a69f dd3d
000002e0: aff3 333e ee8e 82bd ab07 e43c 3eaa 973d
000002f0: d887 4f3c baf6 a43d cebd b03d f913 5dbd
00000300: de18 c8bd 11ea 0dbe f0dd c13d 913c 17be
00000310: 23b8 5ebe 590b 6ebe 46e3 0cbe 26cb b6bc
00000320: be6f a8bd ddb0 a7be 2fe4 8fbd 6b57 723e
00000330: 5c5f 9c3e da40 813d 3419 f43d 3fdd 523d
00000340: 1c3e 393c 37f3 36bd 38d7 97bd 8d57 bcbd
00000350: a839 edbc 3bae c2bd 032b 073e edce 8cbe
00000360: d858 50bd 7b39 1ebd 6114 e1bd 0388 d3bd
00000370: 48ce e4bd f8e2 51be 11ed d53b 1dc4 9a3d
00000380: 7559 51be 2976 783e c47e aa3d 1a72 11bd
00000390: b64c 59b9 2fbd 8e3c bd3d c8be 6312 8abc
000003a0: ff18 3abd 4c63 33bd f11a 77bc 172d 83bc
000003b0: 6175 69be b549 d13d 8109 59be 19e2 86bd
000003c0: fd5a 43bd 8f0c 15be 923b abbd e021 303d
000003d0: 8ad5 9bbe 569a c73d dcca 7dbd 536b 103e
000003e0: 8c04 993d adc7 81bd 2476 0d3e 0aaf d1bd
000003f0: 5221 fcbd 2d99 a4bd 12b7 1bbe 92af cbbd
0.2684462 0.14594857 0.019909663 -0.1495881 -0.09717057 -0.053799357 -0.014104487 0.0737404
-0.06549904 -0.0204763 -0.32617432 0.008743083 -0.06256906 -0.22008446 -0.09811279 0.016611975
-0.1351971 0.1302987 -0.03068544 -0.1785968 -0.03970767 -0.11863272 -0.15077016 -0.31870094
0.13597605 0.026823677 -0.029123409 -0.048331894 -0.21109983 -0.0048292177 0.19316924 0.011225143
0.21535586 0.04672696 0.06172443 -0.16681248 0.064043075 -0.0698203 0.08621937 -0.0345537
0.013990847 -0.03684277 -0.1405646 0.059591565 -0.03370483 0.13380097 -0.038607303 0.1052408
0.042979255 -0.16331819 -0.00070442504 0.03400422 0.16532318 -0.30839622 -0.10630279 -0.06343003
0.11786637 -0.08198826 -0.23955883 -0.024152016 0.09354853 -0.05358234 0.1427846 0.08458468
0.25440168 0.056973256 0.04231451 0.0030543895 -0.023787083 0.090780206 0.050634444 0.0059250994
0.038618695 0.034138665 -0.19168678 -0.00889923 -0.21268763 -0.20644477 -0.21183278 0.038447518
-0.08111939 0.087317705 0.011989844 -0.1798262 0.093705185 -0.094614044 0.12082894 -0.15718383
-0.033652853 -0.03428674 -0.1298841 -0.05549877 -0.17545082 -0.1345308 0.13384703 -0.011823946
0.015701858 0.18036214 -0.12856875 -0.19117601 0.09424856 -0.07055741 -0.09227096 0.1254997
-0.182019 -0.12790357 -0.3067033 0.15939385 -0.09536031 0.19826667 0.02376884 0.039692182
0.10271364 -0.21507296 -0.12556383 -0.007195115 0.05469014 -0.2573027 -0.08586935 0.055211514
0.19221878 -0.08702007 -0.045367505 -0.08446841 0.12328951 0.016682323 -0.008518699 -0.032497276
0.19364797 0.038454905 0.05343149 -0.0063325563 -0.09488551 0.036627825 -0.014180064 0.028337406
0.012295591 0.025984159 -0.2677008 -0.0037831014 -0.10568973 -0.28099272 -0.04404991 -0.11259346
-0.15498255 0.097431175 0.05355906 -0.19552729 -0.09831314 -0.03575194 0.06255659 -0.14623523
0.025831493 -0.018651335 -0.00027243124 -0.015400085 -0.16141953 -0.05071653 0.11937661 -0.09283057
0.1572232 0.07629225 -0.092255756 -0.17561603 0.057692327 0.038095754 -0.09234151 0.19296421
-0.20960894 -0.14521627 -0.06528999 0.088675745 -0.036100246 0.1742938 -0.007826791 0.023189103
0.015804254 -0.10575614 -0.09824451 -0.03164474 0.17818488 -0.3091343 -0.13053079 0.10821466
0.17573427 -0.06374918 0.027835688 0.07405518 0.012666665 0.08054872 0.08629952 -0.053974126
-0.09770368 -0.1385882 0.09466159 -0.14769198 -0.2174993 -0.23246516 -0.13758573 -0.022313666
-0.08224438 -0.32752123 -0.070259444 0.2366616 0.30541503 0.063111976 0.119188696 0.051480528
0.011306312 -0.04466554 -0.074140966 -0.091963865 -0.028958157 -0.09505888 0.13200001 -0.27501622
-0.050865978 -0.038629036 -0.10990215 -0.103286766 -0.111721575 -0.20496738 0.0065285047 0.07556937
-0.20444281 0.24263825 0.0832496 -0.035509206 -0.0002072331 0.017424194 -0.39109603 -0.01685447
-0.045433994 -0.04379587 -0.015082107 -0.016012711 -0.22798683 0.102191366 -0.21195032 -0.065860935
-0.047694195 -0.14555572 -0.083609715 0.043001056 -0.30436355 0.09746234 -0.06196104 0.14103441
0.074715704 -0.06336913 0.13814598 -0.10238464 -0.12311043 -0.080370285 -0.15206555 -0.09945597
