appinstallation/thingy_model.tflite (tflite, 656212 bytes, 8 tensors)

sequential_2/dense_5/BiasAdd/ReadVariableOp f4 [14]
000000 dc 05 5f bf 3a 0d c8 3f 9e 52 4d 3e 6d bb d8 3c
       -0.87118316 1.5629036 0.20051047 0.02645656
000010 98 74 cf 3d 94 45 5f bd bc d7 34 be 27 b5 a0 3e
       0.1012966 -0.054509714 -0.17660421 0.31388208
000020 a5 d8 f2 bf 61 b1 9c 3e 8f c9 ea bb 37 fc 38 bd
       -1.8972365 0.3060408 -0.007165141 -0.045162406
000030 a8 f7 b9 3d bd 86 7b be
       0.0908044 -0.24563117

sequential_2/dense_4/BiasAdd/ReadVariableOp f4 [100]
000000 03 af bb 3d 3a b0 d0 be c3 34 70 3d 23 33 7c be
       0.0916424 -0.4075945 0.058644067 -0.24628882
000010 dd 9c e2 bd 23 11 18 bd fe 0a c2 3c aa b4 e3 3e
       -0.110650755 -0.037125718 0.023686882 0.44473773
000020 f8 5c a1 bd 98 5f 10 be 0a 7a 59 be 71 64 b4 bd
       -0.078790605 -0.14098966 -0.2123796 -0.0880822
000030 19 10 8d 3d 4e 10 98 bd 78 f9 ab 3d 38 cd da bd
       0.06887836 -0.07424985 0.08397192 -0.106836736
000040 f9 99 c9 bd 16 32 41 be 4c 3a 6a 3d 8b 9d 3b bd
       -0.09843821 -0.18866763 0.057184502 -0.04580454
000050 7d 8a 0b be 86 3d 4d be cc 76 2d bd 3a 63 1f be
       -0.13627048 -0.20043 -0.04234962 -0.15565196
000060 06 30 08 be 66 66 e5 3e 16 ee 2d be 04 16 82 3d
       -0.1329957 0.44804686 -0.16985354 0.063518554
000070 62 96 92 3d 61 15 3d be d5 93 c7 bd 0e b9 f3 bd
       0.071575895 -0.18465187 -0.097449936 -0.11900531
000080 3d 6f 77 bd 55 2e 4e be 68 90 e7 bb 1c 65 b5 3d
       -0.06040882 -0.20134862 -0.007066775 0.08857176
000090 ad 4c 6b 3e c2 06 4b bd 36 4b b4 be 32 12 62 bd
       0.22978468 -0.04956699 -0.3521363 -0.055193134
0000a0 9e e2 bd be 0c 4f ac 3e 41 7c 72 be 85 26 66 3d
       -0.37086958 0.33654058 -0.23680212 0.05618908
0000b0 c1 f3 13 bd eb 2d ea 3c 2f a6 fe 3d cf e9 7f be
       -0.036121134 0.028586349 0.12434041 -0.24991535
0000c0 5d 5c e3 3d ef 01 e7 bd 5d 96 ec 3d 33 bc b9 3d
       0.11101601 -0.11279666 0.11552117 0.09069099
0000d0 a6 fc c4 bd d4 8c 9e 3d cf 09 92 3b ee f1 b5 bd
       -0.09618501 0.077417046 0.0044567357 -0.08884035
0000e0 7b b5 08 bd 16 4d 2e bc 56 ec c1 be 0d 65 6c be
       -0.0333762 -0.010638496 -0.37875623 -0.23085423
0000f0 36 ba 9f bd 2f 69 9a 3e 78 d2 05 3d d9 26 05 be
       -0.07799189 0.30158374 0.03267142 -0.130031
000100 06 48 22 be c5 21 63 3d 16 9e 08 be 80 11 15 3e
       -0.15847787 0.055452127 -0.13341555 0.14557457
000110 24 90 3b 3e a7 f3 6a be 77 a8 11 3d af cf 33 bd
       0.18316704 -0.22944508 0.03556105 -0.043899234
000120 ba 95 a0 3c da 7d 82 be e7 00 cf 3d 42 74 82 3e
       0.019602645 -0.25486642 0.10107594 0.25479323
000130 e1 0c e3 be ca bb 8f bd f3 7c f9 bd 59 96 bc 3d
       -0.44345763 -0.0701824 -0.12182035 0.09208364
000140 85 c3 2a be 2d be ab 3e 0f c2 b1 bd af 76 13 be
       -0.16676147 0.3354353 -0.08679592 -0.14400743
000150 2a 0b 7e 3d f9 72 cb bd 1b a6 3c 3e ca e5 1b ba
       0.062022366 -0.09934039 0.18422739 -0.0005947022
000160 8f 84 e8 bd 1d f1 76 3e c1 e1 00 be f8 9b 73 be
       -0.113534085 0.24115415 -0.12586118 -0.23789966
000170 c4 e2 ce bd f2 86 dc 3d 00 9d 54 3d 1a a0 3c be
       -0.10101846 0.10767926 0.05190754 -0.18420449
000180 9f 8a 86 3c 28 b1 11 3e 1f 9d 5c 3e 4a dd fe bd
       0.016423522 0.14227736 0.21544312 -0.12444551

sequential_2/conv1d_5/BiasAdd/ReadVariableOp f4 [64]
000000 b6 a0 d7 3d 0f 9b bc 3a 43 e6 81 3e 9b e8 5b 3e
       0.105287 0.0014389473 0.25370988 0.2147545
000010 c8 4b 68 3e 05 c6 95 3b c6 f5 fc bd cc 92 36 3e
       0.22685158 0.004570725 -0.12351565 0.17829436
000020 3b 9d 3a 3d 7c e1 31 3d ec 87 0f 3a 7e 53 94 3e
       0.045560103 0.04342793 0.0005475271 0.2896995
000030 7e 84 d1 3d ee 60 d6 3c 2b ab ba 3c 94 8f 07 3f
       0.10230349 0.026169267 0.022786697 0.5295346
000040 1a 71 7c be fc f4 28 be 1e b9 27 3e 70 a4 9c bc
       -0.2465252 -0.16499704 0.1637921 -0.019121379
000050 0e b4 1a bd d6 32 02 3f 3f 79 b8 bd 69 12 a9 bd
       -0.03776937 0.5085882 -0.09007501 -0.082554646
000060 38 48 cf 3d 16 c6 2a be 04 12 40 3e 77 27 ab bc
       0.101211965 -0.16677126 0.18756872 -0.020892842
000070 a2 64 29 be 47 ff 50 3d 13 ae e7 bd f8 40 39 3d
       -0.16542295 0.0510247 -0.11312499 0.045227975
000080 fa af af bd 68 21 07 3e 77 54 00 bf 62 ec 56 bf
       -0.08578487 0.13196337 -0.50128883 -0.8395444
000090 ad d9 28 be 5f e5 60 3d 54 1f 8d bd dc 97 08 bd
       -0.16489287 0.054906245 -0.06890741 -0.03334795
0000a0 81 0a 06 be c4 b1 ac 3d 24 ac 15 be ae 94 20 3e
       -0.13089944 0.084323436 -0.14616448 0.15681717
0000b0 b7 f2 e7 3d 58 bb 64 3e d9 3c c2 bd 7c c1 22 be
       0.11325591 0.22337091 -0.09484262 -0.15894121
0000c0 34 6a 87 bd 0a 55 60 3e 64 62 c8 be 1f 07 a1 3e
       -0.066120535 0.2190744 -0.39137566 0.31450745
0000d0 f3 db a9 3e 58 d3 4b bd a4 90 4f 3e c8 d8 08 3e
       0.3317562 -0.0497621 0.2027002 0.13363945
0000e0 8e 2e 21 3e ae b1 5f 3e 5a 59 7d 3d b6 df f6 bd
       0.15740415 0.21845123 0.06185279 -0.12054388
0000f0 7d 14 a0 bd 63 a3 e0 bc 0d 5a de 3d 10 55 26 3e
       -0.07816408 -0.027421659 0.108570196 0.16243386

sequential_2/conv1d_4/BiasAdd/ReadVariableOp f4 [64]
000000 91 58 c4 bd 10 ca 45 3e a6 75 81 be d1 66 27 3c
       -0.09587205 0.19315362 -0.2528507 0.010217384
000010 6f d8 81 ba a1 14 2b be 43 be ab bd eb 1d 0c 3e
       -0.0009906421 -0.16707088 -0.08385899 0.13683288
000020 87 41 61 be 10 32 57 bd 45 32 6a be 1a a1 9e be
       -0.21997653 -0.052537978 -0.22870739 -0.30982286
000030 ee e5 42 bc 8a 8a 5e be df bf c8 3b 08 36 9b ba
       -0.01189564 -0.21732536 0.0061263884 -0.0011841664
000040 62 b4 91 3c c7 b8 09 3e a0 10 cd bd a6 86 55 3e
       0.017786209 0.13449393 -0.100129366 0.20852146
000050 a8 cb b2 3d 0c 5a aa be 08 a8 06 3d 9f 2b 3e be
       0.087302506 -0.33271825 0.03287509 -0.18571328
000060 e6 bb f5 bd 05 13 04 3e 89 8f 09 3b 72 0c e9 3d
       -0.119987294 0.1289788 0.0020990095 0.11379327
000070 96 8f 18 be 6d 8e 0f be 2a 77 3d be 33 c9 23 be
       -0.14898524 -0.14019175 -0.18502489 -0.1599472
000080 51 65 4f bd 0d 10 41 be a9 92 b1 bd 83 11 14 be
       -0.050633732 -0.18853779 -0.08670551 -0.14459805
000090 84 e6 9a 3d b7 0f b4 be 93 83 7f be cb 13 71 be
       0.075634986 -0.3516824 -0.24952535 -0.23542707
0000a0 4d 51 16 3d ba b9 d0 3c a8 aa 0f be 79 c6 be bd
       0.03669863 0.025479186 -0.14029944 -0.093151994
0000b0 a6 44 ae bd cc 4c b6 3e 21 75 de bc a4 a2 40 be
       -0.085091874 0.35605466 -0.02715546 -0.18812042
0000c0 71 7f ec bd 7e 1a 86 be df ef a1 be 9b 5d 93 3e
       -0.11547745 -0.26192087 -0.3162832 0.28782353
0000d0 fc 05 e6 3d 14 11 ea bb 8f 03 70 3d 02 0f 36 3e
       0.1123161 -0.007143149 0.058597144 0.17779163
0000e0 2f 7c 18 3b 49 b3 68 3d 79 2d 84 3d 6f 69 91 3e
       0.0023267379 0.056811605 0.06453986 0.28400752
0000f0 e2 27 8a bf d5 e5 96 3e b1 84 4e 3e 53 2a 47 3e
       -1.0793421 0.29472223 0.20167805 0.19449739

sequential_2/dense_4/MatMul f4 [100, 1472]
000000 84 dd 62 3d 4b ea da 3c 1a d9 36 3c 8d 75 6c bd
       0.055387035 0.026723048 0.0111601595 -0.057729293
000010 bc 56 39 be a1 46 92 3b af c2 14 bc 43 95 cc bd
       -0.18099493 0.004463986 -0.009079619 -0.09989407
000020 14 d0 06 bd 13 3a 86 bc 5b 14 04 bd 4c ce 4d 3e
       -0.032913283 -0.016385114 -0.032245975 0.20098227
000030 9e 88 26 3d bd 56 fb bd 64 f7 15 bd fa 4c a7 3d
       0.040657632 -0.122724034 -0.036612883 0.08168979
000040 0f c0 96 bd f9 d6 cc 3d b1 90 f1 bd 60 78 89 bc
       -0.07360851 0.1000194 -0.11795176 -0.016781032
000050 1c ca 2a 3d 88 4d a3 bd 64 42 73 bc ee a6 c3 3b
       0.041696653 -0.07973772 -0.014847372 0.0059708273
000060 d0 ec bf bd 60 cb 89 3d cc 8e dc bc df 7a 8d bd
       -0.0937134 0.06728244 -0.02692356 -0.069082014
000070 78 3d 20 bd 02 8a c4 3d ce 8c b3 bc 32 87 28 bb
       -0.03912112 0.095966354 -0.021917727 -0.0025715348
000080 bf 17 fe 3b 0d 11 8f bd 7c 03 f0 bd b4 5d 05 be
       0.0077542956 -0.06985674 -0.117194146 -0.13024026
000090 00 ad 30 bd d0 b6 d2 3c 0b b9 f0 b9 f7 9d 56 3c
       -0.043133736 0.025721937 -0.00045914235 0.013099185
0000a0 39 d7 30 be bc eb cb 3c 57 71 46 3e 7e 27 f5 3c
       -0.17269601 0.02489268 0.19379173 0.029926058
0000b0 79 d3 09 be 03 d9 11 3d ce 2e c2 bd e6 be a3 bd
       -0.13459577 0.03560735 -0.094815835 -0.07995395
0000c0 7a cc 70 3d c3 10 9a 3b 40 40 d6 bd 47 1f 6b 3e
       0.058788754 0.004701705 -0.104614735 0.2296115
0000d0 21 63 7c bd df 31 cf bc 8c 38 af 3d 48 ef c1 3d
       -0.061617974 -0.025292335 0.08555707 0.094694674
0000e0 5b bb 22 bd 86 f7 f0 bc ef 2b 92 bc c7 52 fe 3c
       -0.039729457 -0.029414903 -0.017843215 0.03104533
0000f0 25 bc 85 bc 78 dc 3c bc 72 1f a5 bd 15 53 2b be
       -0.016325066 -0.011527173 -0.08062638 -0.16730912
000100 98 3a ed bc 1f 4e 20 bb 4e 7d 87 bd 17 c1 ed 3d
       -0.028958604 -0.0024460626 -0.06615697 0.116090946
000110 e1 6b 68 bc 30 a2 10 3e 85 98 90 bd f0 15 93 bd
       -0.014185877 0.1412437 -0.07060341 -0.071819186
000120 9b 74 1e 3d 92 c7 7d bd d4 ad 63 bd b4 e0 62 3d
       0.038685422 -0.061957903 -0.055585697 0.055390075
000130 46 cd 1f 3d 25 d4 10 3b 22 47 c2 3d 84 86 45 3d
       0.039014123 0.0022099104 0.09486224 0.048223987
000140 f7 9d b3 bd b6 ce af 3c ee f4 69 be 89 c4 cf bd
       -0.08770364 0.021460872 -0.2284734 -0.10144908
000150 11 10 ba 3c 02 3a 0f be 0d 10 a3 bd 07 53 16 3b
       0.02271274 -0.13986972 -0.07962046 0.0022937672
000160 f3 14 a5 3c 76 d8 3c bc 6e 40 86 bc bf c7 63 3d
       0.02015159 -0.011526218 -0.016388144 0.055610415
000170 98 fc 77 bd 96 00 06 be a3 6d ff bc 8f 36 93 3d
       -0.060543627 -0.13086161 -0.031180209 0.071881406
000180 e6 f3 2a bd 5e 29 a0 3b c5 68 12 3d f2 6e cd 3d
       -0.041736506 0.004887744 0.035744447 0.10030927
000190 e4 fa 2b bd 39 59 a8 bc c0 d3 e5 3b 18 f2 a1 3d
       -0.041987315 -0.020550357 0.007013768 0.07907504
0001a0 78 12 e1 bc 45 49 b0 3c 1d 93 85 bd dc 12 a3 bc
       -0.027474627 0.021519313 -0.065222 -0.019906454
0001b0 2d ea bd bd 95 ed 65 3d d7 d3 ac bd 0d f9 0d bd
       -0.09273181 0.05613478 -0.08438843 -0.03466134
0001c0 df 94 5b 3d a6 ff 81 3c e1 41 e9 bc db 36 ae 3c
       0.05360877 0.015868973 -0.028473796 0.021266392
0001d0 3d e0 c9 bd f9 66 0e bc 7a a8 a3 3d 03 e7 a2 bc
       -0.09857223 -0.008691543 0.07991119 -0.019885546
0001e0 6e 31 a6 3d 6e a3 96 3d 3a 87 ee bd d6 65 b0 3c
       0.08114897 0.073553905 -0.11646886 0.021532934
0001f0 81 95 1e 3d fb 15 7b 3d 08 f6 67 3d 04 33 c8 bd
       0.038716797 0.06130026 0.056631118 -0.097753555
000200 f1 97 f1 3d d3 d3 9b bd da 26 0f 3e ec 2b 87 bd
       0.11796559 -0.07608762 0.13979664 -0.06600174
000210 02 36 30 bd 99 c3 ad bd 15 32 6f 3c d6 81 2b be
       -0.043020256 -0.08484573 0.014599343 -0.16748747
000220 cd 2a 07 3d 19 0d d8 bd 61 0c 17 bb e9 7e 60 3d
       0.032999802 -0.10549373 -0.002304815 0.05480853
000230 7a 7e 59 bd e4 6a 32 3d d7 1e f4 3d 22 59 08 3e
       -0.053099133 0.04355897 0.11919945 0.13315251
000240 f0 81 eb bd b1 2b 02 3d 28 85 97 bd 11 df 81 bd
       -0.11499393 0.03177995 -0.073984444 -0.06341375
000250 58 63 13 bd 2b 6b a3 bd f7 21 8d bb 6d 91 5d 3c
       -0.035983413 -0.07979425 -0.0043070274 0.013523442
000260 fb 2f 34 3d 55 91 a6 bb 40 c4 5f bc 13 54 2b 3d
       0.04399107 -0.005083243 -0.0136576295 0.041828226
000270 4c cb f1 3c 1e 53 8c bd 7a 59 55 ba fa df 08 be
       0.029515885 -0.06851791 -0.0008138638 -0.1336669
000280 7e b4 07 be 38 39 f4 bd 0f 54 8e 3d 40 9a f1 3c
       -0.13252446 -0.11924976 0.06949627 0.029492497
000290 53 12 1a 3c 5a 54 6e 3e 81 40 2d bd c6 15 3a 3d
       0.009403783 0.23274365 -0.042297844 0.04543092
0002a0 ee b5 95 bd b7 94 77 3d e7 b8 86 bd ae 2c 8c bd
       -0.07310091 0.06044456 -0.06578236 -0.068444595
0002b0 e6 72 24 bd e2 a6 bb 3d e2 5b fa bd 7a 99 f8 bd
       -0.04014864 0.0916269 -0.122245565 -0.12138648
0002c0 49 10 ab bb 00 99 f4 3c e9 45 92 bd 46 4a 85 bd
       -0.005220447 0.029858112 -0.071422406 -0.06508307
0002d0 fb 7d 25 bc 0c 5d 03 bd 15 b6 5f 3d ef 8d 01 be
       -0.010100837 -0.03207116 0.054617006 -0.126518
0002e0 85 26 1d 3d 25 31 a0 bc 81 d8 b6 bd 2a 19 2b be
       0.038366813 -0.019554684 -0.089280136 -0.16708818
0002f0 73 18 96 bc d1 46 d8 bd 00 d7 91 bd 79 32 26 bd
       -0.018322205 -0.10560382 -0.07121086 -0.04057548
000300 1f f7 f8 bd b7 31 9b bc 25 ac 0c bd eb da 27 bd
       -0.121565096 -0.018944604 -0.034343857 -0.04098026
000310 72 fb 9c bb d9 f3 20 3c 7c 4d 09 3e 4f 3e c9 bd
       -0.004790717 0.009823763 0.13408464 -0.098263375
000320 95 df f0 3d c4 5f 73 bc 32 3b b8 3a 76 08 4e be
       0.11761395 -0.014854375 0.0014055728 -0.20120415
000330 d5 b0 91 3c 31 9e eb bc 17 96 8b bc d3 d1 b8 bb
       0.017784515 -0.028761955 -0.017039342 -0.0056402474
000340 6e 11 95 bd d4 a9 fd 3c b8 71 52 3c 7c 66 39 3c
       -0.07278715 0.03096477 0.0128444955 0.011315938
000350 fa d9 d4 bd f7 e5 25 3e bf 3e 00 3d 5b 00 dc bc
       -0.10393138 0.16201006 0.03130984 -0.026855638
000360 3f 67 ba bc 35 61 59 bd e2 52 25 bd 74 cb 97 3d
       -0.02275431 -0.05307122 -0.040362246 0.074118525
000370 f6 13 c9 bd f7 99 f4 bd ec 49 47 3d 4c c7 0e 3b
       -0.0981826 -0.11943429 0.04865448 0.002178627
000380 e0 5a 48 3c 9d ba 61 bd 9e 39 4f 3b 57 1c 81 bd
       0.012228698 -0.05510961 0.0031620036 -0.063042335
000390 4a d2 9e 3d c4 01 89 bc d1 be fe 3c 36 e8 8c 3b
       0.07754953 -0.016724475 0.031096848 0.0043001426
0003a0 57 aa b8 bd 50 64 18 3d e5 1b 6a bc d8 87 df bc
       -0.09016865 0.03720504 -0.014288877 -0.027286455
0003b0 d1 ba 4e 3e 51 f3 87 bd 3d c2 d7 bd 26 c3 4b bd
       0.20188452 -0.06638206 -0.10535095 -0.049746655
0003c0 0e 07 f7 bc 53 25 39 bc 60 7a 68 bd cb 9e a1 bd
       -0.030154731 -0.011300403 -0.05675733 -0.078916155
0003d0 c9 f4 75 bd 45 77 50 3d 2f 2d 48 3e ab 0f d7 3d
       -0.0600479 0.050894994 0.19548486 0.10501035
0003e0 17 71 5f 3d dc d0 84 3d 9c 3d 86 3d af 6e f0 bd
       0.05455121 0.06485149 0.0655472 -0.11739861
0003f0 d1 6a f3 bd 04 e3 6a bb b2 22 2d 3c 3a 82 94 3d
       -0.11885608 -0.0035840878 0.010567354 0.07251401

sequential_2/dense_5/MatMul f4 [14, 100]
000000 49 a2 9b 3c 28 8f ea 3d da 8c 8d bd dd 40 04 3e
       0.018998282 0.11453086 -0.06911631 0.12915368
000010 d8 1e 03 3d 2c 89 55 3e 2c f2 e0 bb f2 5b 0a be
       0.032011837 0.20853108 -0.0068648066 -0.13511637
000020 bf 75 67 bd 32 7e fe 3d bc 1b b6 3d 0a 71 43 3c
       -0.056508776 0.124264136 0.08892009 0.011928806
000030 62 ab 51 bd 95 0a 2d 3e 32 58 ff bd eb f4 1d 3e
       -0.051188834 0.16898568 -0.12467994 0.1542546
000040 4b 4a 54 bd ee 12 33 bd 61 59 30 3c 73 a4 8e 3d
       -0.051828664 -0.043719225 0.010763497 0.0696496
000050 91 49 de bb 0b 15 aa 3d c3 f6 4b 3e bb 45 d3 bd
       -0.006783672 0.08304795 0.19918351 -0.103160344
000060 b8 90 f7 3c 6b 0a 81 be 68 2f 17 be 0d 02 eb 3d
       0.030220374 -0.2520326 -0.14764178 0.114750005
000070 8b b7 32 3d 3e 4f 21 3e 1e b1 00 3d 38 3d 67 3e
       0.04363207 0.15752885 0.031418912 0.22581947
000080 68 d3 f9 3d 02 33 18 3e fc a7 dc 3d a1 78 8f 3d
       0.12198526 0.14863208 0.10774228 0.0700543
000090 74 a0 46 3d 1b 29 66 be 88 85 b0 3d e5 c6 c5 bc
       0.048492864 -0.22476618 0.08619219 -0.024142692
0000a0 5f cd 36 bc e0 9c 9f 39 55 4c 1a 3e af 10 58 bc
       -0.011157363 0.00030443724 0.15068181 -0.013187571
0000b0 39 93 02 3e 37 aa 13 3e f9 25 4c bd 8f 96 86 3d
       0.12751473 0.144204 -0.0498409 0.065716855
0000c0 04 b3 fc bc d9 93 a3 bd 93 ed 5f be 9b 27 90 bc
       -0.03084708 -0.07987184 -0.21867971 -0.01759701
0000d0 be 3e e5 bc 9a 25 f4 3c a5 e9 ea bd 6b 4d f1 bc
       -0.02798402 0.029803086 -0.114703454 -0.029455861
0000e0 86 70 55 3d 49 ac 8d be e3 58 f8 3d 6b b6 b0 3d
       0.052109264 -0.27670506 0.12126329 0.086285435
0000f0 8b 0f 76 3e 7b de 80 be 05 9b 08 bd 03 84 14 be
       0.24029367 -0.2516974 -0.033350963 -0.14503483
000100 8b 2f 27 3d c2 23 1c 3e 34 0f 14 3e ac dd 24 be
       0.040816825 0.15248016 0.14458925 -0.16100186
000110 54 80 d9 3d 90 6b aa 3d cd 41 67 bd 42 b6 1e ba
       0.1062018 0.08321297 -0.056459237 -0.000605438
000120 43 f6 49 3c 9a ca 1f 3e 62 c9 2e 3d a1 b5 50 be
       0.01232678 0.1560463 0.042672522 -0.20381786
000130 2a 1e db bc 56 e8 02 3e 43 51 eb bd 4c 54 a5 be
       -0.026747782 0.12783942 -0.11490109 -0.32290876
000140 b0 a7 1b be a2 20 4e be 36 8a b5 3d 4a 48 1b 3e
       -0.15200686 -0.20129636 0.08864252 0.15164295
000150 92 f3 5e bd b9 1c 7e 3b 17 44 2b bd 42 0e 15 3e
       -0.054431506 0.0038774444 -0.041812982 0.1455622
000160 f5 a3 97 bd c6 47 61 3c ec dc 43 bd 2f c1 29 3e
       -0.07404319 0.013750022 -0.04781811 0.165776
000170 7b 04 7d 3b 2c a4 a4 bd f5 a1 54 be 94 18 af bc
       0.0038607407 -0.08039126 -0.20764907 -0.021374024
000180 5b fb 37 3e d0 84 95 3d 96 7f f0 bc 43 ce e2 3c
       0.17966978 0.073007226 -0.029357713 0.027686244
000190 9d a5 24 3e 21 a8 4b 3d 06 20 30 be 37 1e 8c 3d
       0.16078801 0.049720887 -0.17199716 0.068417005
0001a0 9a da 39 be f1 6e a5 3d 18 0f bb 3d 9a d5 42 3d
       -0.18149796 0.08077801 0.09133738 0.047566988
0001b0 18 67 de 3d 68 77 13 bc f1 a5 24 bd d0 53 02 3d
       0.10859507 -0.009000637 -0.040197317 0.03181821
0001c0 42 e8 0a bd d1 47 c1 bd 9d d8 26 be 9f 82 10 3e
       -0.033912905 -0.09437526 -0.16293569 0.14112328
0001d0 03 64 e3 3d 8e 25 a7 3d 9e 43 50 3d 72 64 74 3b
       0.1110306 0.0816146 0.050845735 0.0037291315
0001e0 4d 3a a8 bd c7 af 55 bd d4 6d ea 3d 6c a5 92 bc
       -0.08214245 -0.052169587 0.11446729 -0.017901145
0001f0 52 16 36 3e a4 68 b2 be 6c 52 be bd e7 11 03 3e
       0.17781952 -0.3484546 -0.092930645 0.12799798
000200 35 bd 9d 3a d3 b3 ec 3d a8 66 33 bd 4f 69 3a 3e
       0.0012034538 0.11557736 -0.043799073 0.18204235
000210 b7 39 ef 3c 33 fd a3 bb 49 7a 52 3d 0a 94 c5 bd
       0.029202325 -0.005004549 0.05138615 -0.09647377
000220 cd 56 1c 3d fd 34 9c 3d 6e 42 ed 3d c3 cb 24 3d
       0.038168717 0.07627294 0.11584936 0.040233385
000230 60 62 c2 3d 2b b9 80 3d 36 13 20 3d bd 25 b9 bd
       0.0949142 0.06285318 0.03908082 -0.09040401
000240 d1 58 4e bc 93 2a e7 bd 3e e5 09 3e 52 54 1e bd
       -0.012594418 -0.11287417 0.13466355 -0.038654633
000250 ef bc 79 3c 86 dd e0 3d fa 9b 0d bf c5 d3 80 bd
       0.015242799 0.10979752 -0.55316126 -0.06290392
000260 23 63 dd bd 30 18 cf 3d 93 30 e9 3c 36 04 b0 be
       -0.108099245 0.10112035 0.028465545 -0.34378213
000270 9b 69 95 bc 9d 1b 38 be ac da f4 3c 79 37 e8 3c
       -0.018238833 -0.17979284 0.029889427 0.028346764
000280 28 5a b9 bb c6 4b 73 be 61 45 b0 3d a6 cb d8 3d
       -0.0056564994 -0.23759374 0.08606983 0.10585718
000290 10 ae 79 bd 54 23 18 be 3c 02 50 3c 81 5e 64 3c
       -0.060957015 -0.14857227 0.012695845 0.013938547
0002a0 81 6d 40 3e fc 96 95 3c a2 8c 0e 3b 0b 31 51 3d
       0.18791772 0.018260472 0.0021751304 0.05107216
0002b0 66 41 95 3d be 5c 21 3c a8 71 93 bc ce 1e 2a 3e
       0.072878644 0.009848772 -0.017998531 0.16613314
0002c0 f0 a1 36 3d 2b 16 c5 3d d2 05 90 3c ef bd 65 be
       0.04458803 0.09623369 0.0175809 -0.22435735
0002d0 79 b4 07 3d 4c 30 1e be 9a 59 21 3e 55 30 30 be
       0.033131097 -0.15448111 0.15756837 -0.17205937
0002e0 7b 02 ee 3c a1 4b a7 3d 44 50 8e 3c d1 48 0c 3e
       0.029053917 0.08168722 0.017372258 0.13699652
0002f0 01 26 cd be 98 c2 3c bc 5b 50 11 3d dd ca ca 3d
       -0.40068057 -0.011521004 0.035477024 0.09901974
000300 95 39 b6 3d 2a 7c cc bd 70 e5 13 3c c1 6b 4d bc
       0.08897702 -0.0998462 0.00902687 -0.012537898
000310 8d 3e 09 be 19 dc af bd c9 06 8b 3d 70 b8 7c 3c
       -0.13402767 -0.08586902 0.067884035 0.015424833
000320 69 b9 17 bd 9d f8 77 3d 1c b0 62 bd 1d 8d 9e bc
       -0.037042055 0.06053983 -0.055343732 -0.019354397
000330 bb e1 c9 3d 8d ba 00 be 48 9b af 3e 4b c0 84 3e
       0.09857508 -0.12571163 0.34298158 0.25927958
000340 47 ca b7 be e8 88 69 bc 49 b5 08 3e 67 d5 86 bd
       -0.35896513 -0.014253832 0.13350405 -0.06583672
000350 06 c5 29 be 6a ab 57 3e b5 30 f1 3c 42 a9 25 be
       -0.16579065 0.21061483 0.02944217 -0.16177848
000360 6e 38 64 3e bf 58 b2 bd 8f 64 6c 3e b8 75 fb be
       0.22287151 -0.08708333 0.23085235 -0.4911325
000370 57 37 90 be e6 9b 82 3d 98 35 f0 bd a8 23 56 3d
       -0.2816722 0.063773915 -0.11728972 0.0522801
000380 fd 05 cb bd 01 9f a3 bd 59 8e 03 be a2 fd 63 bc
       -0.099132515 -0.07989312 -0.1284727 -0.013915451
000390 4e dc 55 bd 30 aa b2 be ae 02 d9 3d ab 1c e4 3d
       -0.052212052 -0.34895468 0.10596214 0.111382805
0003a0 55 5f f6 3d 7c 0c 67 be e6 d3 e5 3c 15 54 15 3e
       0.12029902 -0.22563356 0.028055143 0.14582856
0003b0 da 69 d9 3c 2f 7c a8 3d 46 11 5d be 58 4b bd be
       0.026539732 0.08226811 -0.2158862 -0.36971545
0003c0 f9 61 a1 bd 33 43 6c 3d 1c 35 2d be bb 87 19 3e
       -0.07880015 0.057681274 -0.16914791 0.14993183
0003d0 bc bc 03 3b 74 7f 59 be 31 b0 89 3e 70 46 b5 bd
       0.0020101508 -0.21240026 0.26892236 -0.088513255
0003e0 f5 f2 4f 3e 01 b7 ed 3d b3 f5 29 3e 86 62 14 3e
       0.20307525 0.11607171 0.16597633 0.14490709
0003f0 de 16 18 3e d9 db 5e 3e 31 58 c5 be 13 db d5 3e
       0.14852473 0.21763553 -0.38543847 0.41768703

sequential_2/conv1d_4/Conv1D f4 [64, 1, 3, 9]
000000 81 7c 31 3c 1d de 8c 3d 81 99 e6 3b 5c ce 3f bc
       0.010832907 0.06878302 0.007037342 -0.011706915
000010 96 13 0e be ac f5 6f 3d 60 cc 6a bd b6 90 8e 3e
       -0.13874659 0.0585839 -0.057323813 0.2784478
000020 8b bc 53 3d bd 6a fc bd 14 69 4c bd 24 aa c3 bd
       0.05169348 -0.12325046 -0.049904898 -0.09553936
000030 3c f2 50 3d 02 86 53 3e 7e 53 c2 3d 2e 1b 18 3e
       0.051012263 0.20656589 0.09488581 0.14854118
000040 92 d2 00 3e 95 99 07 3e e7 d9 bd 3d 01 45 52 3e
       0.12580326 0.1324218 0.09270077 0.20534135
000050 a5 82 97 bd cf 01 96 bc db ef 1a be 21 d4 b0 bc
       -0.07397965 -0.01831141 -0.1513056 -0.021585526
000060 11 af 3d bd 2f 2b 8c bd e6 96 57 3e c5 16 37 3d
       -0.046309534 -0.06844174 0.21053657 0.04469945
000070 04 64 32 3f 57 04 81 3e f6 2c 12 be f3 8d f2 bc
       0.6968386 0.25198624 -0.14274964 -0.029608702
000080 84 c4 a2 3d bd 43 1b 3e 30 86 c2 bc 60 6f 4e bd
       0.07947639 0.15162559 -0.023745626 -0.050399184
000090 23 a9 1b 3e 26 e2 1b 3f 34 03 80 3e 17 3d ef bd
       0.1520124 0.6089195 0.25002444 -0.11681574
0000a0 f5 8e 6e 3c 0f a0 2a 3e 14 85 1d 3e 9e 7a 83 3e
       0.014560451 0.1666262 0.15382797 0.25679487
0000b0 ba 42 52 3e 22 65 18 3e 46 23 f9 3e 5d 30 98 3d
       0.20533267 0.14882329 0.48659724 0.074310996
0000c0 8d ba f9 bd 6d 37 03 be 45 17 2d 3e 8b 7e 1c be
       -0.12193785 -0.12814112 0.16903408 -0.15282647
0000d0 79 0d f5 3d 8a 31 a5 bd 77 39 51 be d1 a8 c3 be
       0.1196546 -0.080660895 -0.20432077 -0.38214734
0000e0 41 14 97 be 2f bf 2a 3d 84 1b c8 3d 38 d6 92 3d
       -0.2950764 0.041686233 0.09770873 0.07169765
0000f0 de b4 b9 3d 81 06 9c bd 18 c6 bd 3d cd 07 52 3a
       0.09067701 -0.07618428 0.09266299 0.00080120267
000100 80 d1 c0 bd ed 4a d2 be 63 64 9e bd 17 6f 47 3c
       -0.09414959 -0.4107279 -0.07733991 0.012172482
000110 80 b1 12 be 2a ab 0b bd fa b2 e8 3c 9d 91 ca 3b
       -0.14325523 -0.03409878 0.028405655 0.0061819092
000120 7f 3c 36 be 80 c9 c3 be 9f fe a4 be c0 b0 8f 3d
       -0.17796515 -0.3823967 -0.3222551 0.07016134
000130 ed 11 e9 3b c2 32 b1 3d 27 5f 9b bd e6 e5 0c be
       0.0071127326 0.086522594 -0.07586508 -0.13759574
000140 35 9a e4 3d de 98 83 3e db bf 53 3e bd b8 5a 3e
       0.11162225 0.25702566 0.20678656 0.21359535
000150 25 e6 cc bd 93 7b be 3d cb 0c 53 3e 91 cf a4 39
       -0.10004834 0.09300914 0.20610349 0.00031435167
000160 90 bb 98 3e 52 b8 6f 3e 53 84 51 3e 91 4d 14 3e
       0.298306 0.23410156 0.20460634 0.14482714
000170 f5 87 8f 3e 6f 1a e4 3d b9 8b b1 3d d7 8a 85 bc
       0.28033414 0.11137854 0.08669228 -0.016301556
000180 3d ad 46 3e 8a 84 82 be 7a e8 07 3e 99 a5 f7 3e
       0.19402023 -0.25491744 0.13272277 0.48368528
000190 be 6c bd 3b 4f a3 4c 3e 3d bc 59 3d 4f b1 71 bd
       0.0057807853 0.19984172 0.053158034 -0.059006985
0001a0 3d 60 f7 3d 61 48 f6 bc 67 d0 29 3d 17 89 6b bd
       0.12078903 -0.03006381 0.041458514 -0.057503786
0001b0 ff fd 0a 3f bd f1 81 3e b0 f4 a6 be 19 f4 67 bb
       0.5429382 0.25379744 -0.32608557 -0.0035393296
0001c0 04 5b 13 be 41 ad 06 3c fb ea 41 be f2 66 91 3d
       -0.14390188 0.008220018 -0.18937294 0.070997134
0001d0 df 14 a3 bd 26 9d 36 3f 55 0a 3a 3e ce fa e0 be
       -0.07962965 0.7133354 0.18168004 -0.4394135
0001e0 68 71 0c bd a6 08 00 be f5 e7 ed 3d f2 97 d5 3a
       -0.03428784 -0.12503299 0.11616508 0.0016295894
0001f0 bd 67 b3 3d ac 84 00 be a7 ae 53 3f d1 da 79 3d
       0.08760021 -0.1255061 0.82688373 0.060999695
000200 95 c1 c3 be d6 47 d2 bd a3 a7 22 be 1f 48 9a bd
       -0.3823363 -0.10267608 -0.15884261 -0.07533287
000210 31 1f 13 3e 39 69 ed bd 70 9f 80 bd 43 a3 37 be
       0.14367367 -0.11592335 -0.0628041 -0.17933373
000220 bc 3c 48 be bf 19 3d 3d c3 be b1 bd 38 90 34 be
       -0.19554418 0.04616713 -0.08678963 -0.1763314
000230 4b 00 dd 3c 55 bf f9 bd 2a 55 0a be 78 27 2f 3d
       0.026977679 -0.12194697 -0.1350905 0.04276225
000240 84 0d bf 3d bd 2d 97 be b4 c2 e2 bd 6a b4 e5 bd
       0.0932875 -0.29527083 -0.11072293 -0.11216052
000250 11 15 53 3d c5 b0 0f be ac ee 9a 3d 5f ed 96 bd
       0.051533762 -0.14032276 0.07565054 -0.07369494
000260 72 4c 4e 3c 6f 02 f5 bd 78 65 d6 be 5f 9d 8a bc
       0.012591468 -0.11963355 -0.4187429 -0.016920744
000270 72 5f 3b 3e 64 c6 f4 3d 16 1b 26 3e a0 47 1f 3e
       0.18298128 0.119519025 0.1622127 0.15554667
000280 dc 0e 94 bd 2a 58 1c 3d 2c 0c 79 be 9f f8 40 3e
       -0.07229397 0.038170017 -0.2432105 0.18844841
000290 b9 63 d5 bd 43 db ca 3d 3b 90 75 bd a3 e9 50 be
       -0.10419411 0.09905102 -0.059952002 -0.20401625
0002a0 c9 8f 62 be c8 50 f6 bd c8 31 ac 3d a5 9d 0e be
       -0.22125162 -0.120271266 0.084079325 -0.13927324
0002b0 f0 b8 12 3e a1 73 76 3d c2 c6 12 3d 4b 63 09 3e
       0.1432836 0.060168866 0.03583408 0.13416784
0002c0 b6 7a a3 3d 5c fd ba 3d 0a f6 90 3e b5 8c 50 3e
       0.0798239 0.09130356 0.28312713 0.20366175
0002d0 59 b8 85 3c e6 ce d1 3d 11 38 75 be bf 51 3b bd
       0.016323255 0.10244541 -0.23947169 -0.045732256
0002e0 29 e9 5a bb 28 5d 56 3e 75 c3 92 3d c6 95 49 be
       -0.0033403134 0.20933974 0.07166187 -0.1968604
0002f0 e6 51 17 3d 6e 6e 35 3f 5c 17 19 3f 1b 26 38 3e
       0.03694334 0.7087163 0.5980127 0.17983286
000300 21 8c 4e 3d 58 38 f9 3b 6b 8d f1 3d 1c 02 34 3e
       0.050426606 0.0076055937 0.117945515 0.1757893
000310 c7 88 61 bc 7b 7f a2 bd 4a 9c 52 3f 2b 4c 19 3f
       -0.01376552 -0.07934471 0.8226973 0.5988185
000320 2e c4 af 3e a8 de 0f 3c 39 1a f2 3d a4 8d 3b bc
       0.3432936 0.008781113 0.11821408 -0.011447344
000330 2f 77 92 bd 65 cd 9e 3d 4e 07 1f 3e ed 57 46 3f
       -0.07151639 0.0775402 0.1553013 0.77477914
000340 38 ce e6 3e 00 b3 87 3e 8c 3d 08 3e 91 47 91 bd
       0.45079207 0.26503754 0.13304728 -0.07093728
000350 d7 4a 3d 3d 12 10 c3 3d 71 33 57 bd 9f 47 24 3e
       0.04621395 0.095245495 -0.052539293 0.16042946
000360 99 10 d3 bd 3d dd 08 3e f9 f7 a7 3e 30 9e 0c bd
       -0.103059 0.13365646 0.32806376 -0.034330547
000370 c3 ef 71 3e ab 15 2b be 9e 54 02 3d 08 c5 8a be
       0.23626618 -0.16707484 0.03181898 -0.27103448
000380 a9 d5 77 bc c6 41 67 be 20 b0 b2 bc 1d 99 ff 3d
       -0.015126624 -0.22583684 -0.021812499 0.12480376
000390 1e 05 7c 3d dc 8c 1c 3d d2 02 ca bd de e2 30 3e
       0.061528318 0.03822027 -0.09863819 0.17274043
0003a0 21 08 5f be c5 46 42 bd b4 0b bb bb d0 0a a0 3d
       -0.21780445 -0.047430772 -0.005708182 0.07814562
0003b0 ef 1e 86 3e cc 67 ff bc 92 ae 38 3b 31 2a a7 bb
       0.26195475 -0.031177424 0.0028180224 -0.005101465
0003c0 bb dc 14 bd 19 81 ca bd cb 3d e5 bb 5f 1e 54 be
       -0.036343317 -0.09887905 -0.0069958917 -0.2071471
0003d0 88 8f 74 bc a4 f6 70 3e 2f 8e 3e be bb b6 a2 bd
       -0.014926799 0.23531586 -0.18608926 -0.07945009
0003e0 6d 31 b0 bd 4f f3 65 3d cf 9a 69 3e 75 7a 6d bd
       -0.08603177 0.05614024 0.22812961 -0.057978112
0003f0 12 65 23 3d 7c 70 24 3e 26 e7 ca 3e 3c fa 21 3d
       0.03989131 0.16058534 0.39629477 0.039545283

sequential_2/conv1d_5/Conv1D f4 [64, 1, 3, 64]
000000 f0 f7 0b 3d 04 4f 87 be 78 39 0a 3e 64 17 60 bd
       0.034172 -0.26427472 0.13498485 -0.054709807
000010 40 be 25 be 4e be 5f be 78 2b 1d 3e 4c c8 e4 bd
       -0.16185856 -0.21849939 0.15348613 -0.11171016
000020 5e 4b 80 3d f6 78 97 be b3 d2 30 3d 97 6d 5d 3e
       0.06264375 -0.29584473 0.04316969 0.21623836
000030 31 bb 13 bd 4d b2 0d 3d fd d5 b3 3d 5e 19 6a be
       -0.03606719 0.03459387 0.087810494 -0.2286124
000040 85 10 8d be 33 87 90 be ca 75 eb 3c db 19 7d be
       -0.27551666 -0.2822815 0.02874269 -0.24716894
000050 f4 4a 36 be 3c 7d 66 bc e9 91 c7 be d9 26 d8 be
       -0.1780203 -0.014067944 -0.38978508 -0.42217138
000060 48 f2 94 be 9f 4b e5 3d c3 c2 a4 bd 84 6c 37 3d
       -0.29091096 0.11196064 -0.0804496 0.044781223
000070 59 16 00 bd 21 d7 b3 bd 30 40 0a 3d 34 0b 43 3d
       -0.031271312 -0.08781267 0.03375262 0.047618106
000080 1a df b7 3b 6a 13 e3 3c 52 82 0c be e4 43 50 3d
       0.0056113126 0.027719218 -0.13721588 0.050845996
000090 d9 0b 47 3e b9 11 c5 3d db d8 d5 bd c1 3a 3f 3b
       0.19438113 0.09622521 -0.104417525 0.0029179307
0000a0 b2 ee b6 3d 32 2d ed 3d e1 d4 f5 3c 63 e2 0b be
       0.08932246 0.11580886 0.030008735 -0.13660578
0000b0 39 93 6c 3e 38 57 90 3c ca cd d1 bd a4 4b 2a bd
       0.23103036 0.017619714 -0.10244329 -0.041576043
0000c0 e7 7c 98 bb 9d d0 51 bd fc d1 ad 3c 8b 69 0b be
       -0.0046535614 -0.05122434 0.021218292 -0.1361448
0000d0 ad 96 c1 bb a9 b2 7c be 85 8c c3 bc 92 ed 40 bd
       -0.0059078545 -0.24677528 -0.023870716 -0.047101565
0000e0 a1 80 89 3d 00 94 0e bf 02 03 81 be 2b cc 3e 3d
       0.06713987 -0.5569458 -0.25197607 0.04658143
0000f0 5d 99 d3 bd 00 d7 e7 3d 0a d8 b6 bd 33 c4 bb 3d
       -0.10331986 0.11320305 -0.08927925 0.091682814
000100 a5 26 d0 bc f2 97 dd bd 7c 8a 97 bb 69 06 3a be
       -0.025409052 -0.10819997 -0.004624663 -0.18166508
000110 89 84 22 be d3 17 b7 bd 5f 75 56 3e 32 d0 0c be
       -0.1587087 -0.08940091 0.20943211 -0.13751295
000120 28 16 c2 bd a0 84 68 be 1e 37 21 be 96 94 10 3e
       -0.09476882 -0.22706842 -0.15743682 0.14119181
000130 9c 40 ac 3d 6f 0c d6 bd 1e 22 a3 3d 21 79 9f be
       0.08410761 -0.1045159 0.07965492 -0.31147102
000140 50 97 67 be 9b 2f 0d be 24 71 0e 3e c1 4c e0 bd
       -0.22616315 -0.13787691 0.13910347 -0.1095214
000150 fa 78 43 bc 60 79 7a 3b 7c 70 55 be c8 ad eb be
       -0.0119306985 0.0038219318 -0.2084369 -0.46031022
000160 cc a8 d6 be 2c 98 2f 3e ef 49 7b 3e 08 93 c9 bd
       -0.41925657 0.17147893 0.24539922 -0.09842497
000170 ac 21 d0 bd a4 79 98 3d 00 09 6d 3d 71 cb 9b 3c
       -0.101626724 0.07445076 0.05786991 0.019017907
000180 b2 4c 08 bd 82 48 7f 3d ce 74 14 be ff 69 19 bd
       -0.033276267 0.06232501 -0.14497682 -0.0374546
000190 c3 e8 be 3d 08 4f f6 3d 57 19 86 be 58 0b 31 bd
       0.093217395 0.12026793 -0.26191208 -0.04322371
0001a0 bb d7 04 3e 64 80 78 3d b1 41 b2 bd 0a 7c b6 bd
       0.1297292 0.060669318 -0.08703936 -0.08910377
0001b0 b6 bc 0b 3e cc 6b 15 3c c1 41 62 be f1 cb 82 be
       0.13646206 0.009119939 -0.22095396 -0.2554622
0001c0 86 5f 17 be 09 60 60 bd 58 64 a3 3d f1 87 1f be
       -0.14782533 -0.054779086 0.079781234 -0.15579201
0001d0 98 34 a8 3c 55 17 b2 be 31 24 75 bd 32 6a 48 be
       0.020532891 -0.34783426 -0.059848968 -0.1957176
0001e0 ab a1 4a 3d ed 90 b2 be 07 37 23 bd 77 37 92 bd
       0.049470585 -0.34876195 -0.0398474 -0.07139485
0001f0 14 13 f8 bc a7 e6 09 3e 99 44 f9 bd 48 95 51 3d
       -0.030282535 0.13466893 -0.12171287 0.051167756
000200 42 52 3d 3d 3c 8c 02 3b 3e 18 04 3e 18 3e ea bd
       0.046221025 0.0019920012 0.12899873 -0.11437625
000210 56 ad 90 bd 9a e2 11 be e5 77 e5 3d 53 76 cc bd
       -0.07064311 -0.14246598 0.11204509 -0.09983506
000220 6b cb 7a bb c3 bb 22 be 35 e6 a1 3c 08 cf f6 3d
       -0.003826822 -0.15891938 0.019763092 0.12051207
000230 29 ce f6 bb d6 ca cc 3d e6 8a dd 3d 01 b7 72 be
       -0.0075319004 0.099996254 0.108175084 -0.23702623
000240 05 3a af be 5e 08 89 be 74 35 bb bd e4 93 8f bc
       -0.34223953 -0.26764196 -0.09141055 -0.017526574
000250 91 de ba 3d e7 31 9b 3b 2e 47 26 bd 87 51 b1 be
       0.091244824 0.0047361734 -0.040595226 -0.34632513
000260 7f f1 b0 be be 9d d8 3d 82 74 0e 3e c8 28 1f bd
       -0.34559247 0.10576962 0.13911632 -0.03885725
000270 1e 89 5a 3d c5 a9 01 be 42 a9 74 bd 67 4b 00 bc
       0.05335342 -0.12662418 -0.05973173 -0.007830477
000280 04 b5 a4 3c 21 b6 54 3d ab fc 3a be 0d 34 c6 3d
       0.020105846 0.051931504 -0.18260448 0.09677897
000290 9f 19 a0 3d 3b 45 21 bd af d8 3a bd 6e 5a 48 bb
       0.07817387 -0.039372664 -0.0456168 -0.0030571478
0002a0 ba c9 ec 3a f9 4c 99 bd 1e 2c f8 bd 8c b9 12 be
       0.001806549 -0.074853845 -0.1211779 -0.14328593
0002b0 a0 0a 2f 3e 43 a7 b1 bd 77 16 25 3d dd d7 48 bd
       0.17093897 -0.08674481 0.040304627 -0.04903399
0002c0 2d 82 25 be 52 d1 29 3d 7c 19 50 bd c2 ec 54 be
       -0.1616294 0.04145939 -0.050805554 -0.20793441
0002d0 94 75 e2 bd 31 aa 73 be b6 05 ad bc ad f3 58 bd
       -0.110575825 -0.23795392 -0.021120887 -0.052966762
0002e0 fe 11 f6 bb 64 88 ba be 33 09 39 be 3a 1d c8 3d
       -0.007509469 -0.36432183 -0.18069915 0.097711995
0002f0 98 20 1a be b3 84 95 3d c4 86 1d bd 03 33 0d 3e
       -0.15051496 0.07300701 -0.0384586 0.1378899
000300 b1 47 50 bd 54 8b d6 bc 0f 12 b9 bd 20 c4 25 be
       -0.05084962 -0.026189484 -0.090366475 -0.16188097
000310 a9 e9 9c bd fe 0d 9b bd c7 90 9d 3d b4 d3 09 be
       -0.07661755 -0.07571028 0.0769363 -0.13459665
000320 67 bf 03 bd 0a 0a e8 bb 0f f4 0f bd 66 f2 a3 3d
       -0.032164957 -0.007081275 -0.03514486 0.08005218
000330 16 ac 2b 3d 18 b8 92 bd df b3 04 be 88 4e 32 3c
       0.04191216 -0.07164019 -0.1295924 0.010882981
000340 a8 ac 21 bd b7 e1 db bd b4 a9 18 be 8c 93 fb bd
       -0.0394713 -0.10736411 -0.14908487 -0.12284002
000350 12 f1 88 bd d9 48 d2 bc a6 be f4 3c 9d fb b3 3d
       -0.066866055 -0.025669502 0.029876065 0.08788226
000360 e7 53 d1 3d 43 8e 52 bd d0 b4 5b bd bd 04 42 bc
       0.10221081 -0.051405203 -0.053639233 -0.01184195
000370 4e 83 81 3d 96 c6 75 3d 24 90 27 be 74 c6 73 bc
       0.063238725 0.06000384 -0.16363579 -0.014878858
000380 5e 73 c3 3d 20 e0 f4 bd a0 8f 47 bd 77 af 28 bc
       0.09543489 -0.11956811 -0.048720956 -0.01029574
000390 22 d5 50 3d da 31 9d 3d d8 55 78 bc 7f b8 87 bd
       0.05098451 0.07675524 -0.0151571855 -0.06626987
0003a0 02 8e df bd 14 e3 7a 3d 26 dd 02 3d 7c 8e af 3c
       -0.10915758 0.061251715 0.031949185 0.021430247
0003b0 85 b7 0a be 74 4b fd 3b 4b 9f dc 3c 24 1c 57 bd
       -0.1354657 0.007729942 0.026931426 -0.05251707
0003c0 06 0c 9b bc 9c 32 7e bd 7c c1 92 3d 53 70 b3 bd
       -0.018926632 -0.062059984 0.071658105 -0.087616585
0003d0 7c 8d 85 3d 67 37 f7 bd fd ae b9 3d bc ae ca bd
       0.06521127 -0.12071114 0.090665795 -0.09896609
0003e0 bd 68 06 3d 2c 61 a0 bd db 99 8b bc 10 6d 61 3d
       0.03281473 -0.07831034 -0.017041137 0.05503565
0003f0 84 47 52 3d 55 38 f5 bc 04 be 8e bd 0a ff 42 bd
       0.051337734 -0.029934088 -0.06969836 -0.047606505
